model/gru_physics_epoch_40.pth (torch, 687480 bytes, 18 tensors)

gru.weight_ih_l0 f4 [384, 10]
00000000: 1a26 12bd dfab dd3c e0e8 b53a 2016 913d
00000010: 5fe1 343d 153d 033c 4d98 853d d794 b13c
00000020: 012e 32bd dc5f 0c3d 437c 9b3c 762b ccbc
00000030: e258 4dbd 1bdb 53bc 433b f1bb 0bd8 36bd
00000040: c031 55bd 0ba8 163c e092 c03d 9b8d efba
00000050: 1fbd 39bd 9624 b53d a96b d4bc 31a2 96ba
00000060: eb3c 7dbd 4209 483d 0510 8d3d c5c3 b93c
00000070: c934 abbc b981 573d 2952 a8bd f6c9 97bd
00000080: 250f 70bd 049a 6e3d f727 37bc 7c18 b8bd
00000090: 5209 31bc 617e 8bbd 3267 7a3d 7145 a63d
000000a0: 8e5a 6b3d 6811 73bd 4042 953d c2bb 78bc
000000b0: c0cd 3bbc efd7 97bd 646e afbd c05f 713c
000000c0: bb4a 683d b53f c73c 746e 783c a845 6fbd
000000d0: 6a4c 33bc 5592 3d3c c050 26bd 0a92 e33d
000000e0: 8901 ac3c 5546 b43d 3055 cbbc 238d 5bbc
000000f0: 731a f73c 0412 1ebd 4509 ee3c c5ae e53c
00000100: 3bea 55bd 3461 acbd 2c84 79bd a842 3f3b
00000110: 3915 123d 7ac1 bf3d f82b d1bd 21c2 5dbd
00000120: a9b4 22bd c4a9 dc3b 56a6 e7bc 94c9 2dbd
00000130: 5685 563c 1687 d53c 3e56 813c a0c8 353b
00000140: 5149 7c3d 5314 163d 2a08 38bd 2ea7 88bb
00000150: a860 6ebc ea4c 903d 157d 993d c5e9 d1bc
00000160: a7d1 46bd 67de 033d a94f 2ebc ac69 a0bd
00000170: 3d83 4a3d 7a52 53bd ebc4 babb 955a 393d
00000180: d7fa b9bb b7bd 583c 428d 8d3d 6427 a7bc
00000190: d6d7 efbd 1215 bcbc c49e 74bd f5de a93b
000001a0: 54cd 77bd e322 90ba 9ffc 903d 8ea4 41bd
000001b0: dfd1 8bbc c3a0 cabb 9373 003d d84f a1bd
000001c0: 536e 673d 2672 913c 053f 77bd 24f5 963d
000001d0: 37ad 803d 1120 0dbd e316 c0bd 2e8f 6f3c
000001e0: cff9 373d 0ce4 ea3d c374 5cbc 3554 3cbd
000001f0: cab7 c53b f0a7 953c 1570 b23d 4565 efbb
00000200: f9a0 abbd 4e75 a13c 973f 233d 698e 363d
00000210: f923 92bd 0e3a fdbc b15e afbc aaff debd
00000220: 1b24 7b3c 06f4 94bc df20 023d 5c23 e23d
00000230: 1853 383d 0934 01bd 6f4e 2a3d e40a 05bc
00000240: b79c 1a3d 09a1 b8bc 0107 a13c 114f 053c
00000250: fab1 153d 2f6b 9b3d 87c5 333d 2858 753d
00000260: 267e 993c b31e 12bd f3ed 293d 20c8 8cbd
00000270: de1a 9abc eece c4bc 6baa e93c 433b a73b
00000280: b14b 4b3d 4595 3fbc de02 8f3d b358 1a3d
00000290: 3c2b 5f3d 1318 5e3c 4fde 45bd 7403 84bd
000002a0: c4d2 c2bb 2466 75bd e471 243d 92e2 0d3d
000002b0: f8e8 0fbd ad0c 67bd 9653 be3c c374 21bd
000002c0: fc78 853d 3e07 cf3c 1af7 f33c 9c61 40bd
000002d0: 49d2 363d 32b3 9f3d 297c 90bd 1b80 293d
000002e0: 421b a73c 8882 4f3d d342 a23d 2799 5f3d
000002f0: c9c9 22be b96e 23bd 2e24 0f3e 54db a63c
00000300: 0bf9 693d bbe3 5e3d 3012 653d a5bc 4fbd
00000310: 5368 383d 1d80 aabb 40ce 113d 5855 adbb
00000320: 4480 9d3d a8f4 1bbc fb94 85bd ca10 0abd
00000330: 70a9 b63c 844a 88bd d73e 70bd 6493 9ebd
00000340: 5819 16bc f6fd 793d 4e75 803c f239 ca3d
00000350: b0eb f83c a0e0 7ebc e292 813d 4a50 cebd
00000360: 27e8 53bd 86a6 d4bd 03d9 653b 21ca 173d
00000370: 268f e23c 0915 b1bd 5c21 b3bc ccbe b7b9
00000380: b76d 66bd b3c5 79bc cd90 4b3c a693 afbd
00000390: aa13 a63d 3acc 03bc a688 71bd 00ba e93d
000003a0: 02aa dcbd 3db3 403d e600 963d 24ed 91bd
000003b0: 11c9 9b3c 481a 69bb f70e e73c 0b2b 103d
000003c0: 7701 09ba 7866 95bc b7e8 663e 3c61 6bbc
000003d0: 61b9 22bd 8466 02be a891 d9bd bc47 04be
000003e0: b555 f43d c479 843d cbdd 4cbc f808 563d
000003f0: 4598 ad3c 67e8 143d 74aa 88bd 071a b13d
-0.035680868 0.027059494 0.0013878606 0.07084298 0.044160243 0.008010169 0.0652319 0.021677418
-0.043500904 0.034271106 0.018980151 -0.024923068 -0.050133593 -0.012930657 -0.007361801 -0.04463963
-0.0520494 0.009195338 0.09403014 -0.0018276455 -0.045346376 0.08844869 -0.025930243 -0.0011492429
-0.061825674 0.048836954 0.06887821 0.022676358 -0.020899193 0.052613948 -0.08218796 -0.07411568
-0.058608193 0.05825235 -0.011178962 -0.08989045 -0.010805445 -0.06811214 0.06113357 0.08118714
0.057459407 -0.05934277 0.07288027 -0.015181484 -0.011462629 -0.07414233 -0.08565977 0.014732301
0.056711894 0.02432237 0.015163053 -0.05841604 -0.0109435115 0.011570533 -0.040604353 0.11111839
0.020996826 0.08802477 -0.024820894 -0.013400349 0.03016398 -0.0385914 0.029057154 0.028037438
-0.052225333 -0.084169775 -0.060917065 0.0029184017 0.03566477 0.093630746 -0.102134645 -0.054140214
-0.039723072 0.006734105 -0.028277557 -0.042428568 0.013093313 0.02606539 0.015788194 0.002773799
0.061593357 0.036640476 -0.04492966 -0.00417032 -0.014549412 0.0704592 0.07494561 -0.025624165
-0.048539784 0.03219452 -0.01063911 -0.07832655 0.049441565 -0.051592328 -0.005699744 0.0452524
-0.0056756544 0.013228825 0.069117084 -0.020404525 -0.11711089 -0.022959266 -0.059721723 0.0051840493
-0.06049855 -0.0010996725 0.07079434 -0.047276072 -0.017067848 -0.006183715 0.03136022 -0.07876557
0.056501698 0.017754626 -0.060362834 0.073709756 0.06283038 -0.03445441 -0.09379365 0.014621539
0.04491597 0.11469278 -0.013455573 -0.045978744 0.0060338723 0.018268555 0.08712784 -0.0073057734
-0.083803125 0.019709256 0.039855566 0.044569407 -0.071357675 -0.030911472 -0.021407457 -0.10888608
0.015328432 -0.018182766 0.03176963 0.110419005 0.04500112 -0.031543765 0.041578706 -0.008120272
0.03774711 -0.022537725 0.01965666 0.008136527 0.036546685 0.07588803 0.04388955 0.059898525
0.01873691 -0.03567381 0.04148669 -0.06874108 -0.01881164 -0.024024453 0.028523644 0.0051035
0.04963273 -0.0116933035 0.06982969 0.037682246 0.05448459 0.013555544 -0.048307713 -0.06445971
-0.0059455354 -0.059911862 0.040147677 0.034639902 -0.035134286 -0.056408573 0.023233216 -0.039417993
0.065172166 0.025272008 0.029780913 -0.046968088 0.044634137 0.07797851 -0.07054932 0.041381937
0.02039874 0.050661594 0.07922902 0.054589417 -0.15897287 -0.039900515 0.13978645 0.020368256
0.05712227 0.0544164 0.055925548 -0.050717015 0.045021366 -0.0052032606 0.035597086 -0.005289715
0.0769048 -0.00951878 -0.065225564 -0.033707418 0.022297591 -0.06654838 -0.05865368 -0.07742956
-0.009161316 0.06103321 0.015680935 0.098743334 0.030385822 -0.015556484 0.06326844 -0.10073908
-0.05173507 -0.10383324 0.0035071976 0.037058 0.02765615 -0.0864659 -0.021866493 -0.00035046635
-0.056256976 -0.015244889 0.01242466 -0.085730836 0.08109219 -0.008044297 -0.05896821 0.1141243
-0.10774614 0.047045935 0.0732439 -0.07125309 0.019016774 -0.0035568643 0.028205378 0.0351973
-0.00052263535 -0.018237337 0.22549711 -0.014366444 -0.039727572 -0.12734419 -0.10623485 -0.1291799
0.1193041 0.064685374 -0.012504051 0.052254647 0.021190772 0.03635445 -0.06673136 0.086475424

gru.weight_hh_l0 f4 [384, 128]
00000000: 63d6 323d 6901 ef3c f4d6 b23c 0848 00bc
00000010: 537e c4bb 53ab 0abc ff20 1abd 51e4 56bb
00000020: 0774 c8bc 76cc ffbc fcba ae3b 329f a83b
00000030: 6843 c53c 3347 873d e015 8f3d d7ba 743c
00000040: 0285 07bd fdfd 65bd db33 28bd b14a 9abc
00000050: f7aa 85bd 4c69 88bd c1c3 5ebc a99d 093d
00000060: 493a 57bd 1811 63bc e194 303d 657a 31bd
00000070: 6cc8 2cbd 1f10 503d a4a9 42bb ed01 a6bc
00000080: 6ab3 783d 0d1c 14bd 017e 4b3d b896 433d
00000090: 3ebc 7cbc 2dae 593d 369f 653d 45cc d2bc
000000a0: 07da 573d c365 2f3d 0887 b33c e2cb 70bc
000000b0: 6939 88bd c22b 50bd 9d7d 1bbd 62b4 8ebc
000000c0: eab2 c8bb 7ad8 bf3c 2c16 323c c413 a8bb
000000d0: 53d0 583d 9546 2c3d d618 4f3d 5628 84bb
000000e0: 0c84 5dbd 2552 4f3d f7e9 0cbd 46f4 fdbc
000000f0: 2de9 183d c0dc 57bd 574f f63a d097 f2bc
00000100: d3f5 36bd d0f0 03bd 82ed 9737 172a 39bc
00000110: 328e ac3c b2d5 3b3d 553d fc3b be76 a9bc
00000120: c2ac 4b3a d65c fcbc 14cf 983c 0972 223d
00000130: 37be 833d cc48 5b3d 7b5d 763d f3e0 ba3c
00000140: 3c2e ce3c 0748 20bd 2aad 35ba f047 09bb
00000150: 55c1 92bd 0327 6ebc 6161 b9bb 3da6 2dbd
00000160: 6337 473d 749b 45bc 709d febc ebde 3f3d
00000170: 10f1 9bbc 167e 31bd 66df 3abd 934c c4bb
00000180: 8634 413d 7587 703c fa92 07bd 0493 bf3c
00000190: d446 a1b9 a90e 833d abc7 9e3c bdb1 5a3c
000001a0: ca08 3ebd 3dda 88bd 4702 163d 326e e2bc
000001b0: 8b95 30bc 4095 55bd 6dcc 1e3d 3788 513d
000001c0: 9f3a 453c d6e4 e4ba fa19 093d 80b4 c8bc
000001d0: 30df a3bc 28ae 913d 171c 893c d3cb f83c
000001e0: 4990 e83c 789c 77bd 50c0 9e3c 45c4 58bb
000001f0: 012c 393c fc1d d8bc ccde 313d 9a77 0c3d
00000200: 5014 923c 9132 7a3d b4fe ecbc 9af7 b5bc
00000210: a522 56bd 543c d0bd 1caa d3bd 3d4a d03a
00000220: 5526 0cbd 531c 75bc 5da4 d93c 9428 21bd
00000230: 81a1 223b 7b25 593d 98c5 1c3d 3d8e aa3c
00000240: c690 ff3c 9fc3 3b3d 86f5 e7bc 0c90 eabc
00000250: 5bb2 8ebc b107 5e3d 3fb7 83bc e264 00bc
00000260: fbb1 53bc c6eb 31bd 87d8 893d 3b9f 54bd
00000270: e059 2e3d 64c1 433c 0bdf a1bc 78c4 11bd
00000280: b83d 8fbd 0e2c fabb ad55 5b3d c518 b33c
00000290: 4f88 9ebc abbd 92bd 4e0a 2bbd 12ba 92ba
000002a0: 4808 24bc 371e b93c d3c0 ed3c 19a1 9f3d
000002b0: 4645 83bb 5806 683c 23a5 8fbd 062c b2bc
000002c0: 2c95 7b3c 67c8 243d 29de 66bc 89c3 dd3b
000002d0: a5f4 2cbd 00df c53c d3f3 cebd d223 143d
000002e0: 2cbb 5f3c 91ae c8bb 8515 59bd 917c babc
000002f0: cbca 3f3d 3fc5 3939 5d4e 9ebd 9ee5 a3bd
00000300: 3780 f23c 58ab 0abd 5839 4bbd af18 85bd
00000310: ac07 a8bd f4fa c7bd 4e9f b33d 21b4 913d
00000320: 41c7 a3bb 09f0 74bc 17b2 debd 3fd1 21bd
00000330: c21f 5a3c da03 4ebd c261 77bc fcb1 873d
00000340: bd3d 21bc 9456 643c a40b 873d c176 233d
00000350: c0c1 903c fac6 cebb 5d6c a33c 57fa 02bd
00000360: 5259 8fbc 6d3c 253d c840 b2bd e70a a8bb
00000370: 5968 c43b 4393 83bd 15c5 0b3c b189 83bd
00000380: 34c0 013d 3ccb 9f3b 42df bebd e42f 333b
00000390: 26da 22bd 32a1 853d c647 be3c 3989 c9bc
000003a0: 03d7 203d b21e 613d 33df 24bd d359 82bb
000003b0: cc05 dc3c 3a49 31bc 9f54 4ebb ec5b 3d3d
000003c0: 6b93 e839 4c2c 7c3d 4913 eb3c 378f e43b
000003d0: 8320 5bbd e383 053d 4b3f eebd 4d53 f13c
000003e0: 1528 de3b d3c3 783c 8554 57bd 00ed 793d
000003f0: f40e 563b 466c c1bb 1593 6c3c 34b0 e8bd
0.043661486 0.029175477 0.021831013 -0.007829674 -0.0059965043 -0.008463698 -0.037629124 -0.0032789896
-0.024469389 -0.031225424 0.005332349 0.0051459307 0.024079993 0.06605377 0.06986594 0.014937124
-0.03308583 -0.056150425 -0.04106508 -0.018834444 -0.065267496 -0.06660709 -0.013596476 0.033597622
-0.05254582 -0.013859056 0.043110732 -0.043329615 -0.042183325 0.050796624 -0.0029703164 -0.02026459
0.060717978 -0.036159564 0.049680714 0.04775116 -0.01542574 0.053144623 0.05606004 -0.025732169
0.05269816 0.042821657 0.021914974 -0.014697047 -0.06651575 -0.05082298 -0.03796159 -0.017419998
-0.006124844 0.023418654 0.010869544 -0.0051293094 0.05293305 0.0420595 0.050560795 -0.0040331287
-0.054081008 0.05061545 -0.034402814 -0.031000268 0.03733175 -0.052700758 0.0018791956 -0.029613405
-0.04466803 -0.03221208 1.8111201e-05 -0.011301539 0.021063898 0.045858093 0.007697741 -0.020686503
0.00077695784 -0.030805986 0.01865343 0.039659534 0.06432765 0.05353622 0.060147744 0.022812342
0.02516853 -0.03913119 -0.00069304055 -0.002094742 -0.071657814 -0.014535668 -0.0056573604 -0.042394865
0.048636805 -0.012060989 -0.031080931 0.04684345 -0.019035846 -0.043333136 -0.045623206 -0.0059905737
0.04716923 0.014680733 -0.033099152 0.023385532 -0.00030761084 0.063992806 0.019382318 0.01334804
-0.0463951 -0.06682251 0.036623266 -0.027640436 -0.010777841 -0.05214429 0.038769174 0.051155295
0.012037902 -0.0017463218 0.03347204 -0.024500132 -0.020003885 0.07113296 0.016737027 0.030370628
0.028389113 -0.060451955 0.019378811 -0.003307597 0.011301995 -0.026381485 0.043425366 0.03429375
0.017831951 0.06108338 -0.028930046 -0.022212792 -0.052279133 -0.10167757 -0.1033518 0.0015891265
-0.034216244 -0.014960366 0.026567632 -0.03934534 0.0024815502 0.05301426 0.038274378 0.020819778
0.031196963 0.045840856 -0.028315317 -0.02863314 -0.01741903 0.054206554 -0.01607859 -0.007836552
-0.012920852 -0.04343774 0.067307524 -0.051909667 0.04256618 0.011947963 -0.019759675 -0.035587758
-0.06994194 -0.0076346463 0.053548504 0.021862397 -0.019352106 -0.071650825 -0.041757874 -0.0011194369
-0.01001174 0.022597415 0.02902261 0.07794399 -0.004006061 0.014161669 -0.07013919 -0.021749508
0.01535539 0.04023018 -0.014091053 0.0067676944 -0.0422255 0.024154186 -0.101050995 0.036166973
0.013655465 -0.0061243256 -0.05299904 -0.022764476 0.046824258 0.00017716455 -0.0772979 -0.080027804
0.029602153 -0.033854812 -0.049615234 -0.06498849 -0.08204588 -0.097646624 0.08770619 0.07114435
-0.004998118 -0.014949807 -0.10873812 -0.039506193 0.013313236 -0.050296642 -0.015098991 0.06625745
-0.00984138 0.013936657 0.06594017 0.039908174 0.017670512 -0.006310341 0.019949133 -0.031977024
-0.017498646 0.04034083 -0.08703762 -0.005128253 0.0059938845 -0.06424572 0.008530875 -0.06422747
0.03167744 0.0048765223 -0.09319927 0.0027341777 -0.039758824 0.06524886 0.023227584 -0.024601566
0.03926755 0.054960914 -0.04025192 -0.003977993 0.026858233 -0.010820681 -0.0031483544 0.04623024
0.00044360323 0.061565682 0.02869572 0.0069750804 -0.053497802 0.03259648 -0.11633166 0.029458666
0.0067796805 0.015183407 -0.05257084 0.061017036 0.0032662721 -0.0059028 0.014439364 -0.11361733

gru.bias_ih_l0 f4 [384]
00000000: b8c6 36bb a3ff 9d3c 85d4 52bb aa26 c23c
00000010: 4f21 8a3c 3020 19bd 3bdc 69bb 35b9 f93a
00000020: ea91 0fbd a043 b8bb 2f43 81bc 8036 bdbc
00000030: d83c c8bc 2719 2c3d 5f71 193c 2aff 51b9
00000040: 6395 e43b 0915 8bbb aca2 9bbd 5828 05b9
00000050: 8dfa 033d 801f 153b 59d6 bb3b 3272 d6bb
00000060: eb52 643d 79a6 76bc 9152 603b 2a2d 773d
00000070: a96f 0e3d c3ec 37bc 5b7a 333c 19f3 b1bc
00000080: 7090 de3c e0f3 af3c 7c10 3fbc bebb 663d
00000090: 1058 583c 75ab f03b b7d9 98bc 0274 54bd
000000a0: 9a22 53b7 e00c 903c e341 223d 8aee 9a3c
000000b0: 6e76 403d 9988 1a3d 3ab4 1cbd 1524 a7bc
000000c0: 8e52 b93c 781a 01ba 9ccf 783c 85de 083b
000000d0: e67b f1bb ce0c 173d 16f3 9ebc cb8c adbd
000000e0: 869d 91bb 5464 8cbc c988 b03c 7229 733c
000000f0: 8213 fb3c b0e5 3d3c f82a bb3c f48f 123d
00000100: 0b8e 2b3c d256 b4ba e361 d63b e890 f43c
00000110: a8ad 073d cf54 27bd 21e0 01bd df47 29bc
00000120: dd99 323b 7e01 243c b746 fa3b bce8 3dbd
00000130: bc17 04bd 4eda 1fbc c0e2 433a a7d4 debc
00000140: 6b44 edbc 2eb1 583b f943 a23c d636 e0bc
00000150: dd78 44bc 26f0 b63b e2af ecbb 4c90 baba
00000160: f542 9a3c ad36 493d 2fca d13c c1d0 a13c
00000170: 69e5 09bb 258c 53bc 561b 4abc 2184 8eba
00000180: e7a7 90bc a575 553d 3495 4b3d f944 6ebc
00000190: 8bc5 43b9 f037 24bc ed89 3fba c7b6 3cbc
000001a0: 3bcf 123d 89a7 b2bb c41c 29bc 3112 033c
000001b0: 54b2 0d3d 5036 8fbc 26df 4bbd 08a5 e93b
000001c0: 9f46 2a3c 8a91 723c ae9f a53d 44d7 a239
000001d0: 1ba8 1abd 5c09 1d3d 166a 703d a78a 1bbb
000001e0: a3c2 273d bb07 033c 6e34 2138 9335 edbc
000001f0: 63dc 003d bb3d 2a3d 6b2a e83b d80f 723d
00000200: dfae b83c ab2d 96bd a0d8 7e3e a672 e1bb
00000210: b23b 7c3e 5782 1ebe 5079 c5bd 584f 483e
00000220: 373e f23d e902 d03d a5eb dabd 393d 99be
00000230: da30 2cbe dd6b 543e 1695 07be a882 9b3e
00000240: 8a9a 263e 1029 073e f3cb b1bd fb85 e2bd
00000250: 13ad fc3d ed2f a2bd bf5d 153d 4868 ae3d
00000260: c459 17be 3dcf 493e ac3d ee3d cdad acbd
00000270: 9257 0dbe 9956 79be b037 45be 769d 1d3e
00000280: 3fea 123d 6e36 9ebd 13d7 f73c cda3 adbd
00000290: 478e 543e d9f4 3a3e eb73 aabd 3473 c9bd
000002a0: 4625 843e e81b b8bd 1a51 103e ccc8 87be
000002b0: 8010 97be 44e9 ce3d a784 19be c1c4 21bd
000002c0: 7095 ddbd c177 993e 3366 5cbd 819b 693e
000002d0: f602 8bbe 496f 82be bf1f 32be 1a06 11be
000002e0: 376c d43d 6f4e 893d 60e8 e4bd 6b37 0ebe
000002f0: ee89 04be bdf5 3a3e c870 4ebe fa6f 43be
00000300: 9477 bc3d 07c2 063d cdf2 c53d 4885 9abd
00000310: 031c 55be 4704 24be b117 1abe 4123 613e
00000320: 47eb 843e 7d14 6c3e 1225 62be 3448 3cbe
00000330: 8506 48be 2a94 6d3e 0f5c 8c3e 5083 113e
00000340: 33bf 63be 55cf 913e 686e 11be c370 71be
00000350: a12d 253d 4632 adbd 9c26 153e 8ee8 443e
00000360: 924e 8ebe be04 5cbe c0c2 d23d dc67 ccbd
00000370: 8721 b73d 5daa 32be 8fc0 31be db50 2e3e
00000380: c209 42be 44e9 3dbe 28e0 873b fd02 723d
00000390: d5ef 443e df36 c83d ad95 b43d fed6 6abe
000003a0: 351e 56be b357 313e 3f46 783e a2cf f93d
000003b0: 9189 39be 9b40 74be 652b f3bd 3757 22be
000003c0: 31c4 15bc 57bf 89be 9160 17be a799 ef3d
000003d0: effa 7cbe 0653 303e d9b6 18be 9840 503e
000003e0: 5395 d8bd 2d0a 9ebd 21a3 62bd ccc9 8b3e
000003f0: a5ed 493e ac5b 393e 27a0 1ebd c1ba b23d
-0.0027889442 0.019286936 -0.0032170129 0.023700077 0.016861586 -0.037384212 -0.0035684246 0.0019052388
-0.035051264 -0.005623296 -0.015779106 -0.023097277 -0.024443075 0.042016175 0.009365409 -0.00020026849
0.006975816 -0.004244451 -0.075993866 -0.00012698898 0.032221366 0.0022754371 0.0057323393 -0.006544375
0.05574314 -0.015054339 0.00342289 0.060345806 0.034774456 -0.011225882 0.010954465 -0.021722363
0.027168483 0.021478593 -0.011661645 0.05633139 0.0132045895 0.007344658 -0.018658502 -0.051868446
-1.2584636e-05 0.017584264 0.039613616 0.018912572 0.046987943 0.037727926 -0.038257815 -0.020402947
0.022622373 -0.00049249036 0.015186217 0.0020884585 -0.007369506 0.036877446 -0.019403022 -0.0847412
-0.004443827 -0.017137684 0.0215496 0.014841424 0.03064895 0.011590406 0.022847638 0.035781816
0.010470877 -0.0013758785 0.0065424307 0.029854253 0.033124596 -0.040852364 -0.031707887 -0.010332077
0.0027252354 0.010010121 0.0076378244 -0.04636453 -0.032249197 -0.009756638 0.0007472448 -0.02720101
-0.028963288 0.0033064592 0.019807803 -0.027369898 -0.011991707 0.005582827 -0.0072231153 -0.0014233678
0.018830756 0.04912441 0.025609104 0.019752862 -0.002104128 -0.012911831 -0.012335619 -0.0010873118
-0.017658187 0.052114148 0.049702838 -0.014542812 -0.0001867024 -0.010023102 -0.00073066243 -0.011518187
0.03584216 -0.0054521007 -0.0103218 0.007999943 0.034593895 -0.017481953 -0.049773358 0.007130269
0.010392814 0.014805207 0.08087097 0.00031059433 -0.037757974 0.038339004 0.05869492 -0.0023733766
0.040957104 0.007997449 3.843422e-05 -0.02895621 0.031460177 0.041562777 0.0070851347 0.05909714
0.022544323 -0.07332929 0.24887323 -0.0068801222 0.24632147 -0.15479408 -0.09642279 0.19561517
0.11828273 0.10156805 -0.10689477 -0.29929522 -0.1681551 0.20744272 -0.13240466 0.3037312
0.1626989 0.13199258 -0.08681478 -0.11060711 0.12337699 -0.07919297 0.036466356 0.08515984
-0.14780337 0.19707961 0.11632857 -0.08431587 -0.13802937 -0.2434944 -0.19259524 0.15392098
0.035867926 -0.077252254 0.030253923 -0.08478508 0.207574 0.18257464 -0.08322891 -0.098364264
0.25809687 -0.08989698 0.14093438 -0.26520383 -0.29504776 0.10103086 -0.14992009 -0.03949428
-0.108195186 0.29974177 -0.053808402 0.22813226 -0.27150697 -0.2547553 -0.17394923 -0.14162484
0.10372203 0.06704413 -0.111771345 -0.13888328 -0.12943241 0.18257804 -0.2016021 -0.19085684
0.09202495 0.032899883 0.09665451 -0.07544953 -0.20811467 -0.16017257 -0.150481 0.21986105
0.25960752 0.2305469 -0.22084454 -0.18386918 -0.19533737 0.23201051 0.27413985 0.14210248
-0.22240905 0.28478494 -0.14202273 -0.23578171 0.04032672 -0.084568545 0.1456551 0.19229338
-0.2779432 -0.21486184 0.10291052 -0.09980747 0.08941942 -0.17447801 -0.17358612 0.17023031
-0.18949035 -0.18546015 0.0041465946 0.05908488 0.19232114 0.09776091 0.08817611 -0.22933576
-0.2090996 0.17318611 0.24245547 0.12197806 -0.18118884 -0.2385277 -0.11873511 -0.15853582
-0.009141014 -0.26903793 -0.14782931 0.11699229 -0.24705099 0.17219171 -0.14913501 0.2033714
-0.10575356 -0.077167846 -0.055331353 0.27302396 0.1971956 0.18101376 -0.038726952 0.08727027

gru.bias_hh_l0 f4 [384]
00000000: b8c6 36bb a3ff 9d3c 85d4 52bb aa26 c23c
00000010: 4f21 8a3c 3020 19bd 3bdc 69bb 35b9 f93a
00000020: ea91 0fbd a043 b8bb 2f43 81bc 8036 bdbc
00000030: d83c c8bc 2719 2c3d 5f71 193c 2aff 51b9
00000040: 6395 e43b 0915 8bbb aca2 9bbd 5828 05b9
00000050: 8dfa 033d 801f 153b 59d6 bb3b 3272 d6bb
00000060: eb52 643d 79a6 76bc 9152 603b 2a2d 773d
00000070: a96f 0e3d c3ec 37bc 5b7a 333c 19f3 b1bc
00000080: 7090 de3c e0f3 af3c 7c10 3fbc bebb 663d
00000090: 1058 583c 75ab f03b b7d9 98bc 0274 54bd
000000a0: 9a22 53b7 e00c 903c e341 223d 8aee 9a3c
000000b0: 6e76 403d 9988 1a3d 3ab4 1cbd 1524 a7bc
000000c0: 8e52 b93c 781a 01ba 9ccf 783c 85de 083b
000000d0: e67b f1bb ce0c 173d 16f3 9ebc cb8c adbd
000000e0: 869d 91bb 5464 8cbc c988 b03c 7229 733c
000000f0: 8213 fb3c b0e5 3d3c f82a bb3c f48f 123d
00000100: 0b8e 2b3c d256 b4ba e361 d63b e890 f43c
00000110: a8ad 073d cf54 27bd 21e0 01bd df47 29bc
00000120: dd99 323b 7e01 243c b746 fa3b bce8 3dbd
00000130: bc17 04bd 4eda 1fbc c0e2 433a a7d4 debc
00000140: 6b44 edbc 2eb1 583b f943 a23c d636 e0bc
00000150: dd78 44bc 26f0 b63b e2af ecbb 4c90 baba
00000160: f542 9a3c ad36 493d 2fca d13c c1d0 a13c
00000170: 69e5 09bb 258c 53bc 561b 4abc 2184 8eba
00000180: e7a7 90bc a575 553d 3495 4b3d f944 6ebc
00000190: 8bc5 43b9 f037 24bc ed89 3fba c7b6 3cbc
000001a0: 3bcf 123d 89a7 b2bb c41c 29bc 3112 033c
000001b0: 54b2 0d3d 5036 8fbc 26df 4bbd 08a5 e93b
000001c0: 9f46 2a3c 8a91 723c ae9f a53d 44d7 a239
000001d0: 1ba8 1abd 5c09 1d3d 166a 703d a78a 1bbb
000001e0: a3c2 273d bb07 033c 6e34 2138 9335 edbc
000001f0: 63dc 003d bb3d 2a3d 6b2a e83b d80f 723d
00000200: dfae b83c ab2d 96bd a0d8 7e3e a672 e1bb
00000210: b23b 7c3e 5782 1ebe 5079 c5bd 584f 483e
00000220: 373e f23d e902 d03d a5eb dabd 393d 99be
00000230: da30 2cbe dd6b 543e 1695 07be a882 9b3e
00000240: 8a9a 263e 1029 073e f3cb b1bd fb85 e2bd
00000250: 13ad fc3d ed2f a2bd bf5d 153d 4868 ae3d
00000260: c459 17be 3dcf 493e ac3d ee3d cdad acbd
00000270: 9257 0dbe 9956 79be b037 45be 769d 1d3e
00000280: 3fea 123d 6e36 9ebd 13d7 f73c cda3 adbd
00000290: 478e 543e d9f4 3a3e eb73 aabd 3473 c9bd
000002a0: 4625 843e e81b b8bd 1a51 103e ccc8 87be
000002b0: 8010 97be 44e9 ce3d a784 19be c1c4 21bd
000002c0: 7095 ddbd c177 993e 3366 5cbd 819b 693e
000002d0: f602 8bbe 496f 82be bf1f 32be 1a06 11be
000002e0: 376c d43d 6f4e 893d 60e8 e4bd 6b37 0ebe
000002f0: ee89 04be bdf5 3a3e c870 4ebe fa6f 43be
00000300: 9477 bc3d 07c2 063d cdf2 c53d 4885 9abd
00000310: 031c 55be 4704 24be b117 1abe 4123 613e
00000320: 47eb 843e 7d14 6c3e 1225 62be 3448 3cbe
00000330: 8506 48be 2a94 6d3e 0f5c 8c3e 5083 113e
00000340: 33bf 63be 55cf 913e 686e 11be c370 71be
00000350: a12d 253d 4632 adbd 9c26 153e 8ee8 443e
00000360: 924e 8ebe be04 5cbe c0c2 d23d dc67 ccbd
00000370: 8721 b73d 5daa 32be 8fc0 31be db50 2e3e
00000380: c209 42be 44e9 3dbe 28e0 873b fd02 723d
00000390: d5ef 443e df36 c83d ad95 b43d fed6 6abe
000003a0: 351e 56be b357 313e 3f46 783e a2cf f93d
000003b0: 9189 39be 9b40 74be 652b f3bd 3757 22be
000003c0: 31c4 15bc 57bf 89be 9160 17be a799 ef3d
000003d0: effa 7cbe 0653 303e d9b6 18be 9840 503e
000003e0: 5395 d8bd 2d0a 9ebd 21a3 62bd ccc9 8b3e
000003f0: a5ed 493e ac5b 393e 27a0 1ebd c1ba b23d
-0.0027889442 0.019286936 -0.0032170129 0.023700077 0.016861586 -0.037384212 -0.0035684246 0.0019052388
-0.035051264 -0.005623296 -0.015779106 -0.023097277 -0.024443075 0.042016175 0.009365409 -0.00020026849
0.006975816 -0.004244451 -0.075993866 -0.00012698898 0.032221366 0.0022754371 0.0057323393 -0.006544375
0.05574314 -0.015054339 0.00342289 0.060345806 0.034774456 -0.011225882 0.010954465 -0.021722363
0.027168483 0.021478593 -0.011661645 0.05633139 0.0132045895 0.007344658 -0.018658502 -0.051868446
-1.2584636e-05 0.017584264 0.039613616 0.018912572 0.046987943 0.037727926 -0.038257815 -0.020402947
0.022622373 -0.00049249036 0.015186217 0.0020884585 -0.007369506 0.036877446 -0.019403022 -0.0847412
-0.004443827 -0.017137684 0.0215496 0.014841424 0.03064895 0.011590406 0.022847638 0.035781816
0.010470877 -0.0013758785 0.0065424307 0.029854253 0.033124596 -0.040852364 -0.031707887 -0.010332077
0.0027252354 0.010010121 0.0076378244 -0.04636453 -0.032249197 -0.009756638 0.0007472448 -0.02720101
-0.028963288 0.0033064592 0.019807803 -0.027369898 -0.011991707 0.005582827 -0.0072231153 -0.0014233678
0.018830756 0.04912441 0.025609104 0.019752862 -0.002104128 -0.012911831 -0.012335619 -0.0010873118
-0.017658187 0.052114148 0.049702838 -0.014542812 -0.0001867024 -0.010023102 -0.00073066243 -0.011518187
0.03584216 -0.0054521007 -0.0103218 0.007999943 0.034593895 -0.017481953 -0.049773358 0.007130269
0.010392814 0.014805207 0.08087097 0.00031059433 -0.037757974 0.038339004 0.05869492 -0.0023733766
0.040957104 0.007997449 3.843422e-05 -0.02895621 0.031460177 0.041562777 0.0070851347 0.05909714
0.022544323 -0.07332929 0.24887323 -0.0068801222 0.24632147 -0.15479408 -0.09642279 0.19561517
0.11828273 0.10156805 -0.10689477 -0.29929522 -0.1681551 0.20744272 -0.13240466 0.3037312
0.1626989 0.13199258 -0.08681478 -0.11060711 0.12337699 -0.07919297 0.036466356 0.08515984
-0.14780337 0.19707961 0.11632857 -0.08431587 -0.13802937 -0.2434944 -0.19259524 0.15392098
0.035867926 -0.077252254 0.030253923 -0.08478508 0.207574 0.18257464 -0.08322891 -0.098364264
0.25809687 -0.08989698 0.14093438 -0.26520383 -0.29504776 0.10103086 -0.14992009 -0.03949428
-0.108195186 0.29974177 -0.053808402 0.22813226 -0.27150697 -0.2547553 -0.17394923 -0.14162484
0.10372203 0.06704413 -0.111771345 -0.13888328 -0.12943241 0.18257804 -0.2016021 -0.19085684
0.09202495 0.032899883 0.09665451 -0.07544953 -0.20811467 -0.16017257 -0.150481 0.21986105
0.25960752 0.2305469 -0.22084454 -0.18386918 -0.19533737 0.23201051 0.27413985 0.14210248
-0.22240905 0.28478494 -0.14202273 -0.23578171 0.04032672 -0.084568545 0.1456551 0.19229338
-0.2779432 -0.21486184 0.10291052 -0.09980747 0.08941942 -0.17447801 -0.17358612 0.17023031
-0.18949035 -0.18546015 0.0041465946 0.05908488 0.19232114 0.09776091 0.08817611 -0.22933576
-0.2090996 0.17318611 0.24245547 0.12197806 -0.18118884 -0.2385277 -0.11873511 -0.15853582
-0.009141014 -0.26903793 -0.14782931 0.11699229 -0.24705099 0.17219171 -0.14913501 0.2033714
-0.10575356 -0.077167846 -0.055331353 0.27302396 0.1971956 0.18101376 -0.038726952 0.08727027

gru.weight_ih_l1 f4 [384, 128]
00000000: b20b 6f3d 30dc eb3d 2443 e2be e9d0 7b3e
00000010: f7c4 41bf d9f6 49bd 326d 823d 4d53 933e
00000020: 2441 8cbb e327 67bd 8c51 d23c f29e 8dbe
00000030: dc15 023c f1f4 243f cdf6 3dbd 9c0c eabe
00000040: ed48 96be 3c31 0a3f 3666 813d 54fa 60bd
00000050: 02ba c6bd abce de3d 9f0d afbc c6a8 cfbe
00000060: 0a7a 313e ef00 bf3e 96fc bc3d 70f1 4f3d
00000070: 3e1e 063e 01d3 0bbd 101b 8d3e 653f e6bd
00000080: b389 05be cbc2 9f3e 5774 83be 7a12 babd
00000090: 4863 1dbe dbb5 c33e a939 763c 9fbd 0a3e
000000a0: e1e3 8ebe 5fbc e2bd ff31 243e 993f 8d3e
000000b0: 35d8 09bf d0c7 40be 5da8 a4be d58f 873d
000000c0: f542 083e b57d 80bf cc78 253e 8294 46bd
000000d0: 99b4 c63e 2810 90be c2d1 373d bbd9 d23e
000000e0: 5255 d3be d32c 4e3d 8153 7c3c 79f1 e1bd
000000f0: 202f b63e 0ac6 e63e d92a a1be e6fc 6bbe
00000100: c16c a03d 7e8d 2b3e 9c06 c0bd b16e a93c
00000110: ec89 5fbe c65a 50bd e722 9d3e 7b63 abbe
00000120: 3b0d c13e ba7f c33e 29dd 86be 8407 8f3e
00000130: d357 373c e7c1 6e3d fa11 9fbe f0d5 083e
00000140: 3c13 58be e5e0 85be e405 823b 7b7a a83e
00000150: f3fe f8bd 351a 8c3e 3f49 89be 7c47 22be
00000160: 96be 1f3d 5f47 1d3f 5a87 a2bc fc97 8ebe
00000170: 4092 0c3e 64a5 8dbe 279b 3b3e f61d 90be
00000180: 0a32 c43d 1d64 3dbe 66d8 20be a29c 90be
00000190: 6255 7cbe 7394 f33e 95ab 9dbe fdf0 10be
000001a0: f1f0 183e dca7 b0be fad3 8fbe 42e3 283f
000001b0: 8afd c63d de4d 9c3e ad2d 04bc 7b56 da3d
000001c0: 4f87 5d3e 85c8 2e3e fcc2 e3bc aa12 733d
000001d0: 9a5f bfbe 96e4 0abd 203e 7abe c616 88be
000001e0: e9ce 52bc 7d2b c33e 519f 23bd 191a c0be
000001f0: c3a0 49be 24f5 4d3e af70 b23d ac45 1bbe
00000200: bf25 013e 4aa8 343e d8dc 51be 837f eabb
00000210: a3de 6fbe 0d2b 093e f36b 3f3c f83d 6bbc
00000220: 6d7f 423e cd5a 5a3e 691d 44bc 00ce a9bd
00000230: 620e 27be 78af cd3e 77f0 7e3e 3f9c f0be
00000240: ef1e 75bd 09f7 843d 653f 0a3f a94b 35be
00000250: 2e89 a5be 16fe 7ebe de26 a9be 7868 123f
00000260: 6928 8abb 0360 6e3d c702 13be b193 ca3e
00000270: 885e 4cbe c0e0 f83d 7869 5e3d 519b 6d3e
00000280: 9921 f5bd 2f8c cc3c 3c89 ad3c decc 423e
00000290: 3805 b1be f452 3b3e 8ec5 6c3e ef81 1bbe
000002a0: 0272 cdbe 1a0d eb3d 843c 543e e1f9 01bf
000002b0: b0c1 023e 6dfd 3cbe a11d 493e 08a7 183f
000002c0: 2391 9d3e e7a2 12bf db6b a33e f535 893f
000002d0: 9ea6 4dbd 752e dfbd 0a8c 373f 746e 91bc
000002e0: 2833 3bbd 1eb7 043d b037 9f3e 44a5 88bd
000002f0: c744 84be cf55 c33e 5f41 26bd 3cd0 aa3b
00000300: e831 6f3e 0f05 8ebe 32ef 8c3e 2328 193e
00000310: 8821 63bd 19b8 923e 145d 5d3e ba79 44bf
00000320: 5c1c 573e 5f4e 403f bfbb 6e3f 29d0 cdbd
00000330: 2a83 a23d 3474 de3e 2bf3 25be 0a1f 123e
00000340: 768f 2c3e 02d5 10bf 41ae 863c 8bd9 28bf
00000350: 3e33 f6be c91f f5be 7c70 ffbd ca78 04bf
00000360: 35b2 50be 3412 ba3c 844d 873c b901 263f
00000370: 37a8 373f 9c6f c53e 8916 97bd 02fb f0bc
00000380: 319a 0ebf bb81 d73e a884 08be 9f1e 42bd
00000390: d45f 003d b0d0 dfbd 6b47 823e 4576 e33e
000003a0: e625 61be 6e6c afbc a6d3 2ebf 8d55 cc3c
000003b0: f9f1 8ebe 7738 24bd 4c13 ee3e 9054 f63e
000003c0: 6175 83be f8d5 53bd 218e 8c3e b5b6 2bbf
000003d0: c280 4d3e b244 853e 6e8e 253e cfea e83c
000003e0: 298d db3e 168f 85bc 4da3 693e e931 6ebe
000003f0: ac28 f2be 386e 003e 08e7 2f3e 6536 893e
0.058360763 0.11516607 -0.4419185 0.24591412 -0.7569117 -0.049307678 0.063684836 0.2877449
-0.0042802263 -0.056434523 0.02567365 -0.27660328 0.007939782 0.6443625 -0.046377946 -0.45712745
-0.29352513 0.53981376 0.06318323 -0.05492623 -0.09703447 0.108792625 -0.0213688 -0.4055845
0.1733171 0.373054 0.092278644 0.050767362 0.13097474 -0.034136776 0.2755971 -0.1124256
-0.1304081 0.31203303 -0.25674698 -0.090855554 -0.15369904 0.38224682 0.015028396 0.13548897
-0.27908233 -0.11071085 0.16034697 0.27587584 -0.5384553 -0.18826222 -0.321597 0.06619231
0.13306792 -1.0038363 0.16159362 -0.04848147 0.3880966 -0.28137326 0.044877775 0.4118174
-0.41276032 0.050335716 0.015400768 -0.110323854 0.3558283 0.45072967 -0.31478003 -0.23045692
0.07833243 0.16753194 -0.09376261 0.020682665 -0.21829957 -0.05086782 0.3069069 -0.33474335
0.37705407 0.38183385 -0.26340607 0.2793542 0.0111903725 0.05829039 -0.31068403 0.1336286
-0.21101087 -0.26148143 0.0039679874 0.32905945 -0.12158003 0.27363744 -0.26813695 -0.15847582
0.039000116 0.6143703 -0.019839931 -0.2785033 0.13727665 -0.27665246 0.18320905 -0.28147858
0.09579857 -0.18495221 -0.1570755 -0.282445 -0.24641946 0.47574195 -0.3079497 -0.1415443
0.14935662 -0.34503067 -0.28091413 0.6597177 0.097163275 0.30528158 -0.008067531 0.10661026
0.21633647 0.1706868 -0.027802937 0.05934397 -0.37377626 -0.033909403 -0.24437761 -0.26579875
-0.012866714 0.38119116 -0.039946858 -0.3751991 -0.19690232 0.20113045 0.08712899 -0.15163296
0.12612055 0.17642322 -0.20494401 -0.007156314 -0.23424773 0.13395329 0.011683452 -0.014358036
0.18993922 0.213237 -0.011969903 -0.082912445 -0.1631408 0.40172935 0.24896418 -0.46994206
-0.059843954 0.06492431 0.5400298 -0.17704643 -0.32331222 -0.24901614 -0.33037466 0.57190657
-0.004216243 0.058197033 -0.14356528 0.39565805 -0.19957936 0.12152243 0.0542998 0.2320378
-0.11969299 0.024969188 0.021183603 0.19023463 -0.34574294 0.18293363 0.23122236 -0.15186284
-0.40126044 0.11477108 0.2072621 -0.5077191 0.12769198 -0.1845605 0.19640209 0.5962987
0.30774793 -0.5727982 0.31918225 1.0719591 -0.050207727 -0.10897533 0.7169806 -0.017752863
-0.045703083 0.032401197 0.31097174 -0.06672147 -0.25833723 0.38151404 -0.040589686 0.0052128118
0.23358881 -0.27738234 0.27526242 0.14956717 -0.0554519 0.2865608 0.21617538 -0.7674824
0.21006912 0.75119585 0.9325523 -0.10049469 0.07935174 0.4344803 -0.16206042 0.14269653
0.16851601 -0.56575024 0.016440513 -0.65956944 -0.4808597 -0.47875813 -0.124726266 -0.5174681
-0.2038048 0.022713758 0.016516455 0.6484638 0.7174105 0.38561714 -0.07377345 -0.029416565
-0.5570403 0.42091164 -0.13331854 -0.047392484 0.03134139 -0.10928476 0.25445113 0.4442617
-0.21987113 -0.021414008 -0.682917 0.024943138 -0.27918985 -0.04009291 0.46499097 0.4811139
-0.2567549 -0.05171773 0.27452186 -0.67075664 0.20068648 0.26028973 0.16167614 0.028432278
0.42881134 -0.01630358 0.228162 -0.23261227 -0.47296655 0.12542045 0.17177975 0.26799312

gru.weight_hh_l1 f4 [384, 128]
00000000: 6782 253d 37bc 0a3d 3f56 8c3c 06eb a23c
00000010: f127 323d 8731 2d3e 1538 ff3d 111d f53b
00000020: 210a 59be 10b1 0bbe bd64 0a3e da46 293d
00000030: 8f05 8fbc 1240 efbc 712e 9cbc 7c70 22be
00000040: f8b2 c2bd 6931 283e 96e6 313d 666f e2bd
00000050: 96a5 d3bd ec97 b7bb 60dc 07be c2b1 7cbd
00000060: faf8 a83d 8982 7abd 29df fc3c caa2 f23b
00000070: c28d 4a3e 8b99 3cbd fbd0 4ebd 2c19 cb3d
00000080: 3ece 6ebe 172e 0f3c 5ca3 01be 2696 1c3d
00000090: 5026 7a3c a1d0 22be de1f f8bc 770c 05be
000000a0: 4daf a8bd 5c9a 473c faf5 683d 94a7 653d
000000b0: 79cc 313d 32c2 483b e53f 3c3d 4755 563d
000000c0: a959 5bbe 6744 353b f88f 84bc 0aa4 493e
000000d0: 6989 f5bd 6e42 37be f565 653c 2231 9b3d
000000e0: 732d acbd 083a 2dbe 6f7a 3e3c 1f8d cd3d
000000f0: 8184 e8bc 86b3 28be ac45 ba3c 13e4 e03d
00000100: 96f4 6b3d 0b65 1f3d 0e48 16be d2ab 99bd
00000110: 6aa8 0f3e eb14 953d 8d93 e3bd 531b 16be
00000120: 91ff 373c f8db 4dbe a73d 8e3d c70f 6d3d
00000130: b5b2 e13d 2dc6 e1bb be50 a53d d03d c0bb
00000140: 4722 e1bd 0c11 0ebe 3710 223e d62e 14be
00000150: 56b3 9aba 78c4 c6bd fb07 bfbd a1e5 9ebd
00000160: 7f61 933d b415 803c a3fd 00bc 6edb 95bd
00000170: 2ca0 edbd 5223 a33c e1af 8f3a 8816 d43d
00000180: 1a2d e6bc f5e0 5e3d 2b58 653d 9480 5a3d
00000190: 30a1 d03d 552f ad3c 9e02 0f3e 9464 83bd
000001a0: c198 8cbd 281d 2dbd 4010 473e d2d8 afbd
000001b0: a78e 4abc 2279 0a3e 3f55 3fbc 2165 9f3d
000001c0: a362 b83d 967e 95bd 1119 33bd dc49 703d
000001d0: 5b31 d0bd 7280 923d 9f56 f5bc dade edbd
000001e0: 0fc1 00be 9dfd 553b e34d 0d3d 5dad 9fbc
000001f0: e6b4 3fbc a873 9fbc 84e3 12be 579b 893c
00000200: d37f 89bd 7a66 0bbf 2475 9d3e b6cf c33d
00000210: 2329 18bd e299 e8bb 5b6b 9dbd f589 923c
00000220: f0f2 b13d ead7 6bbd ec2c 93be c0dd d33d
00000230: e666 633e e2ce 11bf 0fb8 5d3d 3513 2d3c
00000240: 37f7 1a3e 98f7 b9bd 6def abbe 2b3b 9ebe
00000250: c17f 983e 6830 ac3d 97e4 b1bd 41da 23be
00000260: da36 98bd 722d 1d3e ad36 7f3d 49fa 093e
00000270: 255c e13d fd1a 8cbd e41a 023c 4073 c93d
00000280: 52ab b43e 8c84 cb3e 919d c7bd 87a7 043e
00000290: ebb1 1ebe 424a a93d 8834 a43d 10ba 16be
000002a0: 8965 0e3e 75c3 80be da4d 13bd ce65 d1be
000002b0: ad6d f23d 0dea 483d e01f a43d 423a 74bd
000002c0: 13ad fcbd 85af 1c3c cb52 093e e695 cb3d
000002d0: bd68 c7bd 08d8 11be 190e db3d 62ac 6f3d
000002e0: 8ec8 d23d 48a5 993c 8530 2a3e d3d2 2dbe
000002f0: 6e32 bebd bf74 e53b 3936 8cbd 4088 71bd
00000300: 767a edbd 5d6c 053c eaf7 0c3c e7f6 64be
00000310: 696f fc3c 30f1 84bd e0e6 b83d 4131 3abe
00000320: b3ed 3e3c 448e 183e 521b d93c 03da 173d
00000330: 1aee b13b 068e 033c 0ef8 b3bd 1615 8c3d
00000340: fcd7 a7bd 9218 67be 31c5 0bbe 3fb3 c2bd
00000350: 13dd 92bd 83ef 5e3e beb9 9bbd ab92 16bd
00000360: 11d7 423e f414 973c 7de5 503e 60a3 12bd
00000370: 96ff b0bd dcec 043d 789e 02be 485a 113e
00000380: 289f af3d 12f6 073e 9dc5 e8bd 86fc cfbd
00000390: b6e6 39be 1073 ef3e 8999 323e ecc7 28be
000003a0: b728 383e e550 233e 8168 003e 5471 1abe
000003b0: 62ac dd3d 21aa d53c 9bdc f1bb 0c60 34bd
000003c0: 1577 27bd 4aaa f0bd 03a1 013e 7d15 6d3e
000003d0: 94c1 16be 555d 2f3e 5d59 133b 38e2 f53d
000003e0: 4bb6 cabd 32c1 2e3e df4a afbc 833d 333e
000003f0: c414 d43d f7e7 223c 726a ce3c 0e03 12be
0.040407564 0.033870902 0.01713097 0.019887459 0.043495122 0.16913424 0.12461869 0.0074802716
-0.2119527 -0.13641763 0.13514991 0.041327335 -0.017458705 -0.029205356 -0.019065114 -0.15863222
-0.09506792 0.16425098 0.043432795 -0.11056404 -0.103343174 -0.0056028273 -0.1326766 -0.06169296
0.082506135 -0.061159644 0.03086813 0.00740466 0.19780639 -0.046044867 -0.050492268 0.099169105
-0.23320863 0.008739016 -0.12659973 0.03822913 0.0152679235 -0.15899898 -0.030288633 -0.12993036
-0.08236561 0.012182798 0.056875207 0.056068018 0.04340789 0.0030633328 0.045959372 0.05232742
-0.21420921 0.002765918 -0.01618193 0.19691482 -0.119890995 -0.17896435 0.014001359 0.07577731
-0.08407106 -0.16916668 0.01162587 0.10036682 -0.028383495 -0.16474733 0.0227383 0.10981002
0.057606302 0.03891472 -0.14675924 -0.07503475 0.14029089 0.072793804 -0.111121275 -0.14658861
0.011230365 -0.20103443 0.06945353 0.057876375 0.11020414 -0.0068900795 0.08072041 -0.0058667436
-0.10992866 -0.1387369 0.15826498 -0.14470991 -0.0011802714 -0.09705442 -0.09327694 -0.07758642
0.0719633 0.015635349 -0.007872972 -0.073172435 -0.11602816 0.019914303 0.001096245 0.1035586
-0.028097678 0.054413754 0.055992287 0.053345278 0.10186994 0.021140734 0.13965842 -0.06415668
-0.06865073 -0.042264134 0.19439793 -0.08586277 -0.0123631125 0.13522771 -0.011678039 0.07782961
0.090031885 -0.07299535 -0.043725077 0.058664188 -0.10165664 0.07153405 -0.02994853 -0.11614771
-0.12573646 0.0032652386 0.034498107 -0.019491846 -0.011700844 -0.019464329 -0.14344603 0.016797705
-0.06713834 -0.5445324 0.30753434 0.09561102 -0.037148606 -0.0070984224 -0.07686492 0.017888049
0.08688915 -0.05757896 -0.2874521 0.1034503 0.22207221 -0.56956303 0.05413061 0.010563661
0.15133367 -0.09080428 -0.33581105 -0.30904517 0.29784968 0.0840767 -0.08686178 -0.16001226
-0.07432337 0.15349367 0.062308002 0.13474382 0.11003903 -0.06841085 0.007940982 0.09836435
0.35286957 0.39749563 -0.0974685 0.12954532 -0.15497558 0.08266117 0.08017832 -0.14719415
0.1390592 -0.25149122 -0.035962917 -0.40897983 0.11837325 0.049051333 0.08013892 -0.05962587
-0.12337699 0.0095633315 0.1341049 0.099407 -0.09736774 -0.14242566 0.10696048 0.058514006
0.10292159 0.01875557 0.16620071 -0.16974954 -0.092869624 0.0070024426 -0.0684628 -0.05896783
-0.11595623 0.008143512 0.008604029 -0.22359811 0.030814843 -0.06491315 0.09028411 -0.18182851
0.011653352 0.1489802 0.026502285 0.037073147 0.0054299952 0.0080294665 -0.08787547 0.06839959
-0.081954926 -0.22567967 -0.13649441 -0.09506845 -0.07171073 0.21771054 -0.07603787 -0.036760967
0.19027354 0.018442608 0.20400043 -0.035800338 -0.08642499 0.03245245 -0.12755764 0.14194596
0.085752785 0.13277462 -0.11365817 -0.10155587 -0.18154415 0.46767473 0.17441382 -0.16482514
0.17984281 0.15948828 0.12539865 -0.15082294 0.10823895 0.0260821 -0.0073810345 -0.04403691
-0.04088505 -0.1175123 0.12659077 0.23152728 -0.14722282 0.17125447 0.0022483685 0.120060384
-0.09898051 0.17065886 -0.021398006 0.17503934 0.10355523 0.009943 0.025197241 -0.14258978

gru.bias_ih_l1 f4 [384]
00000000: fd3e d43d 0769 b0bc 5242 1c3e 834c 13be
00000010: 8480 133c 7eeb 32be 83e5 e43a c792 b23c
00000020: f288 e9bd c84f d03d f2c1 c4bd 5f85 b8bd
00000030: 7adb e5bd eae0 c03a 66be 38be 597f 5ebc
00000040: a553 5dbd 3ade 5fbd f61c 703e e57a 1bbd
00000050: eb22 26bd ec3e c6bd f60f 223d fce3 92bd
00000060: 5b4a 5e3c ee2e e2bd 3a27 cfbd 8e46 a1bd
00000070: 2ca6 713d 27f0 0cbe 2464 6e3d 0582 51bc
00000080: 4fd3 c2bd a77d fc3c 5b48 58bd 4d80 c8bc
00000090: ad71 c43c a760 553d ee1a febd 344f f9bd
000000a0: 889b d63d c7dd fdbb f4a5 17ba cd84 783e
000000b0: de92 61be 990f 96bd c02b 043d c113 fa3b
000000c0: 74e5 80be d4a1 2a3e 95ee 23be 82a9 f2ba
000000d0: 7404 81bd ce70 e0bc 360e 1fbe 27e9 383e
000000e0: afb3 39bd 6f60 c3bd 9ed4 4f3e 950e 963e
000000f0: 6f43 a03d b5eb 66bd c64e b83d 0391 eebd
00000100: 3b6e e83d 0e3c 233e 0b23 32bd 3c17 323d
00000110: e8a7 09be 2a0a 4b3d 80f2 2e3d c187 b0bd
00000120: aca7 8abd f45b 9fbd fb27 703d 2ffc 85bd
00000130: 69ca fa3d 7414 cc3a b586 423e 73a1 2bbe
00000140: 3a6e 55bd 5dde 27bd cf23 493d a199 87be
00000150: e231 91bd f6d9 a5bb 3710 6dbe 850b f1bc
00000160: f6b8 453e 57cd 4c3e eac1 cbbd f50f b8bc
00000170: 8b10 1bbd f880 cfbd ca77 9abd 9d7b f9bd
00000180: ce6c b9bd 1c32 8f3b 905d f7bd 4e4b 803d
00000190: 60ef b7be e737 c03b 6909 86bd e44f b13d
000001a0: 2563 783d f32b d13c 81f9 cebd 29ad 17bc
000001b0: e8cd 80bd a3a4 f7bd ad17 383e 6009 02bd
000001c0: d580 2abd 43ff b0bd ee90 ccbd b483 fd3b
000001d0: dd4b 4f3c 50f0 d0bd 84ef 0a3d 60cc cf3b
000001e0: 8209 18be 53b2 173e 1af4 f33c 9413 12be
000001f0: 4156 0eba 8cdd 73be f7f3 3c3d 22f7 6f3c
00000200: e5f9 edbe a63d b6be 5a77 6bbe 94d3 2dbe
00000210: cdee ddbe 630b c9be ce71 a6be 51d1 05bf
00000220: 6f02 e4be 69de 01bf 9e91 87be c68d c5be
00000230: 536b 1dbe c923 7fbe 30a8 b2be d2e4 bcbe
00000240: 3ad3 b3be 08c5 e7be 670f 9fbe ba66 d0be
00000250: d8aa b4be a612 41bf 9b39 34bf c433 ddbe
00000260: 42db f8be 01e2 04bf e6ae e0be f915 f5be
00000270: da04 bbbe f9d2 12bf 9b5f 09bf 0c22 19bf
00000280: 22a7 14bf 11da eabe db72 10bf b436 b8be
00000290: 5e77 5dbe 052c e2be c1d7 2ebf b69a 0ebf
000002a0: 1f25 6abe ba89 9cbe 8cb6 ebbe 4945 d5be
000002b0: 87d2 3bbe 5025 15bf b113 d3be ad2d 14bf
000002c0: e8cb a5be b25f 13bf 8074 fcbe 1a77 9bbe
000002d0: 9b8e e7be bfac 02be ae0c 40bf 054f 93be
000002e0: 2d53 04bf 6c2e 63be 4b79 ddbe 473a d4be
000002f0: 15e6 31bf e408 88be 23cd efbe efb6 ccbe
00000300: 7584 c5be abcf a4be c0a1 00bf a81e 0cbf
00000310: f0b6 1ebf 0331 eebe 89fc d8be 5a1c 72be
00000320: 47d9 2fbf d15f 06bf fe82 d9be c5e8 8ebe
00000330: 02b3 dbbe b144 1cbf bbbf 50be d253 2dbf
00000340: dc8e fdbe b4f5 d6be dfdd 33bf cba6 dfbe
00000350: 2942 e2be f53d b6bc a74a 92be 1c89 edbe
00000360: 8931 b0be 0f2b adbe 2535 a0be 463d 49be
00000370: 653d ffbd f84b 18bf 4b32 f3be 3c26 63be
00000380: c7c2 93be 6241 95be 5e26 0bbf 4178 8cbe
00000390: 4751 1abf f954 bcbe 4b75 b3be ae75 c6be
000003a0: 6af2 18be 03e5 5abe 20f7 8dbe 1cc8 56bd
000003b0: 6288 e5bd c1f5 fbbe 4dd7 09bf 04a9 e6be
000003c0: 59b8 8dbe 255f 32bf d794 22bf fa55 e9be
000003d0: 5830 d5be 5f2f a5bd 67dc ffbe 7c21 a5be
000003e0: f181 debe 149b bdbe 510c ccbe 9e32 05bf
000003f0: f293 18bf de5b 11bf 89f0 32bf 10f1 febe
0.103635766 -0.021534456 0.15259674 -0.14384656 0.0090028085 -0.17472646 0.0017463419 0.021798505
-0.11403073 0.10171467 -0.09607305 -0.090098135 -0.112235025 0.0014715467 -0.18041381 -0.013580167
-0.054034848 -0.05465529 0.23448548 -0.037959 -0.040560644 -0.0967997 0.039566003 -0.07172391
0.013567532 -0.110441074 -0.10114904 -0.07874785 0.058996364 -0.13763486 0.05820097 -0.012787347
-0.0951296 0.030821634 -0.05280338 -0.024475241 0.023979986 0.052094128 -0.1240748 -0.1217331
0.10478884 -0.007747385 -0.0005784922 0.2426941 -0.22028682 -0.07327194 0.032268286 0.0076317494
-0.2517506 0.16663295 -0.1600898 -0.0018513652 -0.062996775 -0.02739754 -0.15532765 0.1805769
-0.045337375 -0.095398776 0.20295951 0.29308 0.07825362 -0.05637713 0.089994 -0.116487525
0.1134915 0.15940878 -0.04349045 0.04347919 -0.13442957 0.04957024 0.042711735 -0.08619643
-0.06770262 -0.077812105 0.05863188 -0.06542241 0.12245638 0.001557006 0.18996699 -0.16760807
-0.052107073 -0.040983547 0.049106415 -0.26484397 -0.070895925 -0.0050613834 -0.23150717 -0.029424438
0.19308838 0.20000206 -0.099490955 -0.022468546 -0.037857573 -0.10132021 -0.07542379 -0.121817805
-0.09053956 0.004369987 -0.120783925 0.06264363 -0.35924816 0.005866039 -0.065447636 0.08657816
0.060641427 0.025533652 -0.10106183 -0.009257593 -0.062892735 -0.12091949 0.17977782 -0.031747222
-0.04162677 -0.08642437 -0.09988581 0.0077366475 0.012652365 -0.10202086 0.033919826 0.006341502
-0.14847377 0.14814119 0.029779483 -0.14265281 -0.0005429723 -0.23814982 0.0461311 0.014646323
-0.46479717 -0.3559391 -0.22994748 -0.16975242 -0.43346253 -0.392665 -0.325087 -0.52272516
-0.44533107 -0.50729996 -0.26478285 -0.38584727 -0.15372972 -0.24915995 -0.34893942 -0.36893326
-0.3512209 -0.4526751 -0.3106644 -0.40703374 -0.35286593 -0.7541908 -0.704004 -0.43203557
-0.4860478 -0.51907355 -0.43883437 -0.47868326 -0.3652714 -0.5735317 -0.5366151 -0.59817576
-0.58067524 -0.45869496 -0.56425256 -0.35979235 -0.21627566 -0.4417421 -0.68297964 -0.5570482
-0.22865723 -0.30573827 -0.4603771 -0.41654423 -0.18342029 -0.5826006 -0.4122596 -0.57882196
-0.3238213 -0.57567894 -0.49307632 -0.30364305 -0.45225987 -0.1276121 -0.7501935 -0.28771225
-0.51689416 -0.22185677 -0.43256602 -0.41450712 -0.694917 -0.26569283 -0.46836194 -0.39983317
-0.3857762 -0.32189688 -0.5024681 -0.5473428 -0.6199789 -0.46521768 -0.4238017 -0.23643628
-0.68690914 -0.52489954 -0.42482752 -0.27911964 -0.4291001 -0.61042315 -0.2038564 -0.67706025
-0.49523056 -0.41984332 -0.70260423 -0.4368194 -0.441911 -0.02224634 -0.2857258 -0.4639367
-0.34412792 -0.33821914 -0.31290546 -0.1965228 -0.12462882 -0.5949092 -0.47499308 -0.22182554
-0.2885954 -0.29151446 -0.5435542 -0.27435496 -0.6028027 -0.3678358 -0.35050425 -0.38761657
-0.14936224 -0.21376424 -0.27727604 -0.052436933 -0.112076536 -0.49210933 -0.5384415 -0.45050824
-0.2767971 -0.6967643 -0.6350836 -0.45573407 -0.41638446 -0.08065676 -0.4997284 -0.3225211
-0.43458512 -0.37032378 -0.39853147 -0.5203036 -0.59600747 -0.56780803 -0.6989828 -0.4979329
