model/gru_physics_epoch_80.pth (torch, 687480 bytes, 18 tensors)

gru.weight_ih_l0 f4 [384, 10]
-0.027745554 0.021040086 0.0010791563 0.05508794 0.03433891 0.006228252 0.05072299 0.016855922
-0.033825375 0.026648097 0.014761048 -0.019380584 -0.038988255 -0.010055685 -0.005724768 -0.034710977
-0.040475648 0.007149919 0.073107086 -0.0014210024 -0.035257787 0.06877777 -0.020165462 -0.00089360453
-0.04807205 0.03796858 0.05355915 0.01763139 -0.016250677 0.04090549 -0.06389973 -0.0576298
-0.045570135 0.045291383 -0.008692646 -0.06989567 -0.008402106 -0.05296044 0.047536265 0.06312964
0.04468146 -0.046144422 0.056672733 -0.011805668 -0.008913331 -0.057650596 -0.06660545 0.01145647
0.044094604 0.018911833 0.01179114 -0.04541823 -0.0085094515 0.008997183 -0.031573053 0.08641191
0.016327389 0.068447255 -0.019300388 -0.010421008 0.023452355 -0.030007312 0.022592599 0.02180046
-0.04060911 -0.06545165 -0.047369707 0.0022693719 0.027733298 0.07280079 -0.07941341 -0.04209646
-0.030892506 0.005236702 -0.021985421 -0.03299112 0.010180383 0.02026869 0.012277167 0.0021568392
0.047892906 0.028491307 -0.034936134 -0.0032427418 -0.011312325 0.054788303 0.058279905 -0.019924182
-0.037744373 0.025034282 -0.008272457 -0.060907297 0.038444936 -0.04011915 -0.004431968 0.035184827
-0.004413013 0.010285636 0.05374656 -0.015864685 -0.09105621 -0.01785299 -0.046437487 0.0040313182
-0.047041487 -0.00085508125 0.055050332 -0.03675942 -0.013271062 -0.00480839 0.0194772 -0.060644183
0.043943007 0.013805545 -0.04693476 0.06134557 0.053311165 -0.021960968 -0.07764906 0.0069925752
0.034979723 0.08918632 -0.010463691 -0.0357526 0.004692227 0.014199705 0.06774046 -0.005688382
-0.06515706 0.015334958 0.030994512 0.03465606 -0.055488024 -0.024034975 -0.01664557 -0.0846575
0.011919158 -0.014138903 0.02470347 0.0858638 0.034990717 -0.024528706 0.032332335 -0.006314323
0.029356306 -0.017524129 0.015286178 0.006326882 0.028419431 0.059019227 0.03412785 0.04657449
0.014570385 -0.027740177 0.032261547 -0.05345183 -0.01462968 -0.018681914 0.022180825 0.003967981
0.03859375 -0.009092218 0.05429455 0.029305521 0.042360634 0.0105398325 -0.0375666 -0.050123677
-0.0046230727 -0.0465847 0.031218622 0.026937058 -0.027319118 -0.0438566 0.01806708 -0.030655174
0.050676845 0.019649126 0.02315679 -0.03651694 0.0058929855 0.060756028 -0.07251775 0.03510942
0.0029076203 0.0696092 0.09173018 0.0727178 -0.15379588 -0.061163027 0.10868671 0.015836988
0.044421002 0.042308316 0.04348542 -0.039429855 0.03500652 -0.004046098 0.027681017 -0.004113194
0.059800778 -0.007402525 -0.05071811 -0.02621067 0.01733811 -0.051746402 -0.04560636 -0.060204443
-0.0071237427 0.04745907 0.012193412 0.07677973 0.023628915 -0.012095614 0.04919911 -0.078334264
-0.040232513 -0.08074985 0.0027270045 0.02881502 0.021506881 -0.067234226 -0.017002897 -0.00027252393
-0.04374091 -0.011854443 0.0096612265 -0.0666605 0.06305701 -0.0062551904 -0.045665454 0.08881428
-0.08379378 0.036576513 0.05695608 -0.055171937 0.01505346 -0.0024741918 0.021644616 0.02710947
-0.0004059571 -0.014181746 0.17532173 -0.011171585 -0.030895993 -0.09901779 -0.082603924 -0.10045054
0.09276699 0.050299853 -0.009723878 0.04063134 0.016477413 0.028269108 -0.051888723 0.067241624
00000000: a54a e3bc 425c ac3c 7a72 8d3a e4a3 613d
00000010: f5a6 0c3d 5d16 cc3b e9c2 4f3d 6e15 8a3c
00000020: 7a8c 0abd 1c4d da3c 53d8 713c 08c4 9ebc
00000030: 26b2 1fbd 9ac0 24bc d696 bbbb 192d 0ebd
00000040: cbc9 25bd de49 ea3b 2bb9 953d ee40 baba
00000050: 786a 10bd 5cdb 8c3d 0a32 a5bc c940 6aba
00000060: 33e7 44bd f184 1b3d d760 5b3d b46f 903c
00000070: 2420 85bc 848c 273d dddd 82bd 3a0d 6cbd
00000080: c0a7 3abd 7583 393d 9a6b 0ebc 7625 8fbd
00000090: fda8 09bc 0ced 58bd 63b5 423d 1d4a 813d
000000a0: e803 373d ef01 3dbd ab21 683d 8f6c 41bc
000000b0: 3809 12bc 0823 6cbd 7068 88bd ebb3 3b3c
000000c0: 8b9c 343d fdec 9a3c a02f 413c 7708 3abd
000000d0: 3a6b 0bbc ec68 133c bf52 01bd baf8 b03d
000000e0: 04c1 853c 132e 8c3d d91b 9ebc e0bc 2abc
000000f0: 271f c03c e5d1 f5bc 1d14 b93c e196 b23c
00000100: bd55 26bd 840b 86bd bd06 42bd beb9 143b
00000110: f130 e33c 9518 953d 7fa3 a2bd 566d 2cbd
00000120: 4812 fdbc a498 ab3b c51a b4bc b221 07bd
00000130: 9fcb 263c 860a a63c 2c26 493c c259 0d3b
00000140: 5a2b 443d 9a66 e93c 3119 0fbd 2e84 54bb
00000150: 5457 39bc b369 603d e9b6 6e3d 0a38 a3bc
00000160: d899 1abd b214 cd3c 3389 07bc ee79 79bd
00000170: 7078 1d3d fa53 24bd 0b3a 91bb f71d 103d
00000180: 099b 90bb 1685 283c 5a25 5c3d a8f6 81bc
00000190: ae7b babd 6f40 92bc 3c35 3ebd 2619 843b
000001a0: 93ae 40bd 8827 60ba 757c 613d 0c91 16bd
000001b0: de6e 59bc b38f 9dbb a68e 9f3c 0966 78bd
000001c0: 95fd 333d a730 623c aa3e 40bd 7e45 7b3d
000001d0: cf5c 5a3d 7de7 b3bc 7806 9fbd f921 e53b
000001e0: e646 0f3d 51a7 b63d e76f 2bbc 5171 12bd
000001f0: 41c1 993b e1a5 683c 83bb 8a3d 9b65 babb
00000200: 1171 85bd 7a3f 7b3c 34e8 fd3c 83f3 0d3d
00000210: 6947 63bd ffe4 c4bc 4a5c 88bc e960 adbd
00000220: 9248 433c dba6 67bc ee5e ca3c 5cd9 af3d
00000230: 6d52 0f3d 6df0 c8bc e96e 043d 61e8 cebb
00000240: a37c f03c c38e 8fbc e172 7a3c bc51 cf3b
00000250: decf e83c 25be 713d a5c9 0b3d e4c4 3e3d
00000260: a0b8 6e3c 5e3f e3bc af24 043d 4ef0 5abd
00000270: 53b1 6fbc d00a 99bc 90b4 b53c d605 823b
00000280: 7b14 1e3d 87f7 14bc f663 5e3d 2212 f03c
00000290: 5882 2d3d 43af 2c3c 6fdf 19bd 7c4e 4dbd
000002a0: 257d 97bb 99cf 3ebd 32be ff3c 1bab dc3c
000002b0: 58cc dfbc faa2 33bd 6a01 943c 8f20 fbbc
000002c0: 8692 4f3d 34f7 a03c 4fb3 bd3c c992 15bd
000002d0: f219 c13b 50db 783d 3084 94bd e5ce 0f3d
000002e0: c68d 3e3b 458f 8e3d 08dd bb3d 12ed 943d
000002f0: ab7c 1dbe 1586 7abd 2397 de3d 92bc 813c
00000300: ccf2 353d 7c4b 2d3d c51d 323d 3381 21bd
00000310: ff62 0f3d 2195 84bb 4dc3 e23c f9c7 86bb
00000320: a9f1 743d e190 f2bb cbbd 4fbd c2b7 d6bc
00000330: a708 8e3c 09f4 53bd bccd 3abd ef98 76bd
00000340: 496e e9bb 7164 423d e0c6 473c b13e 9d3d
00000350: 6d91 c13c af2c 46bc 0285 493d b76d a0bd
00000360: d9ca 24bd 2d60 a5bd 8bb7 323b 7a0d ec3c
00000370: 332f b03c 19b2 89bd a949 8bbc 8be1 8eb9
00000380: ab29 33bd 2339 42bc 1f4a 1e3c 4d85 88bd
00000390: 0924 813d 57f8 ccbb b30b 3bbd 43e4 b53d
000003a0: 139c abbd 41d1 153d c74a 693d f8fb 61bd
000003b0: caa2 763c 0d26 22bb 0d50 b13c ae14 de3c
000003c0: a4d6 d4b9 8e5a 68bc 8a87 333e 0609 37bc
000003d0: 9819 fdbc d7c9 cabd 3f2c a9bd 03b9 cdbd
000003e0: 9ffc bd3d 3807 4e3d e750 1fbc 0c6d 263d
000003f0: a4fb 863c 9e94 e73c 4589 54bd fab5 893d

gru.weight_hh_l0 f4 [384, 128]
0.033950042 0.022683606 0.016975233 -0.0060883434 -0.004662921 -0.006581697 -0.029263932 -0.0025494571
-0.0190244 -0.02428085 0.0041461047 0.004000978 0.018725427 0.051362675 0.054322146 0.01161456
-0.025727613 -0.04365933 -0.03192732 -0.014647534 -0.05075051 -0.051792067 -0.010571231 0.026124757
-0.04085367 -0.010778086 0.03352195 -0.033692233 -0.03280181 0.03949289 -0.0023096213 -0.015757674
0.047216542 -0.02811742 0.03863099 0.037130572 -0.011994357 0.041323416 0.04358944 -0.02000871
0.04097128 0.03329635 0.017040694 -0.011428381 -0.05172102 -0.039513823 -0.029523084 -0.013545329
-0.0047620065 0.018208401 0.008451927 -0.003987931 0.041156538 0.03270623 0.039310865 -0.0031361599
-0.042051475 0.039352182 -0.026751172 -0.024103437 0.029028554 -0.04097333 0.0014610916 -0.023027934
-0.034733187 -0.025047973 1.4082687e-05 -0.008787284 0.016379476 0.035659187 0.0059855115 -0.016087042
0.0006041517 -0.023953632 0.014504567 0.030844076 0.05002066 0.041632496 0.046765245 0.017738389
0.019571362 -0.030428726 -0.00053889607 -0.0016288233 -0.05571656 -0.011301751 -0.0043987283 -0.032965105
0.03781767 -0.00937916 -0.02416618 0.0364214 -0.0148037365 -0.03369497 -0.03547562 -0.004658259
0.03667498 0.011415386 -0.025738068 0.018183634 -0.00023922279 0.049757127 0.015070367 0.010379645
-0.03607788 -0.051959604 0.028478116 -0.021494366 -0.008380618 -0.040547628 0.030144315 0.039775558
0.009361073 -0.0013578744 0.026027083 -0.019048624 -0.01555516 0.05531426 0.013014325 0.023617221
0.02207363 -0.047004122 0.015067605 -0.0025717171 0.008787636 -0.020511197 0.03376666 0.02666582
0.013866321 0.047497652 -0.022494823 -0.017271884 -0.040649917 -0.07905275 -0.08037135 0.0012355283
-0.02660516 -0.011632576 0.020658018 -0.030597694 0.0019298964 0.041220594 0.029762832 0.016189577
0.024258167 0.035645846 -0.022015227 -0.022266626 -0.013544598 0.042147346 -0.012502576 -0.0060936734
-0.010047913 -0.033776276 0.052336846 -0.040369518 0.033097345 0.009290593 -0.015367682 -0.027673738
-0.05438123 -0.00593661 0.041642208 0.016999701 -0.015047043 -0.055711243 -0.032470185 -0.0008704065
-0.0077850726 0.017570198 0.022566024 0.06060846 -0.0031148857 0.01101078 -0.054536384 -0.01691195
0.0119401105 0.03128279 -0.010955686 0.0052621854 -0.03283437 0.018783554 -0.07856869 0.028123172
0.010616979 -0.0047615985 -0.04120859 -0.017700726 0.036407042 0.00013774954 -0.060103167 -0.06222996
0.023019336 -0.026326805 -0.038580164 -0.05053491 -0.06378888 -0.07591603 0.068198875 0.055323154
-0.0038866187 -0.011624389 -0.084543996 -0.030724952 0.010352124 -0.03911235 -0.01173981 0.051521912
-0.0076534147 0.01083716 0.051274326 0.03103454 0.013740935 -0.004906525 0.0155135 -0.024863487
-0.013605637 0.03136885 -0.067678586 -0.0039871056 0.0046608457 -0.04995677 0.006633145 -0.049942397
0.024632728 0.003791989 -0.07247611 0.0021260374 -0.030920222 0.05073611 0.01806264 -0.019128544
0.03053615 0.042734366 -0.031299703 -0.0030931444 0.020886978 -0.008413948 -0.0024481402 0.035947792
0.00034491904 0.04787158 0.022314647 0.0054237186 -0.041602116 0.025346456 -0.09044964 0.022908203
0.0052713794 0.011807144 -0.040872704 0.04744662 0.0025397295 -0.004589647 0.011227673 -0.08834329
00000000: 330f 0b3d f8d2 b93c a50f 8b3c ba80 c7bb
00000010: 6bcb 98bb 47ab d7bb eaba efbc cb14 27bb
00000020: 0fd9 9bbc a2e8 c6bc 0cdc 873b a31a 833b
00000030: 1166 993c ab61 523d e680 5e3d ff4a 3e3c
00000040: b7c2 d2bc 20d4 32bd 39c6 02bd 36fc 6fbc
00000050: c4df 4fbd eb23 54bd f532 2dbc 9603 d63c
00000060: 2e56 27bd 9296 30bc 504e 093d de00 0abd
00000070: 315b 06bd 4cc3 213d 045d 17bb 3d16 81bc
00000080: 2266 413d 8156 e6bc 873b 1e3d 3a16 183d
00000090: fb83 44bc be42 293d d78a 323d 4ee9 a3bc
000000a0: 80d1 273d c161 083d ed98 8b3c 1b3e 3bbc
000000b0: 6cd9 53bd 3fd9 21bd 65da f1bc 3aed 5dbc
000000c0: 9b0a 9cbb c929 953c f479 0a3c 31ad 82bb
000000d0: c293 283d f8f6 053d 6e04 213d 0888 4dbb
000000e0: 2b3e 2cbd c12f 213d 4625 dbbc 9274 c5bc
000000f0: 4acd ed3c a7d3 27bd 1982 bf3a 14a5 bcbc
00000100: 6344 0ebd 6831 cdbc ae44 6c37 8af8 0fbc
00000110: 402e 863c 5e0f 123d 1c22 c43b f9c8 83bc
00000120: ef5f 1e3a 683a c4bc 90a4 6d3c b7ac fc3c
00000130: 77e2 4c3d d686 2a3d ea8c 3f3d 1950 913c
00000140: 1f54 a03c aa45 f9bc b444 0dba 3e7e d5ba
00000150: 0c37 64bd fb2a 39bc 3523 90bb 6b06 07bd
00000160: b3e6 1a3d 0cab 19bc 27f8 c5bc 9b2e 153d
00000170: 5f8b 72bc bd03 0abd e24e 11bd 4fa4 98bb
00000180: 8138 163d 9907 3b3c a4d8 d2bc d8f5 943c
00000190: e1d7 7ab9 21ce 4b3d b3e9 763c 630f 2a3c
000001a0: 66c6 13bd 98d3 54bd f04a e93c f414 b0bc
000001b0: dc4e 09bc 4515 26bd 36f1 f63c b2eb 223d
000001c0: 305f 193c b4fa b1ba c036 d53c dc0b 9cbc
000001d0: 12db 7ebc 3591 623d 093a 553c e778 c13c
000001e0: c2d3 b43c 6587 40bd 1ede 763c 418a 28bb
000001f0: 04fa 0f3c 1907 a8bc e94e 0a3d 4772 da3c
00000200: 912f 633c e68c 423d 1047 b8bc c47d 8dbc
00000210: 8780 26bd 68e6 a1bd bc99 a4bd 73f1 a13a
00000220: 11f3 d9bc 8f96 3ebc 013b a93c 04a8 fabc
00000230: 94f4 fc3a edd6 283d 2fd1 f33c 01a0 843c
00000240: 10b9 c63c 6101 123d 4759 b4bc 8068 b6bc
00000250: 29ea 5dbc b2a2 2c3d 9bd7 4cbc 70ad c7bb
00000260: 00a0 24bc fe58 0abd 295f 563d 825a 25bd
00000270: 1591 073d 9237 183c bbc8 7bbc 09b4 e2bc
00000280: dabe 5ebd e587 c2bb 0591 2a3d f542 8b3c
00000290: df87 76bc 7931 64bd 75ff 04bd fe2b 64ba
000002a0: ec19 ffbb 60ef 8f3c 62dc b83c 9440 783d
000002b0: 1c23 4cbb 8f66 343c 8b61 5fbd ee8a 8abc
000002c0: 74a0 433c 6222 003d 7a7f 33bc 696e ac3b
000002d0: 557d 06bd f8df 993c 9fe8 a0bd 9162 e63c
000002e0: d6f2 2d3c 2f07 9cbb 57ca 28bd 1d01 91bc
000002f0: 8d1f 153d dc70 1039 bd2e 76bd d8e4 7ebd
00000300: 0c93 bc3c 50ab d7bc 3c06 1ebd b2fd 4ebd
00000310: bfa3 82bd dd79 9bbd daab 8b3d 889a 623d
00000320: a4b6 7ebb 3974 3ebc 6725 adbd e5b2 fbbc
00000330: f59b 293c 4634 20bd 5558 40bc a408 533d
00000340: 7fc9 fabb 588e 313c 0705 523d 263c fe3c
00000350: a921 613c eac6 a0bb 562c 7e3c 83ae cbbc
00000360: 2dea 5ebc a07c 003d 129b 8abd 44a6 82bb
00000370: 02ba 983b 789f 4cbd da5a d93b 6690 4cbd
00000380: 93ca c93c 0583 783b 5b6e 94bd fd54 0b3b
00000390: 684c fdbc abd0 4f3d 1af8 933c 77b3 9cbc
000003a0: f326 fa3c 3b0a 2f3d 1e34 00bd 5ab6 4abb
000003b0: 2b1b ab3c a8da 09bc fa70 20bb fe3d 133d
000003c0: 40d6 b439 fd14 443d 35cd b63c 73b9 b13b
000003d0: fb66 2abd 5fa3 cf3c a93d b9bd fca9 bb3c
000003e0: 89bb ac3b c072 413c 236a 27bd 6357 423d
000003f0: 9771 263b c064 96bb 46f4 373c 54ed b4bd

gru.bias_ih_l0 f4 [384]
-0.0021686286 0.014996915 -0.002501473 0.018428179 0.01311154 -0.02906947 -0.0027749536 0.001481519
-0.027253764 -0.0043723923 -0.01227003 -0.017996317 -0.019003624 0.032672472 0.007282759 -0.00015572004
0.005424278 -0.0033003641 -0.07239116 -9.874608e-05 0.025055217 0.0017693972 0.0044574584 -0.0050902865
0.043345973 -0.011704634 0.0026613614 0.04691902 0.027041081 -0.008729121 0.008517991 -0.016890857
0.021123689 0.016700655 -0.009068544 0.04379769 0.01026652 0.0057111103 -0.014508526 -0.040337168
-9.785838e-06 0.013673038 0.03080932 0.014709609 0.03653241 0.029341286 -0.033998765 -0.015863482
0.017589457 -0.00038296176 0.011809308 0.0016239363 -0.005730903 0.028674198 -0.015086694 -0.06589136
-0.0034555935 -0.013325716 0.01675631 0.011540481 0.023812432 0.009012866 0.017193832 0.02782242
0.008142059 -0.0010698715 0.005086959 0.02321363 0.025757788 -0.03176245 -0.025190922 -0.008034704
0.0021190653 0.0077838125 0.0059390557 -0.036053758 -0.025076928 -0.0075868103 0.00058105035 -0.021148643
-0.0035522908 0.0025708198 0.015405414 -0.021280527 -0.009324806 0.0042835088 -0.0056164754 -0.001106758
0.014644644 0.038195055 0.019912394 0.018657126 -0.0016361295 -0.008814882 -0.009593265 -0.00084549526
-0.013731232 0.040524762 0.038648155 -0.011307248 -0.0001451776 -0.007793909 -0.0005681373 -0.008956264
0.02786837 -0.004239401 -0.008026425 0.0062202965 0.026901297 -0.0044648703 -0.0324649 0.005544698
0.008081651 0.03173761 0.06921897 0.00024154756 -0.029364813 0.029813165 0.04563922 -0.0018457883
0.031843074 0.0062183556 2.9889294e-05 -0.02251495 0.02446303 0.032320082 0.005508785 0.04595631
0.056758314 -0.05701965 0.19350557 0.07674008 0.23695776 -0.15486489 -0.07498227 0.204953
-0.00619148 0.1177441 -0.083124496 -0.2813703 -0.18795078 0.21018548 -0.054130975 0.27629608
0.14732552 0.10263635 -0.067505375 -0.11023812 0.09842884 -0.061592728 -0.04541236 0.038688008
-0.11492579 0.19889277 -0.036086936 -0.028185707 -0.1073319 -0.23274466 -0.1497684 0.09954471
-0.005939536 0.04851898 0.06150358 -0.06592663 0.18923154 0.21715026 -0.06471967 -0.15111412
0.22753395 -0.09514473 0.079145595 -0.21354762 -0.27188203 0.122952804 -0.11658291 -0.06354382
-0.084127985 0.2710001 0.016910955 0.13306059 -0.26436216 -0.24411337 -0.19882445 -0.1960723
0.14560689 0.12051274 -0.11088668 -0.107999325 -0.10064846 0.19398215 -0.20173815 -0.14840683
0.11234291 0.045003906 0.06665479 0.046538148 -0.16183968 -0.19539297 -0.20723209 0.2283768
0.24397351 0.17927024 -0.19706891 -0.14297491 -0.19823587 0.19387923 0.22489674 0.12613097
-0.015073899 0.25204793 0.023771832 -0.18340354 -0.02494696 -0.10777929 0.026145466 0.18885335
-0.25461867 -0.20721166 0.08002062 -0.07761333 0.0802094 -0.13566923 -0.134977 0.19826595
-0.14733927 -0.1445857 -0.09441906 0.15322667 0.19715104 0.17882161 0.06856525 -0.17834066
-0.16450962 0.19615804 0.20568168 0.12464804 -0.14087759 -0.24867389 -0.076190345 -0.19814262
0.06903979 -0.20919992 -0.1784617 0.13966052 -0.19209409 0.031992014 -0.09705095 0.15811841
-0.11892801 -0.060003113 0.037016857 0.21228878 0.19668826 0.1407425 -0.005757865 0.093381055
00000000: 8d1f 0ebb 9fb5 753c c1ef 23bb b1f6 963c
00000010: c9d1 563c 1923 eebc ffdb 35bb 872f c23a
00000020: 4943 dfbc 4946 8fbb 3c08 49bc 036d 93bc
00000030: 7dad 9bbc 92d3 053d 36a4 ee3b c848 23b9
00000040: 24be b13b ec4a 58bb d141 94bd e615 cfb8
00000050: 9940 cd3c 1eeb e73a df0f 923b 6bcc a6bb
00000060: 8c8b 313d cbc4 3fbc 3c6a 2e3b 292e 403d
00000070: 4285 dd3c 9604 0fbc 0b8f 0b3c b25e 8abc
00000080: 960b ad3c d0cf 883c 3b94 14bc 3565 333d
00000090: e834 283c 4424 bb3b 2bb5 6dbc 9638 25bd
000000a0: db2d 24b7 e104 603c d463 fc3c 9200 713c
000000b0: 02a3 153d 235d f03c 4a42 0bbd 22f4 81bc
000000c0: c417 903c 42c8 c8b9 d47b 413c 43da d43a
000000d0: 4cca bbbb 27e6 ea3c 2e2e 77bc 0df2 86bd
000000e0: 3d77 62bb 1b54 5abc 8744 893c 4914 3d3c
000000f0: 4a12 c33c b3aa 133c 14da 8c3c d8eb e33c
00000100: 4566 053c ee3a 8cba 81b0 a63b 832a be3c
00000110: ff01 d33c 5819 02bd 315d cebc fea3 03bc
00000120: 04e0 0a3b 5a0f ff3b 699c c23b 1bad 13bd
00000130: 216e cdbc c79a f8bb a151 183a eb3f adbc
00000140: 8dcd 68bb 337b 283b fd66 7c3c 8054 aebc
00000150: 12c7 18bc ad5c 8c3b 690a b8bb a310 91ba
00000160: 17f0 6f3c 6b72 1c3d 511f a33c d4d6 983c
00000170: 6573 d6ba 4b6c 10bc 122d 1dbc 3aa4 5dba
00000180: f6f8 60bc 4bfd 253d 874d 1e3d 0942 39bc
00000190: d13a 18b9 0c64 ffbb 0cef 14ba 4bbd 12bc
000001a0: 354c e43c acea 8abb 4481 03bc a1d3 cb3b
000001b0: 1c60 dc3c 0c4e 92bb eaf9 04bd 4cb0 b53b
000001c0: e768 043c 4cff 013d adc2 8d3d ee47 7d39
000001d0: 7a8e f0bc bd3a f43c 31f0 3a3d 61ee f1ba
000001e0: e26d 023d 59c3 cb3b c5ba fa37 4671 b8bc
000001f0: b166 c83c 1062 043d 0a83 b43b af3c 3c3d
00000200: 687b 683d 708d 69bd 5326 463e e729 9d3d
00000210: 0ea5 723e e794 1ebe 4e90 99bd 33df 513e
00000220: e6e1 cabb d223 f13d 2d3d aabd c50f 90be
00000230: 2b76 40be dd3a 573e 71b8 5dbd ae76 8d3e
00000240: 80dc 163e 0233 d23d 4240 8abd 86c4 e1bd
00000250: 0f95 c93d a848 7cbd 5002 3abd 5177 1e3d
00000260: 365e ebbd 8caa 4b3e e5cf 13bd b6e5 e6bc
00000270: d4d0 dbbd 9e54 6ebe e35c 19be 19de cb3d
00000280: 70a0 c2bb d7bb 463d 2eeb 7b3d 8a04 87bd
00000290: eac5 413e a35c 5e3e bf8b 84bd a9bd 1abe
000002a0: a9fe 683e 3ddb c2bd 1617 a23d 3aac 5abe
000002b0: 1f34 8bbe aece fb3d 05c3 eebd 4323 82bd
000002c0: 4b4b acbd 86c0 8a3e d888 8a3c 0941 083e
000002d0: 7a5a 87be dbf8 79be a398 4bbe 2dc7 48be
000002e0: f919 153e 62cf f63d 8e18 e3bd c02e ddbd
000002f0: c820 cebd 42a3 463e 7294 4ebe f6f7 17be
00000300: 0a14 e63d 0456 383d 4e82 883d c99e 3e3d
00000310: 4db9 25be 1815 48be a634 54be 9cdb 693e
00000320: 31d4 793e 9e92 373e 6fcc 49be 0468 12be
00000330: 58fe 4abe 4788 463e 554b 663e 7a28 013e
00000340: 84f8 76bc 6d0c 813e 25bd c23c 23ce 3bbe
00000350: 915d ccbc 63bb dcbd 042f d63c c662 413e
00000360: 615d 82be 4b2f 54be dae1 a33d bdf3 9ebd
00000370: d344 a43d e0ec 0abe 6937 0abe 3b06 4b3e
00000380: 1be0 16be 460e 14be c85e c1bd 74e7 1c3e
00000390: f6e1 493e 031d 373e f06b 8c3d ef9e 36be
000003a0: 3675 28be a7dd 483e 389e 523e 7947 ff3d
000003b0: 3742 10be 5ea4 7ebe af09 9cbd e6e5 4abe
000003c0: bc64 8d3d 8138 56be aabe 36be 2b03 0f3e
000003d0: 50b4 44be 0f0a 033d a6c2 c6bd cbe9 213e
000003e0: 8790 f3bd d3c5 75bd fd9e 173d 3b62 593e
000003f0: a668 493e cd1e 103e 79ac bcbb 913e bf3d

gru.bias_hh_l0 f4 [384]
-0.0021686286 0.014996915 -0.002501473 0.018428179 0.01311154 -0.02906947 -0.0027749536 0.001481519
-0.027253764 -0.0043723923 -0.01227003 -0.017996317 -0.019003624 0.032672472 0.007282759 -0.00015572004
0.005424278 -0.0033003641 -0.07239116 -9.874608e-05 0.025055217 0.0017693972 0.0044574584 -0.0050902865
0.043345973 -0.011704634 0.0026613614 0.04691902 0.027041081 -0.008729121 0.008517991 -0.016890857
0.021123689 0.016700655 -0.009068544 0.04379769 0.01026652 0.0057111103 -0.014508526 -0.040337168
-9.785838e-06 0.013673038 0.03080932 0.014709609 0.03653241 0.029341286 -0.033998765 -0.015863482
0.017589457 -0.00038296176 0.011809308 0.0016239363 -0.005730903 0.028674198 -0.015086694 -0.06589136
-0.0034555935 -0.013325716 0.01675631 0.011540481 0.023812432 0.009012866 0.017193832 0.02782242
0.008142059 -0.0010698715 0.005086959 0.02321363 0.025757788 -0.03176245 -0.025190922 -0.008034704
0.0021190653 0.0077838125 0.0059390557 -0.036053758 -0.025076928 -0.0075868103 0.00058105035 -0.021148643
-0.0035522908 0.0025708198 0.015405414 -0.021280527 -0.009324806 0.0042835088 -0.0056164754 -0.001106758
0.014644644 0.038195055 0.019912394 0.018657126 -0.0016361295 -0.008814882 -0.009593265 -0.00084549526
-0.013731232 0.040524762 0.038648155 -0.011307248 -0.0001451776 -0.007793909 -0.0005681373 -0.008956264
0.02786837 -0.004239401 -0.008026425 0.0062202965 0.026901297 -0.0044648703 -0.0324649 0.005544698
0.008081651 0.03173761 0.06921897 0.00024154756 -0.029364813 0.029813165 0.04563922 -0.0018457883
0.031843074 0.0062183556 2.9889294e-05 -0.02251495 0.02446303 0.032320082 0.005508785 0.04595631
0.056758314 -0.05701965 0.19350557 0.07674008 0.23695776 -0.15486489 -0.07498227 0.204953
-0.00619148 0.1177441 -0.083124496 -0.2813703 -0.18795078 0.21018548 -0.054130975 0.27629608
0.14732552 0.10263635 -0.067505375 -0.11023812 0.09842884 -0.061592728 -0.04541236 0.038688008
-0.11492579 0.19889277 -0.036086936 -0.028185707 -0.1073319 -0.23274466 -0.1497684 0.09954471
-0.005939536 0.04851898 0.06150358 -0.06592663 0.18923154 0.21715026 -0.06471967 -0.15111412
0.22753395 -0.09514473 0.079145595 -0.21354762 -0.27188203 0.122952804 -0.11658291 -0.06354382
-0.084127985 0.2710001 0.016910955 0.13306059 -0.26436216 -0.24411337 -0.19882445 -0.1960723
0.14560689 0.12051274 -0.11088668 -0.107999325 -0.10064846 0.19398215 -0.20173815 -0.14840683
0.11234291 0.045003906 0.06665479 0.046538148 -0.16183968 -0.19539297 -0.20723209 0.2283768
0.24397351 0.17927024 -0.19706891 -0.14297491 -0.19823587 0.19387923 0.22489674 0.12613097
-0.015073899 0.25204793 0.023771832 -0.18340354 -0.02494696 -0.10777929 0.026145466 0.18885335
-0.25461867 -0.20721166 0.08002062 -0.07761333 0.0802094 -0.13566923 -0.134977 0.19826595
-0.14733927 -0.1445857 -0.09441906 0.15322667 0.19715104 0.17882161 0.06856525 -0.17834066
-0.16450962 0.19615804 0.20568168 0.12464804 -0.14087759 -0.24867389 -0.076190345 -0.19814262
0.06903979 -0.20919992 -0.1784617 0.13966052 -0.19209409 0.031992014 -0.09705095 0.15811841
-0.11892801 -0.060003113 0.037016857 0.21228878 0.19668826 0.1407425 -0.005757865 0.093381055
00000000: 8d1f 0ebb 9fb5 753c c1ef 23bb b1f6 963c
00000010: c9d1 563c 1923 eebc ffdb 35bb 872f c23a
00000020: 4943 dfbc 4946 8fbb 3c08 49bc 036d 93bc
00000030: 7dad 9bbc 92d3 053d 36a4 ee3b c848 23b9
00000040: 24be b13b ec4a 58bb d141 94bd e615 cfb8
00000050: 9940 cd3c 1eeb e73a df0f 923b 6bcc a6bb
00000060: 8c8b 313d cbc4 3fbc 3c6a 2e3b 292e 403d
00000070: 4285 dd3c 9604 0fbc 0b8f 0b3c b25e 8abc
00000080: 960b ad3c d0cf 883c 3b94 14bc 3565 333d
00000090: e834 283c 4424 bb3b 2bb5 6dbc 9638 25bd
000000a0: db2d 24b7 e104 603c d463 fc3c 9200 713c
000000b0: 02a3 153d 235d f03c 4a42 0bbd 22f4 81bc
000000c0: c417 903c 42c8 c8b9 d47b 413c 43da d43a
000000d0: 4cca bbbb 27e6 ea3c 2e2e 77bc 0df2 86bd
000000e0: 3d77 62bb 1b54 5abc 8744 893c 4914 3d3c
000000f0: 4a12 c33c b3aa 133c 14da 8c3c d8eb e33c
00000100: 4566 053c ee3a 8cba 81b0 a63b 832a be3c
00000110: ff01 d33c 5819 02bd 315d cebc fea3 03bc
00000120: 04e0 0a3b 5a0f ff3b 699c c23b 1bad 13bd
00000130: 216e cdbc c79a f8bb a151 183a eb3f adbc
00000140: 8dcd 68bb 337b 283b fd66 7c3c 8054 aebc
00000150: 12c7 18bc ad5c 8c3b 690a b8bb a310 91ba
00000160: 17f0 6f3c 6b72 1c3d 511f a33c d4d6 983c
00000170: 6573 d6ba 4b6c 10bc 122d 1dbc 3aa4 5dba
00000180: f6f8 60bc 4bfd 253d 874d 1e3d 0942 39bc
00000190: d13a 18b9 0c64 ffbb 0cef 14ba 4bbd 12bc
000001a0: 354c e43c acea 8abb 4481 03bc a1d3 cb3b
000001b0: 1c60 dc3c 0c4e 92bb eaf9 04bd 4cb0 b53b
000001c0: e768 043c 4cff 013d adc2 8d3d ee47 7d39
000001d0: 7a8e f0bc bd3a f43c 31f0 3a3d 61ee f1ba
000001e0: e26d 023d 59c3 cb3b c5ba fa37 4671 b8bc
000001f0: b166 c83c 1062 043d 0a83 b43b af3c 3c3d
00000200: 687b 683d 708d 69bd 5326 463e e729 9d3d
00000210: 0ea5 723e e794 1ebe 4e90 99bd 33df 513e
00000220: e6e1 cabb d223 f13d 2d3d aabd c50f 90be
00000230: 2b76 40be dd3a 573e 71b8 5dbd ae76 8d3e
00000240: 80dc 163e 0233 d23d 4240 8abd 86c4 e1bd
00000250: 0f95 c93d a848 7cbd 5002 3abd 5177 1e3d
00000260: 365e ebbd 8caa 4b3e e5cf 13bd b6e5 e6bc
00000270: d4d0 dbbd 9e54 6ebe e35c 19be 19de cb3d
00000280: 70a0 c2bb d7bb 463d 2eeb 7b3d 8a04 87bd
00000290: eac5 413e a35c 5e3e bf8b 84bd a9bd 1abe
000002a0: a9fe 683e 3ddb c2bd 1617 a23d 3aac 5abe
000002b0: 1f34 8bbe aece fb3d 05c3 eebd 4323 82bd
000002c0: 4b4b acbd 86c0 8a3e d888 8a3c 0941 083e
000002d0: 7a5a 87be dbf8 79be a398 4bbe 2dc7 48be
000002e0: f919 153e 62cf f63d 8e18 e3bd c02e ddbd
000002f0: c820 cebd 42a3 463e 7294 4ebe f6f7 17be
00000300: 0a14 e63d 0456 383d 4e82 883d c99e 3e3d
00000310: 4db9 25be 1815 48be a634 54be 9cdb 693e
00000320: 31d4 793e 9e92 373e 6fcc 49be 0468 12be
00000330: 58fe 4abe 4788 463e 554b 663e 7a28 013e
00000340: 84f8 76bc 6d0c 813e 25bd c23c 23ce 3bbe
00000350: 915d ccbc 63bb dcbd 042f d63c c662 413e
00000360: 615d 82be 4b2f 54be dae1 a33d bdf3 9ebd
00000370: d344 a43d e0ec 0abe 6937 0abe 3b06 4b3e
00000380: 1be0 16be 460e 14be c85e c1bd 74e7 1c3e
00000390: f6e1 493e 031d 373e f06b 8c3d ef9e 36be
000003a0: 3675 28be a7dd 483e 389e 523e 7947 ff3d
000003b0: 3742 10be 5ea4 7ebe af09 9cbd e6e5 4abe
000003c0: bc64 8d3d 8138 56be aabe 36be 2b03 0f3e
000003d0: 50b4 44be 0f0a 033d a6c2 c6bd cbe9 213e
000003e0: 8790 f3bd d3c5 75bd fd9e 173d 3b62 593e
000003f0: a668 493e cd1e 103e 79ac bcbb 913e bf3d

gru.weight_ih_l1 f4 [384, 128]
-0.021576462 0.13686076 -0.34364825 0.4286167 -0.91316503 0.12923217 0.0018855378 0.22905043
-0.06049964 -0.02573602 0.038250674 -0.30849034 -0.06189724 0.462739 -0.038127646 -0.35602194
-0.22835481 0.41976094 0.21345408 -0.081645615 -0.08249881 0.043775987 -0.05438775 -0.28094387
0.17765212 0.36647537 0.37120444 -0.0036132594 0.0352901 -0.058217287 0.117041886 0.02055394
0.08339699 0.17078528 -0.25321066 0.00391185 -0.119563006 0.51402974 0.062610134 0.10573715
-0.21704318 0.075361304 0.12322359 0.2201987 -0.33379644 -0.1284395 -0.27629098 -0.06141292
0.11819418 -1.0721402 0.11531058 -0.101477675 0.35265878 -0.10313806 0.03307366 0.2461811
-0.50171953 0.09110733 0.1254293 -0.022473477 0.46812442 0.3504775 -0.4800112 -0.17290737
0.06760437 0.3003774 -0.13698676 0.0026374857 -0.29863456 0.04696219 0.1090576 -0.3090891
0.2933689 0.29690754 -0.25364572 0.13429502 0.013458739 -0.012283951 -0.241603 0.10390647
-0.18732023 -0.2033239 -0.01322538 0.4421478 -0.11919049 0.21145378 -0.18569624 -0.5090633
0.04415726 0.4359722 -0.015429728 -0.21719559 -0.0047720913 -0.25881168 0.15881781 -0.22617638
0.11329752 -0.13468054 0.045717277 -0.41515553 -0.19203973 0.400376 -0.23945732 -0.089314975
0.15989792 -0.26281145 -0.39101547 0.44387534 0.03020475 0.41273266 0.04038944 0.10750584
0.4572636 0.124537475 -0.026748436 0.119538836 -0.28453 -0.017218033 -0.18940797 -0.20667854
0.022637568 0.74986815 0.013170583 -0.2917106 -0.15316099 0.15640724 0.052134622 -0.18282782
0.090272725 0.0625594 -0.15935488 -0.033954546 -0.23037817 0.0196034 0.045461517 0.30397013
0.20808819 0.07432347 0.042235598 -0.043932915 -0.13448305 0.3689252 0.28781167 -0.8324647
-0.044577416 0.050485317 0.48505464 -0.0370156 -0.14734003 -0.2603216 -0.18383928 0.4158822
-0.06712244 0.31619075 -0.044750217 0.23338667 -0.28376478 0.12347628 0.102674715 0.11800081
-0.20239215 -0.0032859752 -0.15717135 0.083492026 -0.71149606 0.11502076 0.2951971 -0.2808388
-0.84947646 -0.01251506 0.020234445 -0.43510473 0.05538522 -0.07395369 0.24152812 0.52938527
0.16660984 -0.47157604 0.25070265 0.77601415 -0.04560693 -0.10243703 0.46505475 -0.05008928
-0.029990679 0.17969209 0.10881959 -0.08007412 -0.23047219 0.7346651 0.33486193 0.06786019
0.18617801 -0.5303514 0.31073883 0.08489714 -0.010961427 0.1614147 0.028825054 -0.58391356
0.6928597 0.5840425 0.7009547 -0.10400195 0.07203602 0.21072623 -0.6520914 0.11096432
0.060654018 -0.66620445 0.03091212 -0.704257 -0.2554829 -0.37079918 -0.07189847 -0.42941925
-0.13286003 -0.095499046 0.012843034 0.33501512 0.8641396 0.61715305 -0.06690528 -0.012401611
-0.37707165 0.48688334 -0.19039509 -0.021658817 -0.4153769 -0.008329867 0.19785352 0.36751556
-0.14240898 -0.16052113 -0.3122926 0.021140276 -0.35600808 -0.052020952 0.2218948 0.05957604
-0.18306968 -0.081501804 0.13153698 -0.59851146 0.2096968 0.11688277 0.08707966 0.022108238
0.21498832 -0.048303735 0.19774657 -0.18085995 -0.9052302 0.09752639 0.14957398 0.55753833
00000000: 1fc1 b0bc 3a25 0c3e aaf2 afbe a673 db3e
00000010: 2fc5 69bf 7055 043e 2624 f73a 328c 6a3e
00000020: 78ce 77bd 59d4 d2bc bdac 1c3d 72f2 9dbe
00000030: f687 7dbd 20ec ec3e bc2b 1cbd 8248 b6be
00000040: d8d5 69be e8ea d63e b593 5a3e d135 a7bd
00000050: 23f5 a8bd 734e 333d b0c5 5ebd e0d7 8fbe
00000060: 70ea 353e a9a2 bb3e 820e be3e 6fcc 6cbb
00000070: 5a8c 103d 4075 6ebd a8b3 ef3d bd60 a83c
00000080: 0bcc aa3d 56e2 2e3e d4a4 81be fa2e 803b
00000090: 73dd f4bd 7497 033f be39 803d b88c d83d
000000a0: 9140 5ebe 0757 9a3d a65c fc3d c57b 613e
000000b0: 5ee7 aabe a585 03be 0376 8dbe 1d8c 7bbd
000000c0: ca0f f23d e43b 89bf f427 ec3d 87d3 cfbd
000000d0: b18f b43e 0c3a d3bd 3f78 073d e616 7c3e
000000e0: b170 00bf 7b96 ba3d 8a70 003e 4c1a b8bc
000000f0: 01ae ef3e c971 b33e 07c4 f5be a10e 31be
00000100: 2974 8a3d 11cb 993e 4246 0cbe abd9 2c3b
00000110: a1e6 98be 6d5b 403d 9759 df3d ed40 9ebe
00000120: 7334 963e 4404 983e dadd 81be a284 093e
00000130: 0b82 5c3c a042 49bc c766 77be eacc d43d
00000140: e0d0 3fbe 2434 50be 44af 58bc 3261 e23e
00000150: 251a f4bd 5787 583e 2827 3ebe f951 02bf
00000160: 3ede 343d c037 df3e f8cc 7cbc 8568 5ebe
00000170: 345f 9cbb f782 84be 23a1 223e c89a 67be
00000180: 8808 e83d b2e9 09be 0a42 3b3d 448f d4be
00000190: 10a6 44be 15fe cc3e 4d34 75be c5ea b6bd
000001a0: 48bc 233e 398f 86be 2e33 c8be a143 e33e
000001b0: f46f f73c b251 d33e 666f 253d 062c dc3d
000001c0: 741e ea3e 810d ff3d 891f dbbc c7d0 f43d
000001d0: ebad 91be d50c 8dbc 2af4 41be 8aa3 53be
000001e0: 6c72 b93c 5cf7 3f3f 6ec9 573c 175b 95be
000001f0: 3cd6 1cbe 3829 203e 1d8b 553d 3737 3bbe
00000200: e8e0 b83d 251f 803d ed2d 23be ec13 0bbd
00000210: 41e8 6bbe 4f97 a03c db35 3a3d f9a1 9b3e
00000220: 1215 553e e736 983d 3cff 2c3d 00f3 33bd
00000230: edb5 09be c4e3 bc3e 0d5c 933e 681c 55bf
00000240: cf96 36bd b1c9 4e3d 1559 f83e ab9d 17bd
00000250: 4ee0 16be df48 85be 5d40 3cbe 83ee d43e
00000260: 7d77 89bd c1e3 a13e 014c 37bd eafc 6e3e
00000270: 9e49 91be 22e1 fc3d 1f47 d23d 69aa f13d
00000280: e33f 4fbe 8459 57bb 87f1 20be defd aa3d
00000290: 9b24 36bf 0190 eb3d 1324 973e 1aca 8fbe
000002a0: 4a77 59bf f70b 4dbc b5c2 a53c 0cc6 debe
000002b0: 9ddb 623d 0875 97bd 2653 773e cb85 073f
000002c0: c59b 2a3e 6a72 f1be 195c 803e dda8 463f
000002d0: 55ce 3abd 81ca d1bd a81b ee3e 6b2a 4dbd
000002e0: 03af f5bc 3401 383e cedc de3d e6fd a3bd
000002f0: e700 6cbe 0313 3c3f 0673 ab3e 49fa 8a3d
00000300: 73a5 3e3e 1cc5 07bf 2919 9f3e 8dde ad3d
00000310: 8f97 33bc e549 253e 8522 ec3c 5c7b 15bf
00000320: 415f 313f cf83 153f c471 333f f9fe d4bd
00000330: 9f87 933d 9ec8 573e 76ef 26bf 4341 e33d
00000340: 5970 783d 608c 2abf 6a3b fd3c 304a 34bf
00000350: a8ce 82be 64d9 bdbe 813f 93bd d7dc dbbe
00000360: 760c 08be 0195 c3bd 976b 523c 1a87 ab3e
00000370: 4138 5d3f befd 1d3f a305 89bd 2030 4bbc
00000380: 890f c1be c648 f93e eef6 42be d56d b1bc
00000390: 48ac d4be ff79 08bc 1d9a 4a3e 002b bc3e
000003a0: a9d3 11be a75f 24be d1e4 9fbe 5f2e ad3c
000003b0: b146 b6be ec13 55bd 6438 633e 0106 743d
000003c0: 9e76 3bbe 6bea a6bd a1b1 063e 0c38 19bf
000003d0: c2ba 563e 3c60 ef3d d256 b23d 561c b53c
000003e0: e625 5c3e 23da 45bd 147e 4a3e 5a33 39be
000003f0: 2bbd 67bf eabb c73d ec29 193e d5ba 0e3f

gru.weight_hh_l1 f4 [384, 128]
-0.03211754 0.09008242 0.10087641 -0.024859168 0.090042725 0.13650146 0.15177259 -0.093030564
-0.22373997 -0.1111205 0.23093468 -0.040087774 -0.07990058 0.007910799 0.03499307 -0.19616081
-0.15307245 0.07171349 0.088009484 -0.13672006 -0.14784148 -0.054418087 -0.052526325 0.032052323
0.13972886 -0.09985462 -0.026475947 -0.045756705 0.0828901 0.016577715 -0.09284541 0.09948617
-0.22170675 -0.008336008 -0.04988486 0.049052857 0.010409874 -0.19106331 -0.072933264 -0.052189514
-0.10692269 0.061529346 -0.0062314607 0.110801056 0.1111408 0.0503478 -0.04298229 0.10816373
-0.3589799 0.07240776 -0.08254912 0.033458766 -0.12216046 -0.15281585 0.01774138 0.009844266
-0.10245429 -0.18751052 -4.4985623e-05 0.14606448 -0.07341907 -0.18244147 0.084549546 0.13583335
0.09525085 0.0807143 -0.06705691 -0.108850315 0.15913048 0.12435698 -0.14042431 -0.1309999
0.058965545 -0.2487736 0.12347543 -0.03428497 0.060587186 0.050636094 0.11534581 -0.05405285
-0.10697518 -0.15322804 0.17358476 -0.044188064 0.08786563 -0.14614369 -0.1474336 -0.007741038
0.003879001 -0.038677983 -0.05662664 -0.10535104 -0.16763325 -0.03678815 0.064584844 0.02737068
-0.07427412 -0.008086767 0.09597142 0.092363216 0.028661521 -0.041428562 0.057641048 0.028243283
-0.20325638 0.04191838 0.1741187 -0.102549516 0.06800006 0.05320415 -0.05604312 -0.008413985
0.110499494 -0.10710651 0.03498896 0.12662151 -0.129476 0.1072778 -0.09768653 -0.16152647
-0.13004628 -0.04987967 0.11431213 -0.067605235 -0.07533051 -0.067348644 -0.07631568 0.065276936
-0.03703511 -0.38134298 0.19284204 0.10811725 -0.06635977 0.032207705 -0.09920659 0.071163096
0.07357258 -0.11157327 -0.2739035 0.15567586 0.12305729 -0.4453224 0.082928285 0.0434326
0.17747395 -0.039714355 -0.21981049 -0.18752772 0.18657652 0.11939069 -0.12198508 -0.17712513
-0.1188224 0.17210864 0.048402578 0.15739252 0.16030893 -0.10652928 0.055871308 0.12650645
0.246662 0.2851922 -0.1283371 0.19746433 -0.18280701 0.11819343 0.03550408 -0.15231384
0.1613518 -0.20499097 -0.017336965 -0.31962508 0.053636607 0.0037077558 0.111188844 0.022459317
-0.07924943 -0.0161203 0.19841588 0.08936382 -0.15722035 -0.15539654 0.050221574 0.08256837
0.12865594 0.037286982 0.16988283 -0.12721154 -0.028060347 0.032970756 -0.032774758 -0.06655769
-0.106519245 -0.045734044 -0.00814526 -0.1418549 0.038765125 -0.041279677 0.083406895 -0.21785374
-0.012266939 0.18648048 -0.014957629 0.08152355 0.00068917294 -0.02924556 -0.058872104 0.08185849
-0.06617863 -0.1143599 -0.15829016 -0.14268635 -0.08472169 0.1816848 -0.052024655 -0.08115699
0.17305039 0.023741597 0.20259964 -0.07901411 -0.09164313 0.07844405 -0.087412074 0.14774188
0.103746906 0.10742471 -0.14226064 -0.09010646 -0.11320527 0.32334298 0.17397077 -0.19681221
0.13168474 0.21347134 0.16188885 -0.051581103 0.061140325 0.07316493 -0.042419527 0.0067044096
-0.027673323 -0.044099357 0.092783086 0.12763552 -0.05671352 0.09729865 0.07864526 0.16671671
-0.09083557 0.17053114 -0.0732073 0.18866192 -0.0053008073 0.053606622 0.0628282 -0.16938578
00000000: ae8d 03bd 227d b83d 4b98 ce3d 74a5 cbbc
00000010: 5268 b83d 0ac7 0b3e 466a 1b3e cf86 bebd
00000020: 171c 65be 2593 e3bd 247a 6c3e 1433 24bd
00000030: eaa2 a3bd 4c9c 013c e554 0f3d 61de 48be
00000040: 06bf 1cbe 86de 923d 513e b43d 5800 0cbe
00000050: c263 17be 80e5 5ebd d825 57bd 4c49 033d
00000060: 1515 0f3e 9480 ccbd 16e4 d8bc 626b 3bbd
00000070: 49c2 a93d fdcd 873c bc25 bebd 68bf cb3d
00000080: 1807 63be c093 08bc 1154 4cbd a6eb 483d
00000090: 2d8e 2a3c 1aa6 43be 095e 95bd acc4 55bd
000000a0: 49fa dabd 3206 7c3d 4831 ccbb aaeb e23d
000000b0: ca9d e33d 7f39 4e3d 330e 30bd f284 dd3d
000000c0: 37cc b7be 854a 943d 830f a9bd 0f0c 093d
000000d0: 432f fabd c27b 1cbe 5f56 913c d849 213c
000000e0: 8ed3 d1bd c202 40be f2ae 3cb8 ed91 153e
000000f0: bd5c 96bd f0d1 3abe 5028 ad3d e617 0b3e
00000100: e112 c33d 8a4d a53d 2255 89bd eaec debd
00000110: 1af3 223e dfae fe3d 64cb 0fbe d624 06be
00000120: db85 713d 82be 7ebe b0e0 fc3d 666e 0cbd
00000130: 452a 783d cb67 4f3d 6d3a ec3d 8566 5dbd
00000140: ce15 dbbd d0e7 1cbe 34c0 313e 8bfe 34bd
00000150: e5f2 b33d b1a6 15be d5f8 16be 89a8 fdbb
00000160: d636 7e3b ce6c 1ebd 56f1 67bd 49c2 d7bd
00000170: 0da8 2bbe 2caf 16bd 0f45 843d 7a38 e03c
00000180: 081d 98bd 5c7e 04bc aa8c c43d ed28 bd3d
00000190: 91cb ea3c ffb0 29bd 0519 6c3d 755e e73c
000001a0: 7122 50be 9bb2 2b3d 2c4c 323e 7b05 d2bd
000001b0: 9e43 8b3d 98ec 593d 788d 65bd d0da 09bc
000001c0: 8f4d e23d a85a dbbd 9550 0f3d 12a9 013e
000001d0: 5b95 04be 77b4 db3d e00f c8bd 3267 25be
000001e0: da2a 05be a04e 4cbd 7a1c ea3d 9d74 8abd
000001f0: e246 9abd 16ee 89bd 654b 9cbd eaaf 853d
00000200: 21b2 17bd 633f c3be 6278 453e 946c dd3d
00000210: a2e7 87bd 3aec 033d d32c cbbd f5bd 913d
00000220: 39ad 963d 8780 e4bd 143d 8cbe 7e69 1f3e
00000230: 7605 fc3d 4c01 e4be 4ed6 a93d 62e6 313d
00000240: bbbb 353e 85ab 22bd 0016 61be 4407 40be
00000250: ea0d 3f3e 1b83 f43d 50d3 f9bd 4a60 35be
00000260: 2959 f3bd 3f3d 303e c841 463d 812b 213e
00000270: 0628 243e 062c dabd 50d9 643d e88a 013e
00000280: f794 7c3e b604 923e cd6a 03be 1734 4a3e
00000290: c331 3bbe 660f f23d ba6c 113d 29f8 1bbe
000002a0: 6839 253e 27e9 51be 4006 8ebc e6a5 a3be
000002b0: 0fb2 5b3d d2fd 723b fab6 e33d 9afc b73c
000002c0: 864d a2bd b80e 84bc 882d 4b3e 6104 b73d
000002d0: 5ffe 20be 4520 1fbe 23b5 4d3d 9b19 a93d
000002e0: 62be 033e 3cba 183d c4f5 2d3e be43 02be
000002f0: d0de e5bc 580c 073d d33e 06bd 664f 88bd
00000300: c326 dabd 9f53 3bbd b273 05bc 6942 11be
00000310: 2ec8 1e3d e114 29bd 3cd1 aa3d 0d15 5fbe
00000320: 45fb 48bc bdf4 3e3e d810 75bc d2f5 a63d
00000330: 9da9 343a 6294 efbc e023 71bd 6da5 a73d
00000340: a988 87bd 8635 eabd d116 22be 5f1c 12be
00000350: 9182 adbd 950b 3a3e ce17 55bd a335 a6bd
00000360: 1f34 313e bd7d c23c 4876 4f3e 26d2 a1bd
00000370: 65af bbbd 46a7 a03d 1a05 b3bd a649 173e
00000380: 4279 d43d 7d01 dc3d c6ac 11be bc89 b8bd
00000390: 2ad8 e7bd 368d a53e 6525 323e 2489 49be
000003a0: 5dd8 063e 3b98 5a3e 31c6 253e b546 53bd
000003b0: 476e 7a3d 7fd7 953d 19c0 2dbd aab0 db3b
000003c0: 2ab3 e2bc 87a1 34bd 0f05 be3d e3b2 023e
000003d0: 704c 68bd 8444 c73d c410 a13d c9b7 2a3e
000003e0: 0008 babd b79f 2e3e b5ed 95bd 9730 413e
000003f0: 65b2 adbb 9e92 5b3d 12ac 803d 7773 2dbe

gru.bias_ih_l1 f4 [384]
0.00169321 0.012288073 0.12486812 -0.1696429 0.032084323 -0.036800593 0.035349663 0.016787231
-0.22015962 -0.034565575 -0.025357028 0.018964428 -0.089725636 0.0065478827 -0.06268738 -0.050460454
0.010072333 -0.1524144 0.2752744 -0.10151668 -0.009687788 -0.18912986 0.08936559 -0.12808967
0.05832317 -0.08723195 -0.18231662 -0.010819356 0.08919145 -0.0846234 0.063564345 -0.029750332
-0.11200529 0.011370025 0.0050610285 -0.028251326 -0.014977056 -0.060089745 -0.1354216 -0.1068476
0.06494513 -0.061509587 0.026360596 0.3051738 -0.2147635 0.053934056 0.019280404 0.06467158
-0.19463027 0.12333874 -0.116687484 0.028063357 -0.10011835 -0.03507257 -0.11133117 0.17019576
-0.09870278 -0.17348005 0.15930471 0.32311904 0.13701722 -0.024274686 0.023645628 -0.121821366
0.050637014 0.116604015 -0.017536726 0.011728374 -0.13017574 0.06598876 0.045123916 -0.02334391
-0.034419447 -0.06681252 0.09853675 0.0020575707 0.08683993 -0.087887 0.19796056 -0.18954493
0.05889031 -0.060732223 0.022684358 -0.05790169 -0.07474422 0.0023146556 -0.23622349 0.011886158
0.1150531 0.11669524 -0.061264366 0.017565666 0.05330748 -0.15472196 -0.14928183 -0.060144734
-0.02927701 0.031881265 -0.048369892 0.095962204 -0.26230043 0.016182875 -0.065856166 0.04541734
0.10766542 0.18521951 -0.042013332 -0.029566891 0.023591133 -0.008289038 0.082505584 -0.06827193
0.011667432 -0.09037255 -0.16222742 -0.025805684 0.03338373 -0.09188799 -0.041566994 -0.031163897
-0.06640097 0.11787613 -0.0017512605 -0.19107182 0.042018004 -0.1189245 0.06467509 0.020988923
-0.45154616 -0.26503083 -0.18940881 -0.22648512 -0.3141098 -0.48219967 -0.20046468 -0.48548374
-0.36765322 -0.44926524 -0.23644732 -0.414714 -0.23347491 -0.24748158 -0.35999763 -0.27001694
-0.3624047 -0.45906463 -0.23898876 -0.3450149 -0.26965165 -0.5687619 -0.5780884 -0.41277072
-0.37640643 -0.4273752 -0.35124022 -0.3660375 -0.32089916 -0.49625227 -0.43209675 -0.4406828
-0.50432026 -0.40154174 -0.45282686 -0.26261604 -0.18681644 -0.45869428 -0.5749066 -0.49096644
-0.20033842 -0.19950023 -0.34805122 -0.5203086 -0.19243602 -0.48371688 -0.37231243 -0.4795243
-0.24660547 -0.47730458 -0.39539862 -0.28967682 -0.42093107 -0.1922768 -0.6591469 -0.27441475
-0.48539335 -0.21268174 -0.40653756 -0.41405708 -0.5745751 -0.26312432 -0.4595533 -0.31567594
-0.3085683 -0.30041036 -0.3819014 -0.4253802 -0.47837213 -0.43927407 -0.30052513 -0.22540788
-0.5937648 -0.3758277 -0.29248294 -0.26766726 -0.35962626 -0.5238816 -0.1848148 -0.57852006
-0.42663383 -0.42157948 -0.6106091 -0.4152185 -0.46812856 -0.27084202 -0.2443243 -0.34407136
-0.2218952 -0.23472919 -0.18529457 -0.18254797 -0.19115454 -0.49444237 -0.5729331 -0.14705375
-0.23003371 -0.2240256 -0.4934745 -0.30473295 -0.4317748 -0.26988313 -0.2835727 -0.40662402
-0.34929442 -0.40327358 -0.19643186 -0.14949015 -0.2338212 -0.4293698 -0.47129092 -0.3484304
-0.282707 -0.65377325 -0.5316335 -0.44843256 -0.45093662 -0.12307086 -0.45704672 -0.30308768
-0.3227863 -0.26726577 -0.35422975 -0.4455852 -0.50339025 -0.49067673 -0.5263494 -0.45998168
00000000: b3ee dd3a ea53 493c dbba ff3d deb6 2dbe
00000010: da6a 033d 38bc 16bd cfca 103d 6085 893c
00000020: 8671 61be a294 0dbd 8bb9 cfbc 4a5b 9b3c
00000030: 13c2 b7bd 9f8f d63b 3e62 80bd 9faf 4ebd
00000040: 6d06 253c 8512 1cbe c4f0 8c3e fae7 cfbd
00000050: 87b9 1ebc 42ab 41be 4e05 b73d f029 03be
00000060: 47e4 6e3d aaa6 b2bd 35b1 3abe ab43 31bc
00000070: 02aa b63d 084f adbd 062e 823d f8b6 f3bc
00000080: 0863 e5bd 5749 3a3c fcd6 a53b 536f e7bc
00000090: 5362 75bc aa20 76bd f6ab 0abe ead2 dabd
000000a0: f401 853d 7af1 7bbd 2df2 d73c be3f 9c3e
000000b0: f7ea 5bbe f5e9 5c3d f0f1 9d3c 8972 843d
000000c0: 284d 47be 0599 fc3d d9f9 eebd 20e5 e53c
000000d0: d90a cdbd 41a8 0fbd 9901 e4bd cc47 2e3e
000000e0: af24 cabd c1a4 31be c620 233e dc6f a53e
000000f0: 3e4e 0c3e b5db c6bc 7ab4 c13c 7b7d f9bd
00000100: c268 4f3d 16ce ee3d 2ea9 8fbc 5e28 403c
00000110: ca4c 05be 1d25 873d dbd3 383d ba3b bfbc
00000120: 68fb 0cbd 01d5 88bd a3cd c93d 4fd8 063b
00000130: 22d9 b13d 19fe b3bd 2cb6 4a3e 1118 42be
00000140: f736 713d 5ac2 78bd 8cd4 b93c 532a 6dbd
00000150: 7f13 99bd 7ab1 173b 92e4 71be 29be 423c
00000160: f6a0 eb3d eafd ee3d 58f0 7abd dfe5 8f3c
00000170: f258 5a3d 6f6f 1ebe 56dd 18be 535a 76bd
00000180: 57d6 efbc ee95 023d 821f 46bd d587 c43d
00000190: 3e4c 86be f391 843c 99df 86bd 8807 3a3d
000001a0: b07f dc3d 2faa 3d3e 2c16 2cbd 4436 f2bc
000001b0: 3142 c13c bfce 07bc b0f8 a83d 27d2 8bbd
000001c0: c228 3f3c 3e15 b9bd f21e 26be 7166 d3bc
000001d0: 61bd 083d c52f bcbd 2742 2abd 6e4b ffbc
000001e0: 3bfd 87bd 0a69 f13d 8d8a e5ba 55a8 43be
000001f0: 121b 2c3d b08e f3bd 6074 843d f6f0 ab3c
00000200: 0f31 e7be 1fb2 87be 62f4 41be b7eb 67be
00000210: 00d3 a0be e0e2 f6be 9d46 4dbe 5391 f8be
00000220: 0b3d bcbe 1806 e6be 3f1f 72be 6555 d4be
00000230: 0c14 6fbe d06b 7dbe 9c51 b8be a93f 8abe
00000240: 1c8d b9be 850a ebbe 78b9 74be cba5 b0be
00000250: c80f 8abe 619a 11bf 9afd 13bf af56 d3be
00000260: 58b8 c0be ecd0 dabe c2d5 b3be 4469 bbbe
00000270: e54c a4be c714 febe c93b ddbe 2da1 e1be
00000280: 221b 01bf e196 cdbe ecd8 e7be 9c75 86be
00000290: cf4c 3fbe fad9 eabe 142d 13bf f45f fbbe
000002a0: 8425 4dbe ca49 4cbe c533 b2be f232 05bf
000002b0: f30d 45be bda9 f7be bc9f bebe 3684 f5be
000002c0: 2586 7cbe 4461 f4be b071 cabe 8550 94be
000002d0: 4784 d7be 36e4 44be dabd 28bf 1780 8cbe
000002e0: 7a85 f8be 3ec9 59be b125 d0be 4aff d3be
000002f0: 5b17 13bf 3bb8 86be 924a ebbe 47a0 a1be
00000300: aafc 9dbe 63cf 99be 9588 c3be 6fcb d9be
00000310: 31ed f4be 88e8 e0be 6ede 99be 53d1 66be
00000320: f800 18bf 7d6c c0be 53c0 95be af0b 89be
00000330: ef20 b8be 1b1d 06bf 1740 3dbe e419 14bf
00000340: c06f dabe 44d9 d7be e150 1cbf 8597 d4be
00000350: 8cae efbe ceab 8abe 2630 7abe 1f2a b0be
00000360: 7f38 63be d95c 70be dcbd 3dbe dbed 3abe
00000370: 04be 43be 8d27 fdbe beab 12bf 4295 16be
00000380: f58d 6bbe f866 65be b1a8 fcbe f505 9cbe
00000390: 9611 ddbe 1f2e 8abe 7130 91be 0631 d0be
000003a0: b8d6 b2be e079 cebe 6f25 49be f213 19be
000003b0: d36e 6fbe 5cd6 dbbe 0b4d f1be 7865 b2be
000003c0: f9be 90be af5d 27bf 2219 08bf f498 e5be
000003d0: 2ae1 e6be 930c fcbd 0702 eabe 4f2e 9bbe
000003e0: 3f44 a5be 0fd7 88be 9a5d b5be be23 e4be
000003f0: 2fde 00bf fb39 fbbe d6be 06bf b882 ebbe
