model/gru_physics_epoch_70.pth (torch, 687480 bytes, 18 tensors)

gru.weight_ih_l0 f4 [384, 10]
-0.028934306 0.021938965 0.0011253613 0.05744365 0.03580903 0.0064955847 0.052890576 0.01757735
-0.03527317 0.027788315 0.015392987 -0.020210017 -0.040655855 -0.010485996 -0.005970021 -0.036197275
-0.042206258 0.0074565355 0.07624039 -0.0014819868 -0.036767732 0.07172236 -0.021028087 -0.0009319245
-0.050130323 0.03959696 0.055848066 0.018386465 -0.016945971 0.04266064 -0.06664107 -0.06009626
-0.0475248 0.04723377 -0.009064868 -0.07288886 -0.0087616965 -0.055231553 0.049569584 0.065834306
0.046592303 -0.04811761 0.05909795 -0.012311547 -0.009294937 -0.06011759 -0.069459476 0.011947199
0.045985885 0.019720688 0.012296565 -0.047367994 -0.008873709 0.009382283 -0.032925777 0.090108044
0.01702617 0.07137747 -0.020126738 -0.01086691 0.024459146 -0.031293206 0.023560254 0.022732567
-0.042344663 -0.068253234 -0.04939782 0.0023664834 0.028921386 0.07591683 -0.082817666 -0.043894798
-0.032212824 0.0054605887 -0.022929 -0.03440397 0.010615763 0.021135136 0.012801931 0.002249185
0.04993998 0.02971207 -0.03643222 -0.003381454 -0.01179722 0.057132013 0.060775418 -0.02077787
-0.039358657 0.026107572 -0.008626792 -0.06350734 0.04009164 -0.041836552 -0.0046217423 0.036691733
-0.0046019973 0.010726704 0.056045882 -0.016544769 -0.094962835 -0.0186173 -0.048421916 0.0042037168
-0.049059343 -0.00089167507 0.057404008 -0.038334306 -0.013839699 -0.005014335 0.02067705 -0.063291825
0.045827042 0.014397363 -0.048949145 0.0637204 0.05533468 -0.02318977 -0.08068681 0.007551046
0.036478084 0.09300212 -0.010911118 -0.03728316 0.0048929797 0.014807668 0.070639946 -0.0059324605
-0.06794526 0.015987607 0.032319687 0.03613997 -0.057865355 -0.025064046 -0.017358813 -0.088287085
0.012428584 -0.014743665 0.025760101 0.08954103 0.03648953 -0.025577458 0.03371524 -0.006584285
0.030615157 -0.018274736 0.015937638 0.006597214 0.029636411 0.061546355 0.035588793 0.048567753
0.015194284 -0.028928638 0.033641234 -0.05573659 -0.015256619 -0.019481445 0.023130918 0.004138088
0.040246177 -0.009481278 0.056624316 0.030561768 0.044177704 0.010990505 -0.03917377 -0.052271876
-0.0048210593 -0.048578627 0.03255447 0.028090265 -0.028488945 -0.045738447 0.018840311 -0.03196011
0.05284171 0.02048991 0.024146114 -0.038082127 0.0061456175 0.06335238 -0.07562107 0.03661318
0.0030319875 0.072589934 0.09565854 0.07582945 -0.16038331 -0.06376931 0.11335008 0.016515752
0.046323165 0.04412165 0.045343127 -0.041121546 0.036505993 -0.0042191683 0.028866278 -0.004289314
0.062361874 -0.007719044 -0.052885406 -0.027332775 0.018080503 -0.05396187 -0.047562193 -0.06278572
-0.007428982 0.049489975 0.012715637 0.0800689 0.024641223 -0.012614876 0.051300906 -0.081683226
-0.041954115 -0.0842036 0.0028436522 0.030048253 0.022427602 -0.0701117 -0.017730715 -0.00028419407
-0.04561478 -0.012361847 0.010074825 -0.06951703 0.06575822 -0.006523413 -0.047820397 0.092548065
-0.0873698 0.0381452 0.05939425 -0.05778083 0.015421952 -0.0028841465 0.022869894 0.028539691
-0.00042375852 -0.014788756 0.1828419 -0.011649337 -0.03221648 -0.10325667 -0.08614385 -0.10475291
0.09672888 0.052453235 -0.010139887 0.042367715 0.017183013 0.029478177 -0.054108255 0.07011942
00000000: a307 edbc 58b9 b33c dc80 933a 084a 6b3d
00000010: 7dac 123d ead8 d43b caa3 583d 60fe 8f3c
00000020: 997a 10bd 52a4 e33c de32 7c3c 7a8f a5bc
00000030: c186 26bd 74cd 2bbc 2aa0 c3bb 9843 14bd
00000040: 78e0 2cbd f455 f43b ec23 9c3d 3a3f c2ba
00000050: c399 16bd 2ce3 923d 1843 acbc 654c 74ba
00000060: 7455 4dbd 6c30 223d f1c0 643d 369f 963c
00000070: 47d2 8abc ecbc 2e3d 1d7b 88bd 7f27 76bd
00000080: 5da9 42bd 3378 413d d084 14bc c146 95bd
00000090: 388d 0fbc 7b3a 62bd 7a09 4b3d 23d4 863d
000000a0: 92d7 3e3d f916 45bd b110 723d 5fb6 49bc
000000b0: cb49 18bc dd3d 76bd c540 8ebd 2fbe 433c
000000c0: b25b 3c3d 488d a13c 8877 493c f104 42bd
000000d0: 0863 11bc 26b8 193c 2edd 06bd 918a b83d
000000e0: 777a 8b3c 5a2e 923d d4e0 a4bc 200b 32bc
000000f0: 8c5e c83c 4e2d 00bd 6f01 c13c a639 ba3c
00000100: 9971 2dbd 5ac8 8bbd 5e55 4abd 0117 1b3b
00000110: 8bec ec3c 487a 9b3d 4f9c a9bd 08cb 33bd
00000120: 98f1 03bd bdee b23b 99d5 bbbc 2deb 0cbd
00000130: bded 2d3c 9823 ad3c 31bf 513c 1067 133b
00000140: dd8d 4c3d ba66 f33c f439 15bd 629b 5dbb
00000150: 2149 41bc 4203 6a3d a5ef 783d 5a36 aabc
00000160: 8b36 21bd 8cdf d53c 6357 0dbc 2310 82bd
00000170: 2237 243d ce5c 2bbd fc71 97bb 124a 163d
00000180: 5acc 96bb 0fbf 2f3c 5e90 653d e588 87bc
00000190: e07b c2bd 4f83 98bc 0f56 46bd 55bf 893b
000001a0: 73f2 48bd 4dbf 69ba 7720 6b3d 6f04 1dbd
000001b0: e8bf 62bc 4a4f a4bb eb62 a93c 259f 81bd
000001c0: 23b5 3b3d ebe2 6b3c e67e 48bd d77f 823d
000001d0: 9ea6 623d 79f8 bdbc 203f a5bd c46e f73b
000001e0: 0b6a 153d e577 be3d 8cc4 32bc 3ab6 18bd
000001f0: 4a55 a03b dc9b 723c adab 903d 1665 c2bb
00000200: e226 8bbd 71f8 823c a661 043d 8107 143d
00000210: 3904 6dbd 1d53 cdbc 1234 8ebc dccf b4bd
00000220: 42a1 4b3c 6a8f 71bc d906 d33c 4a61 b73d
00000230: 0c76 153d d187 d1bc fe18 0a3d fcc0 d7bb
00000240: a3cc fa3c e6b4 95bc a68f 823c 712d d83b
00000250: 0fc8 f23c 0818 7c3d 8ec5 113d fbee 463d
00000260: 72f1 783c c0fb ecbc 64cb 093d 0d4c 64bd
00000270: e6f6 79bc 8d97 9fbc 0d7d bd3c cc98 873b
00000280: 2dd9 243d 5d57 1bbc e6ee 673d ac5c fa3c
00000290: aef3 343d 8511 343c ad74 20bd 091b 56bd
000002a0: faf9 9dbb 62fa 46bd d657 053d 8e1d e63c
000002b0: a661 e9bc 3d58 3bbd ff56 9a3c 9be8 02bd
000002c0: 8d70 583d 75da a73c 12ce c53c 01fc 1bbd
000002d0: 2d61 c93b e5be 813d 38df 9abd b4f7 153d
000002e0: 4fb4 463b 08aa 943d a0e8 c33d 784c 9b3d
000002f0: 863b 24be 7c99 82bd 1624 e83d 0b4c 873c
00000300: 5cbd 3d3d e7b8 343d b7b9 393d 116f 28bd
00000310: 4f87 153d f340 8abb f978 ec3c 608d 8cbb
00000320: 2a6f 7f3d 09f0 fcbb 5e9e 58bd fce8 dfbc
00000330: 901d 943c 1f07 5dbd 93d0 42bd cd95 80bd
00000340: d16e f3bb 00b6 4a3d 3f55 503c 2afb a33d
00000350: 64dc c93c a0ae 4ebc e620 523d 8949 a7bd
00000360: 14d8 2bbd f072 acbd 915c 3a3b c127 f63c
00000370: 17ba b73c b996 8fbd 0140 91bc e2ff 94b9
00000380: 90d6 3abd 5889 4abc e110 253c f25e 8ebd
00000390: 3fac 863d 5bc2 d5bb 52df 43bd d789 bd3d
000003a0: f0ee b2bd 243e 1c3d 6347 733d 97ab 6cbd
000003b0: 5bac 7c3c f303 3dbb a559 bb3c 12cc e93c
000003c0: e82b deb9 8a4c 72bc e83a 3b3e dcdc 3ebc
000003d0: 6df5 03bd 3c78 d3bd 306c b0bd b288 d6bd
000003e0: cb19 c63d 34d9 563d c521 26bc c589 2d3d
000003f0: 64c3 8c3c 387c f13c 9ea0 5dbd c59a 8f3d

gru.weight_hh_l0 f4 [384, 128]
0.035403255 0.023657328 0.01770185 -0.0063492027 -0.0048625018 -0.006863883 -0.030518046 -0.0026586254
-0.019840134 -0.025322089 0.004323721 0.0041725743 0.019526698 0.05356718 0.056653257 0.012111003
-0.026831187 -0.045527574 -0.033296917 -0.015275389 -0.052919712 -0.054008838 -0.011024147 0.027241953
-0.042604983 -0.011239297 0.03495712 -0.035134237 -0.034206055 0.0411871 -0.002408538 -0.016432663
0.04923987 -0.029320288 0.040284846 0.038720302 -0.012507447 0.043094147 0.045452863 -0.020865528
0.042729434 0.034723077 0.017770156 -0.011918204 -0.053935762 -0.041208807 -0.030786986 -0.014126198
-0.0049661673 0.018988093 0.008813684 -0.004158988 0.04292131 0.03410613 0.040993404 -0.0032705232
-0.04384821 0.0410379 -0.027894253 -0.025136786 0.030270597 -0.042731557 0.001523745 -0.024013102
-0.03622045 -0.026121665 1.4685181e-05 -0.009163638 0.017080624 0.037185855 0.006241327 -0.016774898
0.0006300141 -0.024977619 0.01512509 0.03216122 0.052165832 0.043414265 0.04877082 0.018497923
0.020408133 -0.03172814 -0.0005619689 -0.0016984211 -0.058106244 -0.011785942 -0.0045871176 -0.034376774
0.0394349 -0.0097804535 -0.025203452 0.037981164 -0.015436742 -0.035137095 -0.03699464 -0.004857653
0.038246486 0.011904789 -0.02684194 0.01896172 -0.000249411 0.051891614 0.015716562 0.01082407
-0.037621994 -0.054181162 0.029698184 -0.022414656 -0.00873941 -0.0422809 0.031436794 0.041480236
0.009761644 -0.0014158917 0.027139213 -0.01986529 -0.016220504 0.057682205 0.013570412 0.024629164
0.023020148 -0.049020812 0.015713733 -0.002681995 0.009164005 -0.021391187 0.0352119 0.027806532
0.014460347 0.049529765 -0.023455959 -0.018011397 -0.04238698 -0.08244365 -0.08381109 0.0012885233
-0.027744187 -0.01213018 0.021543251 -0.03190123 0.002012374 0.042987652 0.031036504 0.016882094
0.025298718 0.03717196 -0.022959799 -0.023219578 -0.014125426 0.043949183 -0.013038793 -0.0063546943
-0.010477935 -0.035221934 0.05457623 -0.042096198 0.034515023 0.009688344 -0.016022278 -0.028858608
-0.056713935 -0.0061906055 0.043424323 0.01772738 -0.01569216 -0.058100644 -0.033859357 -0.0009077365
-0.008118101 0.018322725 0.023531906 0.06320122 -0.0032485982 0.011483172 -0.056873284 -0.017635815
0.012450191 0.032621693 -0.011425563 0.0054869824 -0.034240097 0.019587152 -0.08192968 0.029326191
0.011072634 -0.0049657435 -0.04297522 -0.018458692 0.037965614 0.00014364875 -0.06267938 -0.064891785
0.024004227 -0.02745555 -0.04023207 -0.052695207 -0.06652494 -0.07917198 0.07111829 0.057691574
-0.0040528513 -0.012121465 -0.08816548 -0.03203338 0.010795566 -0.040784724 -0.012243631 0.053730965
-0.007979396 0.011300407 0.053474344 0.032361623 0.014328185 -0.005116278 0.01617686 -0.025929816
-0.014189092 0.032711852 -0.07057538 -0.0041581234 0.004860343 -0.05210006 0.006917397 -0.052085266
0.025685072 0.003954133 -0.07557769 0.0022170441 -0.03224186 0.052904464 0.018835684 -0.019948283
0.031838186 0.044566173 -0.03263941 -0.003225539 0.021780388 -0.008774052 -0.0025528027 0.037486486
0.00035970903 0.04991732 0.0232692 0.005655519 -0.043382797 0.026429363 -0.094325535 0.023889508
0.0054968204 0.012313069 -0.042625424 0.049477138 0.002648263 -0.0047862967 0.011707294 -0.092131
00000000: 0103 113d 03cd c13c 7803 913c f90c d0bb
00000010: 9f55 9fbb 6dea e0bb fb00 fabc 553c 2ebb
00000020: c787 a2bc 4570 cfbc 00ae 8d3b 17ba 883b
00000030: 74f6 9f3c 4269 5b3d 3f0d 683d 3a6d 463c
00000040: 14cd dbbc 1f7b 3abd 5962 08bd a045 7abc
00000050: 57c2 58bd 5f38 5dbd a09e 34bc 842a df3c
00000060: 9082 2ebd 0725 38bc 322f 0f3d ebe8 0fbd
00000070: a61b 0cbd ceb3 283d 90d8 1dbb cb9d 86bc
00000080: bfaf 493d 1a31 f0bc b901 253d 2e99 1e3d
00000090: 09ec 4cbc 7d83 303d c82c 3a3d 2fee aabc
000000a0: 0f05 2f3d c939 0e3d b892 913c 9244 43bc
000000b0: bfeb 5cbd 91ca 28bd fd34 fcbc 9271 67bc
000000c0: 3bbb a2bb eb8c 9b3c 4567 103c 1f48 88bb
000000d0: 41ce 2f3d dfb2 0b3d b3e8 273d 4656 56bb
000000e0: 2e9a 33bd 5b17 283d 7d82 e4bc a9eb cdbc
000000f0: 0bfa f73c 4907 2fbd 66b8 c73a 20b7 c4bc
00000100: e55b 14bd 1afd d5bc 5f60 7637 1523 16bc
00000110: aaec 8b3c 3250 183d 0c84 cc3b 836b 89bc
00000120: 8827 253a dd9d ccbc 3acf 773c 7cbb 033d
00000130: d7ab 553d 28d3 313d e9c3 473d f588 973c
00000140: f52e a73c 5ef5 01bd 1851 13ba 8e9d deba
00000150: d000 6ebd d319 41bc 884f 96bb a9ce 0cbd
00000160: 7d86 213d 323e 20bc 7877 cebc 2392 1b3d
00000170: 64ea 7cbc eaeb 0fbd b187 17bd f22c 9fbb
00000180: 59a8 1c3d 4e0c 433c a1e3 dbbc 9c55 9b3c
00000190: 61c3 82b9 4d8c 543d 05c0 803c 7157 313c
000001a0: 8519 1abd 11ed 5dbd 9b49 f33c f19e b7bc
000001b0: be2f 0fbc bd2e 2dbd dec3 003d 2ee7 293d
000001c0: 4def 1f3c 7195 b9ba 0e53 de3c 88bc a2bc
000001d0: dde0 84bc 2d44 6c3d 6f56 5e3c 1ac3 c93c
000001e0: c094 bc3c 0cca 48bd 16ba 803c 69c4 2fbb
000001f0: 9f24 163c 923c afbc 5a3a 103d 86ca e33c
00000200: 17eb 6c3c b9df 4a3d b626 c0bc a38c 93bc
00000210: f89d 2dbd 37d8 a8bd 26a5 abbd abe3 a83a
00000220: c747 e3bc aabd 46bc 797b b03c ddaa 02bd
00000230: 09e2 033b d213 303d 4440 fe3c 514c 8a3c
00000240: 423f cf3c a041 183d 3016 bcbc fc36 bebc
00000250: 556e 67bc 0f04 343d a9a0 55bc 0a3b d0bb
00000260: a5ab 2bbc e044 10bd 538b 5f3d 106d 2cbd
00000270: a05f 0d3d dcbb 1e3c 2741 83bc e368 ecbc
00000280: df4c 68bd 90da cabb b4dd 313d 0339 913c
00000290: d88c 80bc f1fa 6dbd 1cb0 0abd 2af5 6dba
000002a0: c901 05bc 8a19 963c fcc5 c03c a46f 813d
000002b0: 6fe6 54bb ea23 3c3c f6f3 68bd fc78 90bc
000002c0: e3fb 4b3c 539e 053d 4932 3bbc 25cc b33b
000002d0: 583f 0cbd 3c75 a03c c0ca a7bd 7b3d f03c
000002e0: fe69 353c adb7 a2bb c906 30bd af36 97bc
000002f0: d581 1b3d 6ba0 1639 0c5e 80bd fce5 84bd
00000300: 83a4 c43c 76ea e0bc 62ca 24bd eed6 57bd
00000310: 3a3e 88bd eb24 a2bd 77a6 913d 004e 6c3d
00000320: c8cd 84bb 1c99 46bc 1a90 b4bd 6f35 03bd
00000330: e3df 303c e20d 27bd 8399 48bc 0015 5c3d
00000340: 03bc 02bc 5825 393c ea07 5b3d 9f8d 043d
00000350: c3c0 6a3c 73a6 a7bb 5685 843c c46a d4bc
00000360: 5e79 68bc ddfc 053d d389 90bd de40 88bb
00000370: 8343 9f3b df66 55bd 55ab e23b 5c57 55bd
00000380: 8069 d23c ac91 813b 7ac8 9abd d44b 113b
00000390: 0a10 04bd 5ab2 583d 4b4d 9a3c 956a a3bc
000003a0: c268 023d 058b 363d e7b0 05bd 9163 53bb
000003b0: c96c b23c 0bc1 0fbc ec4c 27bb 6e8b 193d
000003c0: 5497 bc39 1b76 4c3d 0d9f be3c ef51 b93b
000003d0: 29b2 31bd 6482 d83c bf2d c1bd eeb3 c33c
000003e0: ac1e b43b c1bc 493c ff97 2ebd 8aa8 4a3d
000003f0: 7b8e 2d3b 5ed6 9cbb f3cf 3f3c 2daf bcbd

gru.bias_ih_l0 f4 [384]
-0.002261487 0.015639525 -0.0026085896 0.01921756 0.013672949 -0.030313611 -0.0028937934 0.0015449355
-0.028421825 -0.004559684 -0.012794577 -0.018764121 -0.01981856 0.03407084 0.0075945836 -0.00016239179
0.005656098 -0.0034420006 -0.0754892 -0.00010296673 0.026129123 0.0018450996 0.0046482948 -0.0053059943
0.04519887 -0.012206888 0.0027755206 0.04893305 0.028200068 -0.009102928 0.008882619 -0.017613804
0.02202818 0.017416403 -0.009456618 0.045675475 0.010706905 0.0059559224 -0.015129252 -0.042062648
-1.0204798e-05 0.014258316 0.032123923 0.015339607 0.038098216 0.030599367 -0.035454094 -0.016543508
0.018342786 -0.00039933942 0.012315301 0.0016933657 -0.0059763533 0.02990382 -0.015733287 -0.06871437
-0.0036035061 -0.013895872 0.017473893 0.01203392 0.024830475 0.00939862 0.017901096 0.029015325
0.008490466 -0.0011156728 0.0053044097 0.024205513 0.026862223 -0.033124194 -0.026268639 -0.008378232
0.0022097689 0.008116782 0.0061931275 -0.037596866 -0.02615147 -0.007911167 0.00060592534 -0.022054916
-0.003704406 0.0026810656 0.01606277 -0.022193443 -0.009723925 0.004526764 -0.005856374 -0.0011541501
0.015272351 0.03983215 0.020765645 0.011114901 -0.0017061447 -0.009192386 -0.01000425 -0.0008817392
-0.0143180825 0.04225719 0.040302675 -0.011791806 -0.00015139295 -0.008127359 -0.0005924482 -0.009339651
0.02906376 -0.004420863 -0.008369617 0.006487147 0.028052516 -0.004656123 -0.033853862 0.0057822037
0.008427313 0.033098172 0.07218274 0.00025187206 -0.0306241 0.03108935 0.047596116 -0.0019247971
0.033208657 0.0064850887 3.116249e-05 -0.023477428 0.02550979 0.033702433 0.0057450943 0.04792343
0.04876409 -0.059463125 0.20181303 0.067794025 0.24482138 -0.14042397 -0.07819058 0.20949821
0.030852647 0.13624893 -0.08668301 -0.28144303 -0.19601548 0.21428822 -0.037590094 0.2650879
0.15228762 0.107041545 -0.070394635 -0.11766419 0.1160086 -0.06422004 -0.036997274 0.06445108
-0.11985015 0.21844158 -0.01794953 -0.04041657 -0.11192159 -0.2329341 -0.15617716 0.11166719
-0.018262805 0.04381562 0.05706164 -0.0687498 0.19158967 0.21101499 -0.067487985 -0.14803474
0.2327269 -0.08451893 0.089032985 -0.22267945 -0.26448807 0.1113982 -0.12157512 -0.07449901
-0.087722346 0.27932042 0.027437469 0.141 -0.26284704 -0.23506263 -0.20458615 -0.19709055
0.14947207 0.10867134 -0.10772464 -0.112626106 -0.10495666 0.18905349 -0.19417724 -0.15476114
0.10959983 0.032920126 0.06484391 0.022296788 -0.16875978 -0.19591467 -0.18741454 0.22667973
0.23280305 0.18693176 -0.21625595 -0.14909568 -0.20027307 0.19065602 0.23688501 0.13153419
-0.020922424 0.26284418 -0.02048237 -0.19125842 -0.016422525 -0.08471929 0.031579 0.19617979
-0.25042522 -0.21607998 0.08344737 -0.08093456 0.08603229 -0.1414764 -0.14075406 0.20034777
-0.15365088 -0.15077358 -0.08107874 0.14025663 0.20651665 0.1775855 0.07150059 -0.1859712
-0.17156453 0.1913324 0.20322262 0.12178553 -0.14691097 -0.2441611 -0.05750102 -0.17903475
0.04687707 -0.21814694 -0.14818524 0.14479214 -0.20031504 0.05675795 -0.14067148 0.16490069
-0.13408029 -0.06257433 0.030932777 0.22138564 0.20330249 0.14677025 -0.03111356 0.07949136
00000000: 7535 14bb 761e 803c dff4 2abb 256e 9d3c
00000010: 8104 603c 4054 f8bc cca5 3dbb 6f7f ca3a
00000020: e3d4 e8bc 6769 95bb 58a0 51bc 37b7 99bc
00000030: 885a a2bc dd8d 0b3d fcdb f83b b747 2ab9
00000040: ca56 b93b 3093 61bb 159a 9abd d8ef d7b8
00000050: be0c d63c 45d7 f13a b950 983b e8dd adbb
00000060: 7322 393d 66ff 47bc 82e5 353b 066e 483d
00000070: d403 e73c 7324 15bc 6888 113c d34a 90bc
00000080: 7174 b43c d8ac 8e3c eeef 1abc 3516 3b3d
00000090: 046c 2f3c e629 c33b afe0 77bc e249 2cbd
000000a0: 4635 2bb7 b69b 693c 6094 033d fa52 7b3c
000000b0: e00c 1c3d 86ab fa3c 5038 11bd 4086 87bc
000000c0: 9c43 963c 6e5e d1b9 1ec6 493c edf3 dd3a
000000d0: 49d5 c3bb dbf8 f43c 18e3 80bc 1fba 8cbd
000000e0: cd28 6cbb 83ab 63bc 6925 8f3c eb29 453c
000000f0: 4869 cb3c abfc 193c 52a5 923c 8cb1 ed3c
00000100: 981b 0b3c c43b 92ba 9dd0 ad3b a44a c63c
00000110: 2a0e dc3c 3cad 07bd 5431 d7bc da44 09bc
00000120: c5d1 103b 40fc 043c b8ef ca3b 2cff 19bd
00000130: 9c3b d6bc d79d 01bc f6d6 1e3a 83ac b4bc
00000140: 9fc5 72bb d1b4 2f3b 1296 833c 06cf b5bc
00000150: 1951 1fbc 4055 943b d3e6 bfbb da46 97ba
00000160: e238 7a3c 0927 233d b71c aa3c 461b 363c
00000170: b7a0 dfba a99b 16bc dee8 23bc 8424 67ba
00000180: 6496 6abc e015 2d3d 6b14 253d 6b32 41bc
00000190: 3cbf 1eb9 9d28 05bc 874e 1bba 5605 19bc
000001a0: 1f17 ee3c e3dc 90bb b820 09bc 2292 d43b
000001b0: 64ce e53c 6492 98bb 59aa 0abd a478 bd3b
000001c0: b612 0a3c f391 073d 8bd4 933d b20d 8439
000001d0: 64df fabc 18af fe3c 25f4 423d 7949 fcba
000001e0: cd05 083d de80 d43b 78b4 0238 bc53 c0bc
000001f0: e8f9 d03c 900b 0a3d 5841 bc3b 5c4b 443d
00000200: dbbc 473d 9b8f 73bd 13a8 4e3e 98d7 8a3d
00000210: 75b2 7a3e 4dcb 0fbe 6222 a0bd b386 563e
00000220: b1be fc3c d784 0b3e dd86 b1bd 4d19 90be
00000230: 48b8 48be 5f6e 5b3e 12f8 19bd 9ab9 873e
00000240: 49f1 1b3e 9938 db3d 102b 90bd ecf9 f0bd
00000250: eb95 ed3d cc85 83bd 748a 17bd eefe 833d
00000260: ff73 f5bd 26af 5f3e e50a 93bc d88b 25bd
00000270: 2637 e5bd 4786 6ebe e8ec 1fbe c5b1 e43d
00000280: e19b 95bc 0278 333d 77b9 693d b2cc 8cbd
00000290: 1530 443e 5014 583e 2437 8abd 6b96 17be
000002a0: f64f 6e3e 4318 adbd ed56 b63d 1506 64be
000002b0: fb6a 87be bd24 e43d 60fc f8bd f092 98bd
000002c0: c6a7 b3bd 1603 8f3e 8bc4 e03c 4e62 103e
000002d0: e393 86be 42b4 70be 087f 51be 1bd2 49be
000002e0: 350f 193e 148f de3d bc9e dcbd 84a8 e6bd
000002f0: 84f3 d6bd 3d97 413e 66d6 46be b479 1ebe
00000300: e075 e03d 41d7 063d e2cc 843d c1a7 b63c
00000310: 5dcf 2cbe db9d 48be 99e9 3fbe bb1e 683e
00000320: ec63 6e3e 0a6b 3f3e 3372 5dbe 8aac 18be
00000330: 6214 4dbe 553b 433e fc91 723e e6b0 063e
00000340: 8165 abbc 8393 863e a5ca a7bc 3fd9 43be
00000350: 8888 86bc 4f81 adbd fb58 013d 5be3 483e
00000360: bc37 80be 1244 5dbe 74e6 aa3d 05c1 a5bd
00000370: b231 b03d 30df 10be d521 10be f727 4d3e
00000380: a856 1dbe 6464 1abe 9c0c a6bd 6f9f 0f3e
00000390: 1a79 533e f9d8 353e e76e 923d 3c6f 3ebe
000003a0: 9dae 2fbe a4ec 433e 9719 503e b16a f93d
000003b0: d46f 16be 5e05 7abe 3186 6bbd e354 37be
000003c0: 2c02 403d e961 5fbe dfbd 17be 6444 143e
000003d0: 631f 4dbe 067b 683d 2f0c 10be badb 283e
000003e0: 584c 09be f826 80bd bc66 fd3c ebb2 623e
000003f0: 872e 503e f14a 163e dde1 febc 5ecc a23d

gru.bias_hh_l0 f4 [384]
-0.002261487 0.015639525 -0.0026085896 0.01921756 0.013672949 -0.030313611 -0.0028937934 0.0015449355
-0.028421825 -0.004559684 -0.012794577 -0.018764121 -0.01981856 0.03407084 0.0075945836 -0.00016239179
0.005656098 -0.0034420006 -0.0754892 -0.00010296673 0.026129123 0.0018450996 0.0046482948 -0.0053059943
0.04519887 -0.012206888 0.0027755206 0.04893305 0.028200068 -0.009102928 0.008882619 -0.017613804
0.02202818 0.017416403 -0.009456618 0.045675475 0.010706905 0.0059559224 -0.015129252 -0.042062648
-1.0204798e-05 0.014258316 0.032123923 0.015339607 0.038098216 0.030599367 -0.035454094 -0.016543508
0.018342786 -0.00039933942 0.012315301 0.0016933657 -0.0059763533 0.02990382 -0.015733287 -0.06871437
-0.0036035061 -0.013895872 0.017473893 0.01203392 0.024830475 0.00939862 0.017901096 0.029015325
0.008490466 -0.0011156728 0.0053044097 0.024205513 0.026862223 -0.033124194 -0.026268639 -0.008378232
0.0022097689 0.008116782 0.0061931275 -0.037596866 -0.02615147 -0.007911167 0.00060592534 -0.022054916
-0.003704406 0.0026810656 0.01606277 -0.022193443 -0.009723925 0.004526764 -0.005856374 -0.0011541501
0.015272351 0.03983215 0.020765645 0.011114901 -0.0017061447 -0.009192386 -0.01000425 -0.0008817392
-0.0143180825 0.04225719 0.040302675 -0.011791806 -0.00015139295 -0.008127359 -0.0005924482 -0.009339651
0.02906376 -0.004420863 -0.008369617 0.006487147 0.028052516 -0.004656123 -0.033853862 0.0057822037
0.008427313 0.033098172 0.07218274 0.00025187206 -0.0306241 0.03108935 0.047596116 -0.0019247971
0.033208657 0.0064850887 3.116249e-05 -0.023477428 0.02550979 0.033702433 0.0057450943 0.04792343
0.04876409 -0.059463125 0.20181303 0.067794025 0.24482138 -0.14042397 -0.07819058 0.20949821
0.030852647 0.13624893 -0.08668301 -0.28144303 -0.19601548 0.21428822 -0.037590094 0.2650879
0.15228762 0.107041545 -0.070394635 -0.11766419 0.1160086 -0.06422004 -0.036997274 0.06445108
-0.11985015 0.21844158 -0.01794953 -0.04041657 -0.11192159 -0.2329341 -0.15617716 0.11166719
-0.018262805 0.04381562 0.05706164 -0.0687498 0.19158967 0.21101499 -0.067487985 -0.14803474
0.2327269 -0.08451893 0.089032985 -0.22267945 -0.26448807 0.1113982 -0.12157512 -0.07449901
-0.087722346 0.27932042 0.027437469 0.141 -0.26284704 -0.23506263 -0.20458615 -0.19709055
0.14947207 0.10867134 -0.10772464 -0.112626106 -0.10495666 0.18905349 -0.19417724 -0.15476114
0.10959983 0.032920126 0.06484391 0.022296788 -0.16875978 -0.19591467 -0.18741454 0.22667973
0.23280305 0.18693176 -0.21625595 -0.14909568 -0.20027307 0.19065602 0.23688501 0.13153419
-0.020922424 0.26284418 -0.02048237 -0.19125842 -0.016422525 -0.08471929 0.031579 0.19617979
-0.25042522 -0.21607998 0.08344737 -0.08093456 0.08603229 -0.1414764 -0.14075406 0.20034777
-0.15365088 -0.15077358 -0.08107874 0.14025663 0.20651665 0.1775855 0.07150059 -0.1859712
-0.17156453 0.1913324 0.20322262 0.12178553 -0.14691097 -0.2441611 -0.05750102 -0.17903475
0.04687707 -0.21814694 -0.14818524 0.14479214 -0.20031504 0.05675795 -0.14067148 0.16490069
-0.13408029 -0.06257433 0.030932777 0.22138564 0.20330249 0.14677025 -0.03111356 0.07949136
00000000: 7535 14bb 761e 803c dff4 2abb 256e 9d3c
00000010: 8104 603c 4054 f8bc cca5 3dbb 6f7f ca3a
00000020: e3d4 e8bc 6769 95bb 58a0 51bc 37b7 99bc
00000030: 885a a2bc dd8d 0b3d fcdb f83b b747 2ab9
00000040: ca56 b93b 3093 61bb 159a 9abd d8ef d7b8
00000050: be0c d63c 45d7 f13a b950 983b e8dd adbb
00000060: 7322 393d 66ff 47bc 82e5 353b 066e 483d
00000070: d403 e73c 7324 15bc 6888 113c d34a 90bc
00000080: 7174 b43c d8ac 8e3c eeef 1abc 3516 3b3d
00000090: 046c 2f3c e629 c33b afe0 77bc e249 2cbd
000000a0: 4635 2bb7 b69b 693c 6094 033d fa52 7b3c
000000b0: e00c 1c3d 86ab fa3c 5038 11bd 4086 87bc
000000c0: 9c43 963c 6e5e d1b9 1ec6 493c edf3 dd3a
000000d0: 49d5 c3bb dbf8 f43c 18e3 80bc 1fba 8cbd
000000e0: cd28 6cbb 83ab 63bc 6925 8f3c eb29 453c
000000f0: 4869 cb3c abfc 193c 52a5 923c 8cb1 ed3c
00000100: 981b 0b3c c43b 92ba 9dd0 ad3b a44a c63c
00000110: 2a0e dc3c 3cad 07bd 5431 d7bc da44 09bc
00000120: c5d1 103b 40fc 043c b8ef ca3b 2cff 19bd
00000130: 9c3b d6bc d79d 01bc f6d6 1e3a 83ac b4bc
00000140: 9fc5 72bb d1b4 2f3b 1296 833c 06cf b5bc
00000150: 1951 1fbc 4055 943b d3e6 bfbb da46 97ba
00000160: e238 7a3c 0927 233d b71c aa3c 461b 363c
00000170: b7a0 dfba a99b 16bc dee8 23bc 8424 67ba
00000180: 6496 6abc e015 2d3d 6b14 253d 6b32 41bc
00000190: 3cbf 1eb9 9d28 05bc 874e 1bba 5605 19bc
000001a0: 1f17 ee3c e3dc 90bb b820 09bc 2292 d43b
000001b0: 64ce e53c 6492 98bb 59aa 0abd a478 bd3b
000001c0: b612 0a3c f391 073d 8bd4 933d b20d 8439
000001d0: 64df fabc 18af fe3c 25f4 423d 7949 fcba
000001e0: cd05 083d de80 d43b 78b4 0238 bc53 c0bc
000001f0: e8f9 d03c 900b 0a3d 5841 bc3b 5c4b 443d
00000200: dbbc 473d 9b8f 73bd 13a8 4e3e 98d7 8a3d
00000210: 75b2 7a3e 4dcb 0fbe 6222 a0bd b386 563e
00000220: b1be fc3c d784 0b3e dd86 b1bd 4d19 90be
00000230: 48b8 48be 5f6e 5b3e 12f8 19bd 9ab9 873e
00000240: 49f1 1b3e 9938 db3d 102b 90bd ecf9 f0bd
00000250: eb95 ed3d cc85 83bd 748a 17bd eefe 833d
00000260: ff73 f5bd 26af 5f3e e50a 93bc d88b 25bd
00000270: 2637 e5bd 4786 6ebe e8ec 1fbe c5b1 e43d
00000280: e19b 95bc 0278 333d 77b9 693d b2cc 8cbd
00000290: 1530 443e 5014 583e 2437 8abd 6b96 17be
000002a0: f64f 6e3e 4318 adbd ed56 b63d 1506 64be
000002b0: fb6a 87be bd24 e43d 60fc f8bd f092 98bd
000002c0: c6a7 b3bd 1603 8f3e 8bc4 e03c 4e62 103e
000002d0: e393 86be 42b4 70be 087f 51be 1bd2 49be
000002e0: 350f 193e 148f de3d bc9e dcbd 84a8 e6bd
000002f0: 84f3 d6bd 3d97 413e 66d6 46be b479 1ebe
00000300: e075 e03d 41d7 063d e2cc 843d c1a7 b63c
00000310: 5dcf 2cbe db9d 48be 99e9 3fbe bb1e 683e
00000320: ec63 6e3e 0a6b 3f3e 3372 5dbe 8aac 18be
00000330: 6214 4dbe 553b 433e fc91 723e e6b0 063e
00000340: 8165 abbc 8393 863e a5ca a7bc 3fd9 43be
00000350: 8888 86bc 4f81 adbd fb58 013d 5be3 483e
00000360: bc37 80be 1244 5dbe 74e6 aa3d 05c1 a5bd
00000370: b231 b03d 30df 10be d521 10be f727 4d3e
00000380: a856 1dbe 6464 1abe 9c0c a6bd 6f9f 0f3e
00000390: 1a79 533e f9d8 353e e76e 923d 3c6f 3ebe
000003a0: 9dae 2fbe a4ec 433e 9719 503e b16a f93d
000003b0: d46f 16be 5e05 7abe 3186 6bbd e354 37be
000003c0: 2c02 403d e961 5fbe dfbd 17be 6444 143e
000003d0: 631f 4dbe 067b 683d 2f0c 10be badb 283e
000003e0: 584c 09be f826 80bd bc66 fd3c ebb2 623e
000003f0: 872e 503e f14a 163e dde1 febc 5ecc a23d

gru.weight_ih_l1 f4 [384, 128]
-0.023308512 0.15379655 -0.35836387 0.34548292 -0.9734055 0.12513624 -0.01600389 0.23885378
-0.08080148 -0.00955194 0.057392534 -0.32219008 -0.08620918 0.50671214 -0.058291234 -0.37125057
-0.23780428 0.43773693 0.22881056 -0.10955599 -0.10348115 0.020525169 -0.077387854 -0.26978767
0.18706003 0.38216966 0.38496348 -0.014344607 0.023288067 -0.080100164 0.106723554 0.049113095
0.04204471 0.18439609 -0.25412896 0.014137959 -0.12465542 0.5832628 0.09086572 0.13611473
-0.22633372 0.13628234 0.15111576 0.22534417 -0.35918394 -0.12184706 -0.3160909 -0.07448434
0.13850112 -1.105071 0.12834191 -0.067596465 0.37897444 -0.08871115 0.0395187 0.25937453
-0.47578245 0.09182195 0.13605052 -0.00211054 0.49271524 0.36549127 -0.47484 -0.20871504
0.08908691 0.216912 -0.15010107 -0.008064709 -0.2297061 0.056070484 0.16367958 -0.30875292
0.30588093 0.3096199 -0.28066373 0.15607737 0.007446804 0.039032288 -0.25193688 0.10834922
-0.20828359 -0.21201964 -0.024885716 0.39717904 -0.14933625 0.21063638 -0.2061066 -0.55070215
0.05521699 0.4723426 -0.016088864 -0.17189102 -0.007667161 -0.2587365 0.16843134 -0.24103768
0.14060327 -0.1539437 0.002846832 -0.36702198 -0.20023926 0.41754356 -0.24971443 -0.083822474
0.18712103 -0.27405497 -0.34205616 0.479305 0.028946163 0.4053157 0.059730478 0.122118995
0.36523223 0.13945319 -0.0002716495 0.12790936 -0.30421108 -0.0003061565 -0.19445492 -0.21553163
0.043512736 0.6653084 0.0096093975 -0.30421507 -0.15970065 0.1630951 0.0635203 -0.18162258
0.072003976 0.042833753 -0.16618295 -0.05674169 -0.21670486 -0.0022530803 0.044607155 0.26537797
0.22496846 0.09495981 0.0142879505 -0.037736326 -0.091965154 0.3421534 0.2701606 -0.85838145
-0.02390392 0.052644152 0.45858824 -0.034602676 -0.14951435 -0.29104713 -0.18296906 0.4073226
-0.060409583 0.32294008 -0.03965869 0.28019062 -0.23235452 0.14739896 0.104435734 0.115753606
-0.23751485 -0.018964361 -0.19469261 0.10339593 -0.71511143 0.12576099 0.26143467 -0.2745444
-0.8828058 0.0019631188 0.03540086 -0.3404969 0.03158249 -0.064068004 0.259155 0.563501
0.15990631 -0.48766175 0.22272699 0.82495123 -0.030726306 -0.10212387 0.44993407 -0.05359447
-0.01739198 0.14820553 0.11736642 -0.08089178 -0.25731188 0.73992556 0.29703888 0.10587347
0.22286555 -0.487475 0.3333801 0.062073868 -0.009092101 0.18509585 0.04277893 -0.5589324
0.6927202 0.6090763 0.72012067 -0.1490246 0.07626126 0.22402789 -0.66551715 0.11571836
0.042531807 -0.69471574 0.047994215 -0.76505405 -0.27983594 -0.38629946 -0.044187557 -0.43399504
-0.112169355 -0.08590704 0.013394227 0.3734126 0.8711658 0.66995513 -0.08273281 -0.005436154
-0.3936951 0.53834563 -0.17361972 -0.001756934 -0.40906182 -0.008686812 0.20632026 0.38252065
-0.15056464 -0.16250004 -0.32135758 0.028135106 -0.30915374 -0.087930724 0.2447562 0.11806795
-0.21818164 -0.09643544 0.13401479 -0.60964584 0.23733588 0.11199014 0.109810635 0.023055911
0.23090531 -0.059644427 0.19616976 -0.18860914 -0.95726997 0.101703554 0.18134053 0.5838074
00000000: 7ef1 bebc d87c 1d3e 787b b7be 23e3 b03e
00000010: 1a31 79bf b723 003e 971a 83bc 1696 743e
00000020: 3f7b a5bd bd7f 1cbc 6f14 6b3d 19f6 a4be
00000030: 708e b0bd e3b7 013f cac2 6ebd 8e14 bebe
00000040: f782 73be 0e1f e03e 514d 6a3e e45e e0bd
00000050: eded d3bd 6624 a83c 867d 9ebd 9c21 8abe
00000060: aa8c 3f3e beab c33e ef19 c53e a405 6bbc
00000070: 9ec6 be3c 8e0b a4bd e191 da3d d02a 493d
00000080: 1337 2c3d 54d2 3c3e 311d 82be e6a2 673c
00000090: 574b ffbd b650 153f ce17 ba3d a961 0b3e
000000a0: 07c4 67be 998d 0b3e 17be 1a3e 9fc0 663e
000000b0: f5e6 b7be f48a f9bd abd6 a1be 3f8b 98bd
000000c0: 3dd3 0d3e f772 8dbf 106c 033e 0470 8abd
000000d0: f008 c23e 31ae b5bd 5cde 213d bdcc 843e
000000e0: c299 f3be 260d bc3d d450 0b3e fc50 0abb
000000f0: 2c45 fc3e ac21 bb3e 3a1e f3be 65b9 55be
00000100: 3373 b63d 2e1e 5e3e 18b4 19be d721 04bc
00000110: 1338 6bbe 2aaa 653d 9f9b 273e dd14 9ebe
00000120: 6d9c 9c3e 8086 9e3e 28b3 8fbe bfd2 1f3e
00000130: 5204 f43b 52e0 1f3d dffd 80be 32e6 dd3d
00000140: 4b48 55be ad1b 59be 21dd cbbc 0d5b cb3e
00000150: 9aeb 18be 10b1 573e 9c0d 53be d1fa 0cbf
00000160: 362b 623d e4d6 f13e cbcc 83bc 3304 30be
00000170: cf3c fbbb 1c79 84be 4479 2c3e 95d2 76be
00000180: 4efa 0f3e 6ba3 1dbe ea91 3a3b 4eea bbbe
00000190: 850b 4dbe 45c8 d53e 24b5 7fbe 1eab abbd
000001a0: a89c 3f3e ef50 8cbe fc21 afbe 7767 f53e
000001b0: 8120 ed3c 8a85 cf3e f2a7 743d 8619 fa3d
000001c0: b8ff ba3e d1cc 0e3e 2e6c 8eb9 acfa 023e
000001d0: 8ec1 9bbe a183 a0b9 311f 47be 53b4 5cbe
000001e0: 693a 323d a751 2a3f bc70 1d3c 14c2 9bbe
000001f0: 9188 23be 6702 273e ee16 823d 45fb 39be
00000200: d276 933d 7272 2f3d dd2b 2abe f969 68bd
00000210: e1e7 5dbe 6aa8 13bb feb5 363d 9fdf 873e
00000220: 225e 663e 4a7a c23d 0218 6a3c 6891 1abd
00000230: 3a58 bcbd bb2e af3e 7d52 8a3e e3be 5bbf
00000240: 27d2 c3bc 65a1 573d 14cc ea3e 89bb 0dbd
00000250: 4a1a 19be 2104 95be 3e5c 3bbe 968c d03e
00000260: 0a70 77bd 6758 a53e 2771 22bd 2575 8f3e
00000270: 58ee 6dbe c1ef 163e 67e2 d53d 3a10 ed3d
00000280: 1837 73be 265b 9bbc 805d 47be 3fc1 d33d
00000290: 8b11 37bf 7dc7 003e c4da 853e 1591 8cbe
000002a0: 90ff 61bf aba7 003b 7e00 113d 9c55 aebe
000002b0: a45c 013d 1636 83bd f7af 843e 9a41 103f
000002c0: 7bbe 233e cdae f9be 8b12 643e 0130 533f
000002d0: bcb5 fbbc 5226 d1bd c25d e63e e085 5bbd
000002e0: a079 8ebc 31c3 173e ce5d f03d 97aa a5bd
000002f0: 62be 83be c36b 3d3f 7b15 983e 31d4 d83d
00000300: de36 643e 5396 f9be ccb0 aa3e 2b41 7e3d
00000310: 09f7 14bc c489 3d3e f638 2f3d 3216 0fbf
00000320: 1c56 313f 6dec 1b3f d459 383f e899 18be
00000330: dd2e 9c3d 9167 653e 555f 2abf bffd ec3d
00000340: d535 2e3d e4d8 31bf 9595 443d 95da 43bf
00000350: a846 8fbe 0bc9 c5be 03fe 34bd 9934 debe
00000360: 0cb9 e5bd 08f0 afbd 7673 5b3c f02f bf3e
00000370: b904 5f3f 2e82 2b3f d26f a9bd c421 b2bb
00000380: 6792 c9be 05d1 093f 5ec9 31be ec48 e6ba
00000390: 8d70 d1be 2153 0ebc 9e45 533e bfd9 c33e
000003a0: 9e2d 1abe 6966 26be fb88 a4be 987b e63c
000003b0: 6649 9ebe 0615 b4bd 5fa1 7a3e 9ccd f13d
000003c0: 026b 5fbe f27f c5bd 2c3b 093e c011 1cbf
000003d0: 2d08 733e 165b e53d 66e4 e03d c0df bc3c
000003e0: 7172 6c3e b74d 74bd bae0 483e c122 41be
000003f0: a50f 75bf f449 d03d 55b1 393e 6774 153f

gru.weight_hh_l1 f4 [384, 128]
-0.05955973 0.08001912 0.077933446 0.013688592 0.08022625 0.18006124 0.14414056 -0.05864642
-0.24736212 -0.095485345 0.21000378 -0.019209746 -0.069462135 0.022890117 0.022629328 -0.16848995
-0.13417518 0.0888546 0.07810366 -0.12840518 -0.14039488 -0.043057535 -0.06913291 0.048995573
0.12035598 -0.09111762 -0.014116799 -0.034679133 0.110804215 0.004281896 -0.08337088 0.11490972
-0.21727435 -0.046873353 -0.06517847 0.010892251 0.033150952 -0.22664917 -0.062245566 -0.06794107
-0.06393737 0.051153623 0.0069978707 0.101682514 0.089531474 0.03895909 -0.0186321 0.09921071
-0.37352106 0.06270184 -0.060789093 0.067139864 -0.13747552 -0.18250686 0.0044251624 0.02366163
-0.09334492 -0.15791848 0.017080493 0.13877493 -0.062362365 -0.17714056 0.07419068 0.12756456
0.08584327 0.070080966 -0.08331816 -0.09940089 0.15265316 0.11673291 -0.13248928 -0.15768825
0.04751367 -0.22257468 0.12868467 -0.00970899 0.04898505 0.03920916 0.107270196 -0.042364575
-0.0807534 -0.13429679 0.16790654 -0.07063361 0.054362666 -0.12327958 -0.12013446 -0.021084294
0.01703539 -0.025744246 -0.045871794 -0.09497068 -0.14902867 -0.025352264 0.05339401 0.041767474
-0.06449201 0.005137732 0.08706788 0.08317919 0.0440469 -0.029472837 0.07315912 0.0036050768
-0.16601534 0.06334622 0.15598734 -0.096499175 0.045685634 0.068496585 -0.055592693 0.01721177
0.078720436 -0.09761843 0.06623307 0.09328335 -0.120853975 0.09742202 -0.06379767 -0.14378309
-0.148333 -0.03899242 0.14095764 -0.057496436 -0.06455909 -0.057240233 -0.12248591 0.055052537
-0.03934075 -0.4102598 0.21745417 0.10231628 -0.06442691 0.034700613 -0.0995472 0.06419995
0.07312292 -0.10226771 -0.27762967 0.15349258 0.14144467 -0.46814236 0.082691535 0.043668725
0.16907617 -0.04698877 -0.2191264 -0.20067151 0.20007063 0.11882468 -0.12161412 -0.18322064
-0.10638346 0.17384696 0.04798156 0.15852569 0.15731403 -0.10548051 0.057534434 0.12772958
0.2573562 0.29823995 -0.12823434 0.2065776 -0.14326625 0.103489086 0.037169375 -0.15332253
0.1510611 -0.21071528 -0.02359578 -0.30139795 0.06645576 0.009353739 0.10732577 0.018768165
-0.08351845 -0.017262058 0.17447072 0.08062996 -0.1580122 -0.13955493 0.057812426 0.081352666
0.13278121 0.03925539 0.16920277 -0.12706761 -0.034946095 0.029574316 -0.03460009 -0.065656856
-0.10647138 -0.04356371 -0.002925059 -0.15203485 0.04740087 -0.045275837 0.08775806 -0.2149576
-0.009039512 0.18369171 -0.01462428 0.06950362 0.0015152002 -0.024812153 -0.056712028 0.080214515
-0.07409995 -0.13569589 -0.1594542 -0.13370937 -0.07806204 0.18067439 -0.056121774 -0.079026654
0.1753653 0.021015948 0.20604777 -0.08031596 -0.110579446 0.076199114 -0.0732109 0.14922135
0.103434175 0.10920943 -0.14258182 -0.0922298 -0.12369663 0.32673582 0.17669326 -0.18813346
0.1572724 0.17955837 0.16709173 -0.058755364 0.07242557 0.07067804 -0.04249992 -0.010664563
-0.024046177 -0.051671963 0.10346952 0.13723998 -0.06447135 0.106213816 0.06786708 0.16046824
-0.08503005 0.17306776 -0.081012435 0.1911061 -0.00073015067 0.050296605 0.05874071 -0.17152719
00000000: e7f4 73bd 10e1 a33d 929b 9f3d 1e46 603c
00000010: a94d a43d f961 383e 9599 133e 3a37 70bd
00000020: 7f4c 7dbe d28d c3bd 3b0b 573e c25d 9dbc
00000030: 2a42 8ebd 0e84 bb3c 2461 b93c a188 2cbe
00000040: 3865 09be 67f9 b53d d0f4 9f3d a67c 03be
00000050: adc3 0fbe 195d 30bd 8e95 8dbd 95af 483d
00000060: 327d f63d e09b babd 264a 67bc b50b 0ebd
00000070: 52ed e23d 264f 8c3b 5abe aabd ca55 eb3d
00000080: 2b7d 5ebe 46fe 3fbd 4a7c 85bd 6975 323c
00000090: 4bc9 073d b816 68be 35f5 7ebd b024 8bbd
000000a0: 99f1 82bd 7686 513d 654e e53b ec3e d03d
000000b0: 475c b73d 9193 1f3d 59a2 98bc fc2e cb3d
000000c0: 273e bfbe d369 803d fcfd 78bd a080 893d
000000d0: 62c6 0cbe 14e3 3abe f400 913b 09d6 c13c
000000e0: 9f2b bfbd 62b5 21be 64ec 8b3c 041b 0e3e
000000f0: ae6f 7fbd 5664 35be 49f1 973d 49a0 023e
00000100: 99ce af3d 9c86 8f3d b6a2 aabd b292 cbbd
00000110: 1c51 1c3e aa11 ef3d 45ab 07be 0779 21be
00000120: b29d 423d 9eea 63be eac5 033e 7512 1fbc
00000130: 8ca4 483d c999 203d 7ab0 db3d 7a86 2dbd
00000140: 0a62 a5bd 1985 09be b1ef 2b3e 5ba8 90bd
00000150: 63ab 5e3d 017a fcbd 0e09 f6bd f8b8 acbc
00000160: cd8d 8b3c 99e5 d2bc 10e4 3bbd fd7f c2bd
00000170: f99a 18be 8daf cfbc adb3 5a3d 5f14 2b3d
00000180: 6314 84bd 6b5a a83b a550 b23d da59 aa3d
00000190: 866a 343d 0571 f1bc 73d4 953d 2743 6c3b
000001a0: edff 29be aabb 813d 25bb 1f3e 5ca1 c5bd
000001b0: dc20 3b3d f047 8c3d 2ab5 63bd b3ff 8c3c
000001c0: 2e38 a13d 2cec c7bd 34a5 873d 570b bf3d
000001d0: 4a82 f7bd 3285 c73d 5aa8 82bd e03b 13be
000001e0: 9be4 17be 84b6 1fbd 3357 103e 6281 6bbd
000001f0: 8e37 84bd bc74 6abd e5d9 fabd c57e 613d
00000200: c423 21bd 930d d2be 4eac 5e3e 338b d13d
00000210: 41f2 83bd 3b22 0e3d 67df cbbd 437b 833d
00000220: 78c1 953d bc71 d1bd 7a25 8ebe 292d 1d3e
00000230: dfd6 103e 5bb0 efbe 2e5a a93d fadd 323d
00000240: 4e22 2d3e 4c77 40bd ac62 60be d57c 4dbe
00000250: 51df 4c3e 5b5a f33d d310 f9bd 319e 3bbe
00000260: 92df d9bd f004 323e 5088 443d 8f54 223e
00000270: ee16 213e 2a06 d8bd 3aa9 6b3d 8bcb 023e
00000280: 31c4 833e e8b2 983e dd4f 03be 1489 533e
00000290: 63b4 12be 16f2 d33d ea3e 183d 9500 1dbe
000002a0: c3af 1a3e bfc5 57be f04b c1bc d550 9abe
000002b0: f519 883d 6d40 193c 9dcd db3d b2bf 993c
000002c0: b90b abbd 2969 8dbc 74a8 323e 5221 a53d
000002d0: f3cd 21be 7de7 0ebe b9cc 6c3d 3a9c a63d
000002e0: ccf7 073e 43ca 203d 7e43 2d3e 031e 02be
000002f0: a323 0fbd d645 f23c d3b8 0dbd 1a77 86bd
00000300: ab0d dabd dc6f 32bd 59b2 3fbb 06af 1bbe
00000310: 6a27 423d 2873 39bd 7fba b33d d81d 5cbe
00000320: 761a 14bc ae19 3c3e ad9a 6fbc ea57 8e3d
00000330: af99 c63a db42 cbbc df4a 68bd 8247 a43d
00000340: b7c1 97bd ddf3 0abe f647 23be 1ceb 08be
00000350: fede 9fbd b502 393e f2df 65bd bad8 a1bd
00000360: f692 333e a329 ac3c 30fe 523e b27c a4bd
00000370: 7a77 e2bd 480e 9c3d 99ef 95bd 7bcd 183e
00000380: 4cd5 d33d 32a9 df3d f800 12be fae2 bcbd
00000390: a954 fdbd eb49 a73e 14ef 343e 0fa6 40be
000003a0: 040c 213e 26de 373e 181a 2b3e 77a9 70bd
000003b0: db53 943d a6bf 903d 6514 2ebd 6bba 2ebc
000003c0: 7dfc c4bc fba5 53bd d4e7 d33d a388 0c3e
000003d0: 8e09 84bd a186 d93d e5fd 8a3d c951 243e
000003e0: 3c24 aebd ad38 313e d9e9 a5bd 51b1 433e
000003f0: 9567 3fba d003 4e3d 199a 703d d3a4 2fbe

gru.bias_ih_l1 f4 [384]
-0.011128183 0.009390107 0.12476747 -0.14057119 0.013135701 -0.0334103 0.028389612 0.04508861
-0.18726383 -0.031732235 -0.010024896 0.0081828935 -0.1106416 0.037713613 -0.067278825 -0.06777005
0.021566961 -0.15976292 0.28709802 -0.11661796 -0.03141423 -0.19575237 0.059598442 -0.13951546
0.021414224 -0.09479669 -0.18171228 -0.026548693 0.085440814 -0.07751006 0.05565545 -0.02439437
-0.110495396 0.030449115 -0.027671833 -0.031840567 -0.008013223 -0.07537854 -0.13749905 -0.1180959
0.052735623 -0.059401177 0.028031858 0.31521162 -0.22623229 0.043537524 0.0027742134 0.03486702
-0.22315252 0.116268314 -0.1266986 0.03480944 -0.09791897 0.008309354 -0.13273618 0.16705735
-0.13264312 -0.17042547 0.14375338 0.33247572 0.09753391 -0.025249774 0.01554718 -0.12128257
0.05802078 0.12177836 -0.015618688 0.03431509 -0.12859781 0.050795402 0.050550196 -0.02891876
-0.04022812 -0.051481694 0.12564784 0.008782454 0.09315482 -0.096791506 0.18460536 -0.16174977
0.045966625 -0.07436542 0.009756546 -0.070498586 -0.080295555 0.0046815 -0.24028893 0.00538679
0.10557547 0.09934271 -0.052938983 0.009046821 0.053941246 -0.1850414 -0.14833584 -0.075026706
-0.06104175 0.035602055 -0.06416645 0.10342361 -0.29701933 0.040563118 -0.06462673 0.030992957
0.12294527 0.19013189 -0.07306745 0.003666235 -0.0014600954 -0.014032152 0.09969229 -0.06228653
0.04393893 -0.10331818 -0.16815998 -0.028838627 0.023455588 -0.088783614 -0.05236203 -0.057123173
-0.09250276 0.14274196 0.011898465 -0.2291151 0.044169534 -0.13116074 0.08003172 0.035091527
-0.46723977 -0.28974906 -0.18465474 -0.22684354 -0.3352865 -0.51586974 -0.24799532 -0.51042736
-0.37618494 -0.47006807 -0.23561883 -0.41415226 -0.23237221 -0.25841495 -0.35442838 -0.27282822
-0.36630282 -0.46631438 -0.26321876 -0.34696284 -0.28874308 -0.61478597 -0.59365845 -0.41025084
-0.40028656 -0.43643358 -0.40323237 -0.38739288 -0.3542477 -0.5099356 -0.43887174 -0.46600494
-0.5076972 -0.4003349 -0.48642406 -0.28482276 -0.18357734 -0.45403042 -0.6097927 -0.51030046
-0.20556843 -0.2137821 -0.36201158 -0.48757955 -0.196455 -0.50211316 -0.3904148 -0.49330762
-0.24738345 -0.49069756 -0.44092995 -0.30248564 -0.44115993 -0.20434108 -0.67372346 -0.25056428
-0.52022326 -0.20921713 -0.41375288 -0.4315355 -0.59518987 -0.25556013 -0.48944458 -0.3396873
-0.31050265 -0.31480506 -0.40361115 -0.45004386 -0.51246446 -0.448054 -0.30400687 -0.2063033
-0.6110681 -0.41777396 -0.29216245 -0.2907761 -0.34670046 -0.5460167 -0.20131348 -0.5967578
-0.46342883 -0.42706215 -0.6235234 -0.41042438 -0.45592195 -0.26935336 -0.23466082 -0.37159464
-0.23940064 -0.26916084 -0.20063008 -0.18394192 -0.20562293 -0.5217189 -0.5133049 -0.15576725
-0.23381664 -0.23423815 -0.4969701 -0.31258836 -0.46447384 -0.29453826 -0.2907373 -0.42399925
-0.35310382 -0.36893082 -0.22232692 -0.1486571 -0.19652158 -0.45223442 -0.47140077 -0.35784355
-0.280751 -0.670746 -0.55560035 -0.4401544 -0.46775308 -0.12898538 -0.45438486 -0.3146838
-0.34754562 -0.2763474 -0.374907 -0.46317366 -0.5222602 -0.49192235 -0.5523004 -0.46000993
00000000: fc52 36bc f7d8 193c 1686 ff3d e5f1 0fbe
00000010: 2037 573c 3dd9 08bd 5591 e83c d6ae 383d
00000020: 17c2 3fbe a9f9 01bd 763f 24bc 8b11 063c
00000030: 1098 e2bd 9779 1a3d 7bc9 89bd 06cb 8abd
00000040: 32ad b03c e498 23be 83fe 923e 66d5 eebd
00000050: 35ac 00bd 4f73 48be 7f1d 743d 24dd 0ebe
00000060: e26c af3c c424 c2bd c912 3abe a57c d9bc
00000070: 98fb ae3d 98bd 9ebd f8f6 633d b4d6 c7bc
00000080: 694b e2bd 6c70 f93c 0ab0 e2bc 416b 02bd
00000090: e549 03bc 1060 9abd 8dcc 0cbe 43dc f1bd
000000a0: 4f01 583d a64e 73bd 11a3 e53c 6b63 a13e
000000b0: 70a9 67be 6754 323d 94cf 353b b8d0 0e3d
000000c0: 1882 64be 151e ee3d 47bd 01be 5894 0e3d
000000d0: be89 c8bd f523 083c feeb 07be 1511 2b3e
000000e0: 99d3 07be 0484 2ebe 1634 133e 423a aa3e
000000f0: dcbf c73d 9dd8 cebc 99b9 7e3c ff62 f8bd
00000100: 33a7 6d3d ef66 f93d 87e5 7fbc fb8d 0c3d
00000110: 25af 03be d70e 503d b90d 4f3d 09e7 ecbc
00000120: 3ec6 24bd 78de 52bd d4a9 003e 48e4 0f3c
00000130: f4c7 be3d a03a c6bd 3009 3d3e bba1 25be
00000140: 8047 3c3d e64c 98bd ebd9 1f3c 9061 90bd
00000150: ff71 a4bd 4567 993b 4d0e 76be ab83 b03b
00000160: f437 d83d 3174 cb3d 8cd6 58bd 1e39 143c
00000170: 7ff1 5c3d 7e7b 3dbe 5ae5 17be 9aa7 99bd
00000180: ea06 7abd 76d3 113d b369 83bd c2cf d33d
00000190: eb12 98be 8325 263d 055b 84bd f1e4 fd3c
000001a0: bbca fb3d efb1 423e 63a4 95bd 3745 703b
000001b0: ac60 bfba 1ce7 65bc 792b cc3d 2920 7fbd
000001c0: 4ff9 333d 7b98 d3bd 2132 2cbe fc3e ecbc
000001d0: ef25 c03c 2fd4 b5bd 9179 56bd fdf9 69bd
000001e0: 1672 bdbd f32a 123e c8f1 423c 269d 6abe
000001f0: 1deb 343d 004f 06be ace7 a33d 22bc 0f3d
00000200: 0d3a efbe fd59 94be 2216 3dbe ac49 68be
00000210: acaa abbe 0a10 04bf 7cf2 7dbe 5eab 02bf
00000220: 509b c0be c3ac f0be 1046 71be c40b d4be
00000230: fbf2 6dbe f74e 84be a377 b5be 24b0 8bbe
00000240: 0b8c bbbe c2c0 eebe 9cc4 86be 1da5 b1be
00000250: 22d6 93be 9d62 1dbf 00fa 17bf 660c d2be
00000260: 5cf2 ccbe 3974 dfbe 7974 cebe 5c58 c6be
00000270: f45f b5be 248b 02bf ccb3 e0be 3398 eebe
00000280: 72f8 01bf b2f8 ccbe 930c f9be 4ad4 91be
00000290: b3fb 3bbe ad76 e8be 601b 1cbf 0da3 02bf
000002a0: 8880 52be b2e9 5abe 9559 b9be 07a4 f9be
000002b0: 802b 49be 7d8a 00bf 73e4 c7be d192 fcbe
000002c0: 1652 7dbe b63c fbbe 92c1 e1be 66df 9abe
000002d0: b7df e1be ca3e 51be 2479 2cbf f649 80be
000002e0: 5a2d 05bf 043d 56be 6bd7 d3be 39f2 dcbe
000002f0: 5d5e 18bf c7d8 82be 7b98 fabe 7eeb adbe
00000300: 34fa 9ebe 212e a1be 1fa6 cebe 266c e6be
00000310: df30 03bf 5567 e5be caa6 9bbe 2c41 53be
00000320: f66e 1cbf 78e6 d5be 5196 95be 9be0 94be
00000330: b982 b1be c0c7 0bbf 1f25 4ebe 1fc5 18bf
00000340: 8b46 edbe e4a7 dabe 3b9f 1fbf 2523 d2be
00000350: 9a6e e9be afe8 89be ed4a 70be a741 bebe
00000360: 7125 75be 73cf 89be f971 4dbe 455b 3cbe
00000370: d18e 52be 5f8f 05bf f367 03bf 7381 1fbe
00000380: a16d 6fbe 20dc 6fbe dd72 febe 950b a0be
00000390: 84cf edbe b8cd 96be 85db 94be 6e16 d9be
000003a0: 06ca b4be 80e4 bcbe aba9 63be 9139 18be
000003b0: f43c 49be 458b e7be 715b f1be 4537 b7be
000003c0: 98be 8fbe 03b6 2bbf d33b 0ebf eb5b e1be
000003d0: 557d efbe be14 04be 22a5 e8be 3c1e a1be
000003e0: 80f1 b1be 687d 8dbe cff3 bfbe 1925 edbe
000003f0: d8b2 05bf 3fdd fbbe 8f63 0dbf 6c86 ebbe
