model/gru_physics_epoch_30.pth (torch, 687480 bytes, 18 tensors)

gru.weight_ih_l0 f4 [384, 10]
000000 c0 ee 1e bd 71 10 f1 3c 39 d3 c5 3a 1d c8 9d 3d
       -0.03880191 0.029426785 0.0015092856 0.07704184
000010 a3 b3 44 3d b7 b7 0e 3c 4b 47 91 3d 4f 1d c1 3c
       0.048022877 0.008710793 0.07093676 0.023573546
000020 a9 c4 41 bd 4c a7 18 3d 8b 14 a9 3c 98 07 de bc
       -0.04730669 0.03726892 0.020639678 -0.02710323
000030 ff 4f 5f bd 17 64 66 bc c3 2a 03 bc 53 d6 46 bd
       -0.05451965 -0.014061949 -0.008005801 -0.04854424
000040 1a d8 67 bd f9 d6 23 3c 2d 6b d1 3d e6 40 02 bb
       -0.056602575 0.009999984 0.1022552 -0.0019875108
000050 2a fc 49 bd af fd c4 3d 05 01 e7 bc 87 d0 a3 ba
       -0.049312748 0.09618699 -0.028198728 -0.0012498059
000060 9e b1 89 bd 00 89 59 3d c5 66 99 3d 5b 03 ca 3c
       -0.06723331 0.05310917 0.07490305 0.024659803
000070 f5 2e ba bc 50 5c 6a 3d e9 0b b7 bd 38 11 a5 bd
       -0.022727469 0.057216942 -0.089378186 -0.08059925
000080 67 87 82 bd 2d bb 81 3d e8 2c 47 bc bb 33 c8 bd
       -0.06373482 0.06334529 -0.012156703 -0.09775492
000090 c4 85 40 bc 35 b2 97 bd 6c 26 88 3d b7 d1 b4 3d
       -0.011750642 -0.07407037 0.066479534 0.088290624
0000a0 76 f1 7f 3d 4c 29 84 bd 38 50 a2 3d 0b 3e 87 bc
       0.062486134 -0.06453189 0.07925457 -0.016509077
0000b0 72 3c 4c bc 50 20 a5 bd 68 c7 be bd 9f 3e 83 3c
       -0.012465583 -0.08062804 -0.093153775 0.016021071
0000c0 00 9d 7c 3d 9d ae d8 3c 8f 14 87 3c bb 19 82 bd
       0.061673164 0.02645045 0.016489295 -0.06352564
0000d0 d7 fb 42 bc 2c 27 4e 3c d8 dd 34 bd c7 7a f7 3d
       -0.011900864 0.0125825815 -0.04415688 0.12083965
0000e0 fd 0d bb 3c f2 0a c4 3d 20 1e dd bc 4a c1 6e bc
       0.022833819 0.095724 -0.026991904 -0.014572451
0000f0 f4 5b 06 3d d8 e4 2b bd ff 6b 01 3d 22 c7 f9 3c
       0.032802537 -0.04196629 0.031597134 0.030490462
000100 61 a0 68 bd 63 75 bb bd d5 a9 87 bd d6 fd 4f 3b
       -0.056793574 -0.09153249 -0.0662419 0.0031736991
000110 77 dc 1e 3d bb 86 d0 3d 62 78 e3 bd 87 28 71 bd
       0.03878447 0.10181948 -0.111069456 -0.05887654
000120 70 f1 30 bd 02 f8 ef 3b 76 e9 fb bc 62 fd 3c bd
       -0.043199003 0.007323266 -0.030750971 -0.046140082
000130 47 49 69 3c c0 34 e8 3c 3a a8 8c 3c 4a b0 45 3b
       0.014238662 0.028345466 0.01717006 0.003016489
000140 8c 2d 89 3d 2f 34 23 3d c8 21 48 bd 15 9b 94 bb
       0.066981405 0.039844688 -0.04886034 -0.004535089
000150 8d 9b 81 bc 92 eb 9c 3d fb ea a6 3d af 46 e4 bc
       -0.015821243 0.07662119 0.08150288 -0.027865736
000160 68 36 58 bd 0b 68 0f 3d 39 8f 3d bc 9e 72 ae bd
       -0.05278626 0.035011332 -0.0115697915 -0.08517955
000170 4a 3b 5c 3d c1 ce 65 bd 44 1b cb bb 8b 91 49 3d
       0.05376748 -0.05610538 -0.0061983187 0.049211066
000180 f1 3e ca bb 00 b3 6b 3c 0c ef 99 3d f9 c5 b5 bc
       -0.006172054 0.014385939 0.07516298 -0.022189127
000190 4d 69 02 be 83 89 cc bc 68 01 85 bd 9a ba b8 3b
       -0.12735482 -0.024967914 -0.06494409 0.005637479
0001a0 1f bd 86 bd f7 bd 9c ba 7c ac 9d 3d 68 96 52 bd
       -0.06579041 -0.0011958469 0.076989144 -0.05141297
0001b0 f6 0c 98 bc 7e 5b dc bb ef ae 0b 3d 6e 6a af bd
       -0.018560868 -0.006724774 0.034102377 -0.08565222
0001c0 49 ac 7b 3d cd 2b 9e 3c d2 6f 86 bd 4a 2c a4 3d
       0.0614436 0.019307995 -0.06564297 0.0801626
0001d0 17 f0 8b 3d 66 76 19 bd 6c e4 d0 bd ce 3e 82 3c
       0.06832903 -0.03746643 -0.10199818 0.015899088
0001e0 7b 0b 48 3d 64 70 ff 3d e2 bd 6f bc be cd 4c bd
       0.048839074 0.12472609 -0.014632674 -0.0500009
0001f0 86 02 d7 3b aa bf a2 3c 4a 0d c2 3d 0f 27 02 bc
       0.00656158 0.019866783 0.09475191 -0.007943883
000200 47 a5 ba bd 4e 92 af 3c 6d 88 31 3d 8e 86 46 3d
       -0.091135554 0.021432068 0.043342996 0.048468165
000210 73 ec 9e bd 11 b0 09 bd 5c b6 be bc df 80 f2 bd
       -0.07759943 -0.033615176 -0.023280315 -0.118409865
000220 18 8e 88 3c 9b fb a1 bc 35 82 0d 3d 5e eb f5 3d
       0.016669318 -0.019773295 0.034548003 0.12007783
000230 33 74 48 3d c2 82 0c bd 0a 34 39 3d 7d ad 10 bc
       0.04893894 -0.034304388 0.045215644 -0.008830425
000240 77 23 28 3d ca c8 c8 bc d3 1b af 3c 67 f7 10 3c
       0.041049447 -0.024509806 0.021375572 0.008848048
000250 11 c9 22 3d 22 02 a9 3d 39 7f 43 3d 5a 67 85 3d
       0.039742533 0.0825236 0.04772875 0.06513853
000260 26 ec a6 3c bd e6 1e bd ef ca 38 3d a0 18 99 bd
       0.020376276 -0.038794268 0.045115408 -0.074754
000270 70 97 a7 bc 32 07 d6 bc 2e 1b fe 3c a7 db b5 3b
       -0.020457953 -0.026126478 0.03101882 0.0055498662
000280 c9 13 5d 3d 03 57 50 bc 6f 85 9b 3d 1f da 27 3d
       0.053973947 -0.012716058 0.0759381 0.0409795
000290 9b b0 72 3d 88 85 71 3c 97 2c 57 bd 8a 90 8f bd
       0.059250455 0.014741309 -0.05253276 -0.070099905
0002a0 69 dc d3 bb f2 6e 85 bd c6 d3 32 3d 9a 4c 1a 3d
       -0.006465484 -0.06515302 0.043658994 0.03767071
0002b0 20 7f 1c bd 2e 42 7b bd 20 fb ce 3c 5c 93 2f bd
       -0.038207173 -0.06134241 0.02526623 -0.042865142
0002c0 21 25 91 3d 74 23 e1 3c 30 a5 04 3d 39 35 51 bd
       0.0708716 0.027482726 0.032384098 -0.051076148
0002d0 f9 12 74 3d 9d 65 b6 3d be b8 04 be 55 c9 20 3d
       0.059588406 0.089061 -0.12961099 0.039254505
0002e0 d2 7f 20 3d ce 32 3f 3d aa 7d 9f 3d 2a a2 51 3d
       0.0391844 0.04667931 0.077876404 0.051180042
0002f0 d3 a7 28 be d7 2d 10 bd 96 a9 1b 3e ff 72 b5 3c
       -0.1647027 -0.035199966 0.1520141 0.022149561
000300 ee 6f 7e 3d 42 62 72 3d f0 1b 79 3d dd e8 61 bd
       0.062118463 0.059175737 0.06081766 -0.055153716
000310 6e 8b 48 3d 27 6a b9 bb 95 8f 1e 3d f4 7e bc bb
       0.048961096 -0.0056584063 0.03871115 -0.0057524387
000320 e2 47 ab 3d 75 98 29 bc ab 43 91 bd d7 24 16 bd
       0.0836332 -0.01035129 -0.07092985 -0.036656227
000330 d6 a3 c6 3c 2f 36 94 bd 5e a1 82 bd 4d 71 ac bd
       0.024248045 -0.07236897 -0.063784346 -0.08420048
000340 b8 39 23 bc ab ec 87 3d de b1 8b 3c 53 eb db 3d
       -0.009962492 0.06636938 0.017052587 0.10738244
000350 c2 57 07 3d 82 94 8a bc 51 ea 8c 3d 5a 5c e0 bd
       0.033042677 -0.016916517 0.0688063 -0.10955115
000360 3d 72 66 bd ee 40 e7 bd 51 f5 79 3b 66 11 25 3d
       -0.05626129 -0.11291681 0.0038140605 0.040299796
000370 5b 61 f6 3c 7d 92 c0 bd 24 cd c2 bc 13 d1 c7 b9
       0.03007572 -0.094029404 -0.02377946 -0.0003811201
000380 ab 96 7a bd cc cd 87 bc 15 5f 5d 3c e1 ef be bd
       -0.061178844 -0.016577624 0.013511439 -0.09323097
000390 3a 9c b4 3d 2d 54 0f bc e2 54 83 bd fa 2b fe 3d
       0.0881886 -0.008748096 -0.064126745 0.124107316
0003a0 47 f8 ef bd a1 8e 51 3d c7 1e a3 3d 0b b1 9e bd
       -0.11717277 0.051161412 0.07964855 -0.07748612
0003b0 98 68 a9 3c 9e 7f 7d bb a6 44 fb 3c d3 c6 1c 3d
       0.020679757 -0.0038680802 0.030672383 0.03827555
0003c0 e8 15 64 3c 47 97 dc bc 70 eb 7f 3e d2 e2 80 bc
       0.0139212385 -0.026927603 0.24992156 -0.015733156
0003d0 f2 a6 34 bd ad 65 04 be 7a e0 d6 bd c3 9a 04 be
       -0.044104524 -0.12929411 -0.10492034 -0.12949662
0003e0 66 1d f3 3d ca 5e 77 3d e3 c9 5e bc c4 c1 68 3d
       0.11870842 0.060393132 -0.013597938 0.056825414
0003f0 bf c7 bc 3c 0a ef 21 3d a7 9e 94 bd e9 97 c0 3d
       0.023044465 0.039534606 -0.07256823 0.094039746

gru.weight_hh_l0 f4 [384, 128]
000000 d0 7b 42 3d 2c f4 01 3d 6f 7c c2 3c 48 80 0b bc
       0.047481358 0.031727 0.023740975 -0.008514471
000010 10 b0 d5 bb 18 cd 16 bc 0b 9e 27 bd 98 b1 69 bb
       -0.0065212324 -0.009204172 -0.040922206 -0.0035658833
000020 26 fc d9 bc 2b 15 0b bd f6 03 be 3b f2 5f b7 3b
       -0.026609492 -0.033955734 0.005798812 0.0055961544
000030 a1 84 d6 3c 5d 1d 93 3d 10 9a 9b 3d d9 10 85 3c
       0.02618629 0.07183335 0.075977445 0.016243385
000040 ca 60 13 bd be 1d 7a bd d8 ea 36 bd 04 cb a7 bc
       -0.035980977 -0.06106352 -0.04465756 -0.020482548
000050 a7 5b 91 bd b3 57 94 bd 52 3f 72 bc 7a a7 15 3d
       -0.070975594 -0.0724329 -0.014785605 0.03653667
000060 d4 0e 6a bd 84 ef 76 bc 49 07 40 3d 96 00 41 bd
       -0.057143047 -0.015071753 0.046881948 -0.0471197
000070 ab e5 3b bd b3 43 62 3d e3 af 53 bb d8 88 b4 bc
       -0.045873325 0.055240344 -0.0032300882 -0.022037908
000080 90 39 87 3d 01 12 21 bd 99 4a 5d 3d bb b2 54 3d
       0.06602776 -0.03932381 0.05402622 0.051928263
000090 db 6b 89 bc 89 b9 6c 3d 1f b6 79 3d e0 3c e5 bc
       -0.016775062 0.057794128 0.0609647 -0.027983129
0000a0 12 bc 6a 3d 09 be 3e 3d 6f 3b c3 3c 23 ee 82 bc
       0.057308264 0.04656795 0.023832051 -0.015982693
0000b0 8f 23 94 bd c6 61 62 bd 01 16 29 bd 46 30 9b bc
       -0.07233345 -0.055269025 -0.04128075 -0.018943917
0000c0 c1 40 da bb 8d 9f d0 3c 5d aa 41 3c d7 c7 b6 bb
       -0.0066605513 0.025466705 0.011820403 -0.005578022
0000d0 2e c7 6b 3d c8 58 3b 3d 98 36 61 3d da b8 8f bb
       0.057563 0.045738965 0.054983705 -0.0043860497
0000e0 57 e5 70 bd f7 74 61 3d 6a 3d 19 bd 08 15 0a bd
       -0.058812466 0.055043187 -0.037412085 -0.033711463
0000f0 49 48 26 3d 07 bf 6a bd 9f ed 05 3b f1 e7 03 bd
       0.04059628 -0.057311084 0.0020435823 -0.03220362
000100 96 f6 46 bd 2a 7c 0f bd 9c 37 a5 37 15 5d 49 bc
       -0.048575006 -0.03503052 1.9695428e-05 -0.012290259
000110 54 a6 bb 3c 06 45 4c 3d 0d 27 09 3c 7d 49 b8 bc
       0.02290646 0.049870513 0.008371127 -0.02249598
000120 89 7d 5d 3a 21 38 09 bd 94 2b a6 3c 86 a8 30 3d
       0.0008449187 -0.033500794 0.020284452 0.043129466
000130 dc 44 8f 3d 41 77 6e 3d 4e f5 85 3d 0d 3a cb 3c
       0.06995556 0.0582192 0.06540929 0.024807954
000140 4c 37 e0 3c 6f 4e 2e bd 89 92 45 ba 23 4a 15 bb
       0.027370118 -0.04255527 -0.0007536789 -0.0022779785
000150 eb 96 9f bd 03 7c 81 bc e7 98 c9 bb f0 d6 3c bd
       -0.07792457 -0.015806204 -0.0061522606 -0.046103418
000160 87 a5 58 3d 92 e3 56 bc 83 70 0a bd 80 a6 50 3d
       0.052892234 -0.01311578 -0.033798706 0.050940037
000170 83 94 a9 bc 98 04 41 bd 5a 38 4b bd a6 79 d5 bb
       -0.020700699 -0.04712352 -0.049614288 -0.0065147458
000180 39 1c 52 3d e4 c8 82 3c 08 70 13 bd 95 54 d0 3c
       0.051296446 0.015964933 -0.035995513 0.025430957
000190 18 61 af b9 fa 84 8e 3d 9c aa ac 3c 9c d3 6d 3c
       -0.00033450942 0.06958957 0.021077447 0.014515784
0001a0 17 a9 4e bd af d2 94 bd 4b 20 23 3d 49 3d f6 bc
       -0.050454225 -0.07266747 0.03982572 -0.03005852
0001b0 02 08 40 bc 21 44 68 bd d3 af 2c 3d a5 dc 63 3d
       -0.011720659 -0.056705598 0.042159867 0.055630345
0001c0 2d 7b 56 3c 5a ea f8 ba 17 18 15 3d 7d 42 da bc
       0.013090891 -0.0018990741 0.036399927 -0.026643032
0001d0 d9 33 b2 bc d0 6c 9e 3d 64 1a 95 3c aa 46 07 3d
       -0.021753239 0.07735598 0.01820106 0.033026375
0001e0 f6 e8 fc 3c 95 a2 86 bd 8d a2 ac 3c 1e ba 6b bb
       0.030872803 -0.06573979 0.021073604 -0.0035969089
0001f0 27 5f 49 3c c5 05 eb bc a4 6d 41 3d 1a c1 18 3d
       0.0122907525 -0.028689275 0.047223702 0.03729353
000200 7b db 9e 3c 8b 09 88 3d 76 dc 00 bd 2d e3 c5 bc
       0.019391766 0.06642445 -0.031460248 -0.024156177
000210 a5 dd 68 bd cd 73 e2 bd 4c 2e e6 bd f3 82 e2 3a
       -0.056852 -0.110572435 -0.11239299 0.0017281458
000220 c5 68 18 bd 77 46 85 bc c4 ae ec 3c fd 3f 2f bd
       -0.03720929 -0.016268952 0.028891928 -0.042785633
000230 7a dc 30 3b 8b 23 6c 3d e1 7d 2a 3d 89 79 b9 3c
       0.0026986883 0.057651084 0.041623954 0.02264096
000240 7b f4 0a 3d 80 31 4c 3d f2 3f fc bc 8b 14 ff bc
       0.03392456 0.049851894 -0.03079221 -0.031137725
000250 13 2e 9b bc cf 73 71 3d 3e 3d 8f bc e2 9f 0b bc
       -0.018942868 0.058948334 -0.017485257 -0.008522006
000260 fb 36 66 bc bc 7b 41 bd 94 e7 95 3d 05 39 67 bd
       -0.014051194 -0.047237143 0.07319561 -0.056450862
000270 56 9a 3d 3d 69 e1 54 3c aa 07 b0 bc fb 84 1e bd
       0.046289764 0.012993195 -0.02148803 -0.03870104
000280 4c c5 9b bd f6 05 08 bc 36 85 6e 3d d2 c3 c2 3c
       -0.07605991 -0.008302202 0.05823251 0.023775015
000290 28 65 ac bc f3 92 9f bd ae 00 3a bd 0d 8f 9f ba
       -0.021044329 -0.077917 -0.045410804 -0.001217337
0002a0 62 60 32 bc 3b 50 c9 3c fd 44 01 3d f2 98 ad 3d
       -0.010887237 0.02457439 0.031559933 0.08476438
0002b0 ab c0 8e bb 50 52 7c 3c 84 35 9c bd 79 c2 c1 bc
       -0.004356464 0.015400484 -0.07627395 -0.023652302
0002c0 e0 cb 88 3c 4b 32 33 3d fe 0f 7b bc 0d 2a f1 3b
       0.016698778 0.043749135 -0.015323637 0.007359749
0002d0 c4 15 3c bd 5a 2d d7 3c 53 0e e1 bd 68 1a 21 3d
       -0.045919195 0.026266742 -0.1098906 0.039331824
0002e0 59 4e 73 3c 03 3c da bb 3c 12 6c bd cb cb ca bc
       0.0148502225 -0.006659986 -0.057634577 -0.02475538
0002f0 c7 90 50 3d f4 04 4a 39 d6 25 ac bd c2 3a b2 bd
       0.05091932 0.00019266066 -0.08405654 -0.087026134
000300 42 db 03 3d 1d cd 16 bd cb ff 5c bd 38 bc 90 bd
       0.032191522 -0.036816705 -0.05395488 -0.0706715
000310 a5 ba b6 bd 9d 79 d9 bd c2 55 c3 3d 48 73 9e 3d
       -0.08922318 -0.10618899 0.095378414 0.07736832
000320 25 1a b2 bb 1b 2e 85 bc 37 2c f2 bd 92 f8 2f bd
       -0.0054352456 -0.016257336 -0.118248396 -0.042961664
000330 77 35 6d 3c 2b 09 60 bd b0 82 86 bc 62 91 93 3d
       0.014478079 -0.054696243 -0.016419739 0.07205464
000340 25 57 2f bc 0a 4f 78 3c 64 dc 92 3d ae c3 31 3d
       -0.010701929 0.015155563 0.071709424 0.043399505
000350 ad 6c 9d 3c 84 dd e0 bb 85 b8 b1 3c c4 6e 0e bd
       0.01921686 -0.006862344 0.021694431 -0.034773603
000360 3f e3 9b bc 0f b1 33 3d 61 d9 c1 bd 2b be b6 bb
       -0.019029258 0.043870028 -0.0946529 -0.005576869
000370 06 98 d5 3b ea 15 8f bd 10 ff 17 3c 74 0b 8f bd
       0.0065183667 -0.06986602 0.00927712 -0.069846064
000380 cc 1a 0d 3d 23 c7 ad 3b 8d 92 cf bd e7 dc 42 3b
       0.034449384 0.00530328 -0.10135374 0.002973372
000390 76 1a 31 bd ff 50 91 3d 2e ee ce 3c 8c 2a db bc
       -0.043238126 0.07095527 0.025260057 -0.026753686
0003a0 36 e8 2e 3d b7 cf 74 3d 33 4b 33 bd 51 bf 8d bb
       0.042701922 0.059768405 -0.043772887 -0.004325785
0003b0 19 44 ef 3c 2e cb 40 bc 10 61 60 bb 81 eb 4d 3d
       0.029207276 -0.011767192 -0.0034237541 0.050273422
0003c0 62 ec fc 39 d0 1d 89 3d b6 a3 ff 3c bd 8c f8 3b
       0.00048241304 0.066951394 0.031205993 0.0075851367
0003d0 9e 4b 6e bd 07 31 11 3d 29 89 01 be d8 37 03 3d
       -0.058177583 0.035447147 -0.12649979 0.03203568
0003e0 df 96 f1 3b 5f 42 87 3c 4a 2b 6a bd 5c e3 87 3d
       0.0073727216 0.01651114 -0.05717019 0.06635162
0003f0 44 c8 68 3b 4a 59 d2 bb 83 a2 80 3c d2 0b fd bd
       0.0035519758 -0.0064193355 0.015702492 -0.1235577

gru.bias_ih_l0 f4 [384]
000000 8f c3 46 bb 0e d1 ab 3c d9 45 65 bb ad 22 d3 3c
       -0.0030328964 0.020973708 -0.003498426 0.02577337
000010 d4 36 96 3c cb 84 26 bd df 50 7e bb f1 c6 07 3b
       0.018336691 -0.040653985 -0.0038805527 0.0020717944
000020 a7 20 1c bd 2f 63 c8 bb 5b 93 8c bc 82 c2 cd bc
       -0.038117077 -0.006115339 -0.017160108 -0.025117163
000030 80 c0 d9 bc b7 27 3b 3d 19 de 26 3c ef 5d 64 b9
       -0.026581049 0.045692172 0.010184788 -0.00021778767
000040 7d 93 f8 3b b5 3f 97 bb 97 2d 98 bd 28 cd 10 b9
       0.0075859413 -0.0046157488 -0.074305706 -0.00013809337
000050 cf 86 0f 3d a1 2a 22 3b bb 45 cc 3b 39 34 e9 bb
       0.035040673 0.0024744647 0.0062338985 -0.007116821
000060 89 d5 77 3d f5 1c 86 bc 09 f3 73 3b 1e 66 86 3d
       0.060506377 -0.01637123 0.0037223718 0.06562446
000070 b4 e5 1a 3d a3 03 48 bc af 2d 43 3c b2 83 c1 bc
       0.03781672 -0.012207898 0.011912747 -0.023622368
000080 cc 07 f2 3c 66 58 bf 3c af c7 4f bc db ea 7a 3d
       0.029544733 0.023357581 -0.012681886 0.061259132
000090 c5 44 6b 3c 7d dc 02 3c 46 37 a6 bc 18 0a 67 bd
       0.014359658 0.007987139 -0.020290028 -0.05640611
0000a0 ba 9a 65 b7 15 a6 9c 3c d6 73 30 3d b6 7b a8 3c
       -1.3685489e-05 0.019122163 0.04307922 0.020566802
0000b0 08 4c 51 3d c5 0d 28 3d 97 5f 55 bd 5f c2 b5 bc
       0.0510979 0.041028757 -0.052093115 -0.02218741
0000c0 dc 88 c9 3c c2 66 0c ba b2 48 87 3c 58 d7 14 3b
       0.024601392 -0.0005355888 0.016514156 0.0022711363
0000d0 db 4d 03 bc ee 44 24 3d 34 da ac bc 19 bb bc bd
       -0.008014168 0.0401048 -0.021100141 -0.092153735
0000e0 cc 5a 9e bb 28 ac 98 bc 26 fa bf 3c 38 36 84 3c
       -0.004832601 -0.018636778 0.02343471 0.016139135
0000f0 fc 84 08 3d 9a 82 4e 3c 5a 8b cb 3c 6e 61 1f 3d
       0.03332995 0.01260438 0.024846721 0.038911276
000100 2f 90 3a 3c d3 1c c4 ba 4d 22 e9 3b c9 f9 04 3d
       0.011386915 -0.0014962204 0.0071146847 0.032464776
000110 5b 56 13 3d 86 f7 35 bd 99 3c 0d bd 43 17 38 bc
       0.035971027 -0.04442551 -0.03448162 -0.011236015
000120 2a 3a 42 3b f7 58 32 3c 9a 14 08 3c f0 85 4e bd
       0.002963672 0.010885469 0.008305693 -0.0504207
000130 b5 a6 0f bd a7 d7 2d bc e5 05 55 3a bb 51 f2 bc
       -0.035071094 -0.010610498 0.00081261835 -0.029579988
000140 00 02 01 bd 69 a5 6b 3b 1e 76 b0 3c 0e d5 f3 bc
       -0.031496048 0.0035956746 0.021540698 -0.029764678
000150 16 aa 55 bc 95 f0 c6 3b 05 b2 00 bc 78 e1 ca ba
       -0.01304104 0.00607116 -0.007854943 -0.0015478572
000160 ac c2 a7 3c 7f d0 5a 3d 5b 24 e4 3c 07 f8 af 3c
       0.020478569 0.053421494 0.027849367 0.021480573
000170 9a f5 15 bb 70 0d 66 bc f0 c9 5b bc e9 fb 9a ba
       -0.0022881986 -0.01404129 -0.013414845 -0.0011824343
000180 16 50 9d bc cf 21 68 3d e1 63 5d 3d 4a 8c 81 bc
       -0.019203227 0.056672867 0.05405033 -0.015813965
000190 f5 e5 54 b9 73 94 32 bc c5 4a 50 ba f7 31 95 3c
       -0.00020303561 -0.010899651 -0.0007945712 0.018212302
0001a0 f9 a5 1f 3d fe 48 c2 bb ef e8 37 bc d6 88 0e 3c
       0.038976643 -0.0059291115 -0.011224969 0.008699616
0001b0 ec 34 19 3d 09 bd 9b bc 23 32 24 bd 5f 15 fe 3b
       0.037403986 -0.019011037 -0.040086877 0.0077540125
0001c0 86 2b 39 3c a8 eb 84 3c 80 1d b4 3d 4e 17 b1 39
       0.011301881 0.01622565 0.08794689 0.00033777434
0001d0 c0 2f 28 bd d5 c7 2a 3d e8 b8 82 3d 12 24 29 bb
       -0.041061163 0.04169448 0.06382924 -0.0025808853
0001e0 57 6f 36 3d 67 7d 0e 3c f5 4c 2f 38 02 fa 00 bd
       0.044539776 0.00869689 4.1794923e-05 -0.031488426
0001f0 c4 22 0c 3d d7 21 39 3d b6 79 fc 3b 78 9e 83 3d
       0.034212843 0.045198288 0.0077049388 0.0642671
000200 5a ff ed 3c 1e 50 a3 bd 3a 90 8a 3e 6b 59 9e bc
       0.029052425 -0.079742655 0.2706316 -0.019329747
000210 d8 b3 75 3e 09 22 5e be af be d6 bd 7d 57 69 3e
       0.23994386 -0.21692671 -0.10485589 0.2278728
000220 7f e7 b5 3d 58 fa 24 3e 58 12 ee bd d1 1d 7e be
       0.08882045 0.16111124 -0.116245925 -0.24816062
000230 79 a5 18 be a2 59 82 3e e6 99 04 be e6 c3 8c 3e
       -0.14906873 0.2545901 -0.12949333 0.2749321
000240 0a 08 f3 3d f3 3a 8d 3d 2c 59 c1 bd 2c 81 00 be
       0.11866768 0.06896009 -0.09440836 -0.12549275
000250 3b b8 db 3d 2e 60 b0 bd 55 b5 d9 3d 79 58 22 3e
       0.107284985 -0.08612095 0.106302895 0.15854062
000260 0d 98 24 be 20 19 35 3e 82 8f 0c 3e 70 7a ee bd
       -0.16073628 0.17685366 0.13726619 -0.11644447
000270 8d b4 19 be 88 2f 92 be fa 1b 4f be e8 12 f0 3d
       -0.15010281 -0.28551888 -0.20225516 0.11722356
000280 46 c7 36 3d 86 8b 10 be a6 30 17 3c 49 d4 bc bd
       0.044623636 -0.14115724 0.009227907 -0.09220178
000290 6b 05 3f 3e 82 74 4c 3e dd 5c b9 bd 7b 24 ee bd
       0.1865441 0.19966319 -0.090509154 -0.11628052
0002a0 d6 1a 89 3e f9 04 b9 bd f7 c6 f6 3d 5e 32 80 be
       0.26778287 -0.090341516 0.12049668 -0.25038427
0002b0 c7 9e 95 be f3 18 b1 3d 50 f3 26 be 82 79 85 bd
       -0.292227 0.08647337 -0.16303754 -0.065173164
0002c0 29 f8 f0 bd 8f 5c 9e 3e 3c 2c af bd 63 06 85 3e
       -0.11766083 0.30929992 -0.08553359 0.25981435
0002d0 13 cc 87 be 3b 4c 6c be 04 62 37 be d7 21 eb bd
       -0.26522884 -0.23075955 -0.17908484 -0.11481064
0002e0 94 d0 74 3d 4e d8 27 3d aa 1e dc bd ac a8 1a be
       0.059769228 0.04097777 -0.10748036 -0.15103406
0002f0 87 23 10 be 6a 27 40 3e 9c af 36 be 5d 88 54 be
       -0.14076053 0.18765035 -0.17840427 -0.20755143
000300 f1 cf cf 3d e4 e2 62 bc be 75 34 3d 63 98 51 bd
       0.101470836 -0.01384804 0.0440576 -0.051170718
000310 7d c0 67 be 28 22 1e be 04 f8 38 be 2b 75 65 3e
       -0.22632022 -0.15442717 -0.1806336 0.22407977
000320 a2 5b 88 3e 26 5e 80 3e cb f1 76 be c4 c0 4c be
       0.2663241 0.2507183 -0.24115674 -0.19995409
000330 95 69 2a be 06 4f 56 3e 05 7e 8d 3e 66 3e 1e 3e
       -0.16641839 0.20928583 0.27635208 0.1545349
000340 25 68 76 be 06 bf 94 3e 49 f5 05 be 00 23 83 be
       -0.24063165 0.2905199 -0.1308185 -0.2561264
000350 7b 5d 97 3d 25 5e 82 3c 9b fd fb 3d 1d de 59 3e
       0.07390877 0.015914032 0.12304231 0.21276136
000360 28 4e 87 be d5 1f 3a be 88 32 e5 3d 64 49 de bd
       -0.26426816 -0.18176205 0.11191279 -0.10853842
000370 4a 43 a6 3d 0f 4c 42 be cc 4c 41 be 2f d9 3d 3e
       0.08118303 -0.18974327 -0.18876952 0.1853988
000380 82 03 53 be 84 86 4e be 69 f8 6d 3c a9 e0 4c 3c
       -0.20606807 -0.20168501 0.014524558 0.012504735
000390 86 75 47 3e 0f 98 d5 3d 02 61 c4 3d f0 61 7f be
       0.19478425 0.104293935 0.09588815 -0.24939704
0003a0 6a 85 57 be fd 1b fc 3d ca 78 98 3e de ce 04 3e
       -0.21046987 0.12310026 0.29779655 0.12969539
0003b0 61 c4 49 be 98 45 6e be ae 7f a6 bd b5 30 ee bd
       -0.19703819 -0.23268735 -0.08129822 -0.11630384
0003c0 0c 63 30 bb e8 85 87 be 75 2a f3 bc a5 d1 f8 3d
       -0.0026914505 -0.2646935 -0.029683331 0.121493615
0003d0 d9 8d 89 be 86 8a 41 3e 16 74 bf bd 72 78 62 3e
       -0.26866034 0.18900499 -0.093483135 0.22116259
0003e0 27 a4 c5 bd 67 dc ab bd 92 fc ab bd 30 04 98 3e
       -0.0965045 -0.08391648 -0.08397783 0.29690695
0003f0 30 27 4b 3e ba 92 49 3e bb 79 84 bd 99 37 d3 3d
       0.19839168 0.19684878 -0.06468531 0.10313339

gru.bias_hh_l0 f4 [384]
000000 8f c3 46 bb 0e d1 ab 3c d9 45 65 bb ad 22 d3 3c
       -0.0030328964 0.020973708 -0.003498426 0.02577337
000010 d4 36 96 3c cb 84 26 bd df 50 7e bb f1 c6 07 3b
       0.018336691 -0.040653985 -0.0038805527 0.0020717944
000020 a7 20 1c bd 2f 63 c8 bb 5b 93 8c bc 82 c2 cd bc
       -0.038117077 -0.006115339 -0.017160108 -0.025117163
000030 80 c0 d9 bc b7 27 3b 3d 19 de 26 3c ef 5d 64 b9
       -0.026581049 0.045692172 0.010184788 -0.00021778767
000040 7d 93 f8 3b b5 3f 97 bb 97 2d 98 bd 28 cd 10 b9
       0.0075859413 -0.0046157488 -0.074305706 -0.00013809337
000050 cf 86 0f 3d a1 2a 22 3b bb 45 cc 3b 39 34 e9 bb
       0.035040673 0.0024744647 0.0062338985 -0.007116821
000060 89 d5 77 3d f5 1c 86 bc 09 f3 73 3b 1e 66 86 3d
       0.060506377 -0.01637123 0.0037223718 0.06562446
000070 b4 e5 1a 3d a3 03 48 bc af 2d 43 3c b2 83 c1 bc
       0.03781672 -0.012207898 0.011912747 -0.023622368
000080 cc 07 f2 3c 66 58 bf 3c af c7 4f bc db ea 7a 3d
       0.029544733 0.023357581 -0.012681886 0.061259132
000090 c5 44 6b 3c 7d dc 02 3c 46 37 a6 bc 18 0a 67 bd
       0.014359658 0.007987139 -0.020290028 -0.05640611
0000a0 ba 9a 65 b7 15 a6 9c 3c d6 73 30 3d b6 7b a8 3c
       -1.3685489e-05 0.019122163 0.04307922 0.020566802
0000b0 08 4c 51 3d c5 0d 28 3d 97 5f 55 bd 5f c2 b5 bc
       0.0510979 0.041028757 -0.052093115 -0.02218741
0000c0 dc 88 c9 3c c2 66 0c ba b2 48 87 3c 58 d7 14 3b
       0.024601392 -0.0005355888 0.016514156 0.0022711363
0000d0 db 4d 03 bc ee 44 24 3d 34 da ac bc 19 bb bc bd
       -0.008014168 0.0401048 -0.021100141 -0.092153735
0000e0 cc 5a 9e bb 28 ac 98 bc 26 fa bf 3c 38 36 84 3c
       -0.004832601 -0.018636778 0.02343471 0.016139135
0000f0 fc 84 08 3d 9a 82 4e 3c 5a 8b cb 3c 6e 61 1f 3d
       0.03332995 0.01260438 0.024846721 0.038911276
000100 2f 90 3a 3c d3 1c c4 ba 4d 22 e9 3b c9 f9 04 3d
       0.011386915 -0.0014962204 0.0071146847 0.032464776
000110 5b 56 13 3d 86 f7 35 bd 99 3c 0d bd 43 17 38 bc
       0.035971027 -0.04442551 -0.03448162 -0.011236015
000120 2a 3a 42 3b f7 58 32 3c 9a 14 08 3c f0 85 4e bd
       0.002963672 0.010885469 0.008305693 -0.0504207
000130 b5 a6 0f bd a7 d7 2d bc e5 05 55 3a bb 51 f2 bc
       -0.035071094 -0.010610498 0.00081261835 -0.029579988
000140 00 02 01 bd 69 a5 6b 3b 1e 76 b0 3c 0e d5 f3 bc
       -0.031496048 0.0035956746 0.021540698 -0.029764678
000150 16 aa 55 bc 95 f0 c6 3b 05 b2 00 bc 78 e1 ca ba
       -0.01304104 0.00607116 -0.007854943 -0.0015478572
000160 ac c2 a7 3c 7f d0 5a 3d 5b 24 e4 3c 07 f8 af 3c
       0.020478569 0.053421494 0.027849367 0.021480573
000170 9a f5 15 bb 70 0d 66 bc f0 c9 5b bc e9 fb 9a ba
       -0.0022881986 -0.01404129 -0.013414845 -0.0011824343
000180 16 50 9d bc cf 21 68 3d e1 63 5d 3d 4a 8c 81 bc
       -0.019203227 0.056672867 0.05405033 -0.015813965
000190 f5 e5 54 b9 73 94 32 bc c5 4a 50 ba f7 31 95 3c
       -0.00020303561 -0.010899651 -0.0007945712 0.018212302
0001a0 f9 a5 1f 3d fe 48 c2 bb ef e8 37 bc d6 88 0e 3c
       0.038976643 -0.0059291115 -0.011224969 0.008699616
0001b0 ec 34 19 3d 09 bd 9b bc 23 32 24 bd 5f 15 fe 3b
       0.037403986 -0.019011037 -0.040086877 0.0077540125
0001c0 86 2b 39 3c a8 eb 84 3c 80 1d b4 3d 4e 17 b1 39
       0.011301881 0.01622565 0.08794689 0.00033777434
0001d0 c0 2f 28 bd d5 c7 2a 3d e8 b8 82 3d 12 24 29 bb
       -0.041061163 0.04169448 0.06382924 -0.0025808853
0001e0 57 6f 36 3d 67 7d 0e 3c f5 4c 2f 38 02 fa 00 bd
       0.044539776 0.00869689 4.1794923e-05 -0.031488426
0001f0 c4 22 0c 3d d7 21 39 3d b6 79 fc 3b 78 9e 83 3d
       0.034212843 0.045198288 0.0077049388 0.0642671
000200 5a ff ed 3c 1e 50 a3 bd 3a 90 8a 3e 6b 59 9e bc
       0.029052425 -0.079742655 0.2706316 -0.019329747
000210 d8 b3 75 3e 09 22 5e be af be d6 bd 7d 57 69 3e
       0.23994386 -0.21692671 -0.10485589 0.2278728
000220 7f e7 b5 3d 58 fa 24 3e 58 12 ee bd d1 1d 7e be
       0.08882045 0.16111124 -0.116245925 -0.24816062
000230 79 a5 18 be a2 59 82 3e e6 99 04 be e6 c3 8c 3e
       -0.14906873 0.2545901 -0.12949333 0.2749321
000240 0a 08 f3 3d f3 3a 8d 3d 2c 59 c1 bd 2c 81 00 be
       0.11866768 0.06896009 -0.09440836 -0.12549275
000250 3b b8 db 3d 2e 60 b0 bd 55 b5 d9 3d 79 58 22 3e
       0.107284985 -0.08612095 0.106302895 0.15854062
000260 0d 98 24 be 20 19 35 3e 82 8f 0c 3e 70 7a ee bd
       -0.16073628 0.17685366 0.13726619 -0.11644447
000270 8d b4 19 be 88 2f 92 be fa 1b 4f be e8 12 f0 3d
       -0.15010281 -0.28551888 -0.20225516 0.11722356
000280 46 c7 36 3d 86 8b 10 be a6 30 17 3c 49 d4 bc bd
       0.044623636 -0.14115724 0.009227907 -0.09220178
000290 6b 05 3f 3e 82 74 4c 3e dd 5c b9 bd 7b 24 ee bd
       0.1865441 0.19966319 -0.090509154 -0.11628052
0002a0 d6 1a 89 3e f9 04 b9 bd f7 c6 f6 3d 5e 32 80 be
       0.26778287 -0.090341516 0.12049668 -0.25038427
0002b0 c7 9e 95 be f3 18 b1 3d 50 f3 26 be 82 79 85 bd
       -0.292227 0.08647337 -0.16303754 -0.065173164
0002c0 29 f8 f0 bd 8f 5c 9e 3e 3c 2c af bd 63 06 85 3e
       -0.11766083 0.30929992 -0.08553359 0.25981435
0002d0 13 cc 87 be 3b 4c 6c be 04 62 37 be d7 21 eb bd
       -0.26522884 -0.23075955 -0.17908484 -0.11481064
0002e0 94 d0 74 3d 4e d8 27 3d aa 1e dc bd ac a8 1a be
       0.059769228 0.04097777 -0.10748036 -0.15103406
0002f0 87 23 10 be 6a 27 40 3e 9c af 36 be 5d 88 54 be
       -0.14076053 0.18765035 -0.17840427 -0.20755143
000300 f1 cf cf 3d e4 e2 62 bc be 75 34 3d 63 98 51 bd
       0.101470836 -0.01384804 0.0440576 -0.051170718
000310 7d c0 67 be 28 22 1e be 04 f8 38 be 2b 75 65 3e
       -0.22632022 -0.15442717 -0.1806336 0.22407977
000320 a2 5b 88 3e 26 5e 80 3e cb f1 76 be c4 c0 4c be
       0.2663241 0.2507183 -0.24115674 -0.19995409
000330 95 69 2a be 06 4f 56 3e 05 7e 8d 3e 66 3e 1e 3e
       -0.16641839 0.20928583 0.27635208 0.1545349
000340 25 68 76 be 06 bf 94 3e 49 f5 05 be 00 23 83 be
       -0.24063165 0.2905199 -0.1308185 -0.2561264
000350 7b 5d 97 3d 25 5e 82 3c 9b fd fb 3d 1d de 59 3e
       0.07390877 0.015914032 0.12304231 0.21276136
000360 28 4e 87 be d5 1f 3a be 88 32 e5 3d 64 49 de bd
       -0.26426816 -0.18176205 0.11191279 -0.10853842
000370 4a 43 a6 3d 0f 4c 42 be cc 4c 41 be 2f d9 3d 3e
       0.08118303 -0.18974327 -0.18876952 0.1853988
000380 82 03 53 be 84 86 4e be 69 f8 6d 3c a9 e0 4c 3c
       -0.20606807 -0.20168501 0.014524558 0.012504735
000390 86 75 47 3e 0f 98 d5 3d 02 61 c4 3d f0 61 7f be
       0.19478425 0.104293935 0.09588815 -0.24939704
0003a0 6a 85 57 be fd 1b fc 3d ca 78 98 3e de ce 04 3e
       -0.21046987 0.12310026 0.29779655 0.12969539
0003b0 61 c4 49 be 98 45 6e be ae 7f a6 bd b5 30 ee bd
       -0.19703819 -0.23268735 -0.08129822 -0.11630384
0003c0 0c 63 30 bb e8 85 87 be 75 2a f3 bc a5 d1 f8 3d
       -0.0026914505 -0.2646935 -0.029683331 0.121493615
0003d0 d9 8d 89 be 86 8a 41 3e 16 74 bf bd 72 78 62 3e
       -0.26866034 0.18900499 -0.093483135 0.22116259
0003e0 27 a4 c5 bd 67 dc ab bd 92 fc ab bd 30 04 98 3e
       -0.0965045 -0.08391648 -0.08397783 0.29690695
0003f0 30 27 4b 3e ba 92 49 3e bb 79 84 bd 99 37 d3 3d
       0.19839168 0.19684878 -0.06468531 0.10313339

gru.weight_ih_l1 f4 [384, 128]
000000 ed aa d3 3c fd 76 55 3e 28 0e f6 be 46 99 21 3e
       0.02583834 0.20846172 -0.48057675 0.15781125
000010 75 f5 7d bf bc f0 4f bd 31 a7 28 3c cb 3e a0 3e
       -0.9920266 -0.05076669 0.010293768 0.31297907
000020 22 26 af bd 25 5d 5c bd a2 c8 aa bc 68 de 06 be
       -0.08552195 -0.053799767 -0.020847622 -0.13170779
000030 ae b4 b0 bc a9 28 3d 3f 3c d4 77 3c 12 80 fe be
       -0.02157053 0.7389017 0.015126284 -0.49707085
000040 10 07 9f be dd 7a 19 3f 90 24 b7 3c ee c8 14 be
       -0.31060076 0.599531 0.022356302 -0.14529774
000050 b8 1c ff bd 0d f7 31 3d c0 c9 09 bd 7b 8a c2 be
       -0.124566495 0.043448497 -0.03363967 -0.37996277
000060 d5 38 81 3c 32 7a c7 3e 43 59 0b 3e 6a 99 22 3d
       0.01577417 0.38960415 0.1360827 0.03969709
000070 25 c8 af 3d 5d f6 9b bd a5 f2 91 3e 93 0a 1a be
       0.085830964 -0.076153494 0.28505436 -0.15043096
000080 35 d9 8b be 64 fa a5 3e e9 93 a8 be 54 63 42 bd
       -0.27314153 0.32417595 -0.32925346 -0.047458008
000090 88 28 2b be 94 18 03 3f 90 28 9d 3d cd 0f 16 3e
       -0.1671468 0.5120938 0.07673752 0.14654465
0000a0 ba 63 9b be 7d b6 0a bd 0d 27 5f 3e c5 de 9e 3e
       -0.30349523 -0.03386544 0.2179224 0.31029335
0000b0 98 ca 14 bf f8 ec 1d bd 65 51 c1 be a4 9b 21 3d
       -0.58121634 -0.03855607 -0.37757412 0.03945507
0000c0 b5 7a 35 3e 09 1e 81 bf 4b 1f 58 3e 93 8a bf bc
       0.1772259 -1.0087291 0.21105687 -0.023381507
0000d0 3a 45 bb 3e 44 c7 53 be 15 8f 46 3c 3f 0c f0 3e
       0.36576253 -0.20681483 0.012119074 0.46884343
0000e0 00 ad a7 be e6 34 ce 3d ac 7b 13 bc 4d a8 ae bd
       -0.32749176 0.10068683 -0.009001654 -0.085281946
0000f0 93 ad dc 3e f7 f5 fa 3e 82 de a5 be 8f 2c 92 be
       0.43101177 0.4901578 -0.32396322 -0.2854962
000100 6c 5b 2a 3e d5 f5 fd 3c c8 5c 0f be 5a f0 cb bc
       0.16636437 0.03100101 -0.14000237 -0.024894882
000110 96 55 7c be ec 6b f9 bc c5 3d 1f 3e e9 01 bf be
       -0.24642023 -0.030446969 0.15550907 -0.37306145
000120 7e f0 d1 3e 97 99 d4 3e b3 21 81 be d3 1a 9e 3e
       0.41003793 0.4152343 -0.25221023 0.3087984
000130 bd 6f 21 bd c8 ab a5 3c 03 fc ac be 01 ce 14 3e
       -0.039413203 0.020223513 -0.3378602 0.14531709
000140 a9 41 85 be 74 96 91 be 41 b6 0a bd 95 db f6 3e
       -0.26026657 -0.284351 -0.033865217 0.48214403
000150 5e e6 ec bd 97 65 94 3e 40 03 6b be 72 0d b3 3d
       -0.115673766 0.28983757 -0.22950459 0.08742799
000160 ae 60 a6 3d 03 bb 03 3f da bf b0 bc 82 d7 88 be
       0.08123909 0.5145723 -0.021575857 -0.2672692
000170 12 d4 ec 3d 76 f0 86 be 78 69 80 3e 56 02 88 be
       0.11563887 -0.26355332 0.25080466 -0.26564282
000180 3e b5 2d 3e e1 73 83 be c3 bb ab be cf 4e 3b be
       0.1696367 -0.25674346 -0.33541688 -0.18291782
000190 59 ac 8b be fd 48 fd 3e 88 76 ab be a1 98 06 be
       -0.27279928 0.49469748 -0.3348887 -0.13144161
0001a0 13 fc 51 3e 2f b0 8e be 27 68 95 be e4 e6 2d 3f
       0.20506315 -0.27868792 -0.29181024 0.67930436
0001b0 d4 5a ad 3d 45 40 9e 3e 05 dc ca bd cb fe 3b 3d
       0.0846459 0.3090841 -0.09905247 0.045897286
0001c0 7e 11 ed 3d 6d 39 37 3e 0f eb 09 3d b0 12 a7 3d
       0.11575602 0.17893 0.033671435 0.08157861
0001d0 db ea 81 be e0 0a d9 bb d1 2d 58 be d8 fd 93 be
       -0.25374493 -0.006623611 -0.21111228 -0.28904605
0001e0 21 52 56 3d 86 a1 56 3e 55 5e 47 3d e8 e6 d0 be
       0.052324418 0.20960054 0.048673946 -0.40801167
0001f0 d3 43 5b be 41 f9 5f 3e 1b 0a 32 3e 60 1d 37 be
       -0.21412592 0.21872427 0.17386667 -0.178823
000200 3c 2b 10 3e 59 1b 30 3e a2 38 64 be a9 ba 1c bc
       0.14078993 0.17197932 -0.22287229 -0.009565988
000210 74 fb 45 be 91 92 66 3e a5 e9 f7 3c cb 6c 43 3c
       -0.19334203 0.22516848 0.030262778 0.011927794
000220 b6 20 5b 3e fe 7a 05 3e fe 82 5a bd e6 7f af bd
       0.21399197 0.13035199 -0.05334758 -0.085693166
000230 c3 7d 97 be 87 e3 49 3e 9c 35 9a 3e bc fa 10 bf
       -0.29588136 0.19715701 0.30119026 -0.5663259
000240 05 cc 8f bd 40 cb c4 3d 36 ba 03 3f e9 0f 2a be
       -0.070213355 0.09609079 0.5145601 -0.16607632
000250 22 c7 82 be 8f 44 69 be b1 14 7f be 79 b1 f9 3e
       -0.2554255 -0.2278006 -0.24910237 0.48768213
000260 25 41 08 3c 66 fa d4 3c 8f 68 2b bd df 20 cf 3e
       0.008316313 0.025998306 -0.04184776 0.40454766
000270 a8 76 c8 bd 9e fb 40 3e 58 01 a1 3d fd 38 01 3e
       -0.09788257 0.18845984 0.078615844 0.12619396
000280 21 dd bb bd 15 2c bd 3c 2a cf 44 bc d6 9b 8b 3e
       -0.09173036 0.023092309 -0.012012282 0.2726733
000290 d1 e7 f4 be e8 d3 db 3d b0 44 44 3e 64 3d 91 be
       -0.47833112 0.10733777 0.19166827 -0.2836715
0002a0 c7 66 06 bf ed a7 a3 3d 3c 40 df 3d 65 b5 1d bf
       -0.52500576 0.07991014 0.109009236 -0.6160491
0002b0 f6 62 c8 3d 93 b0 80 be 7e a4 92 3c a3 41 1a 3f
       0.097845 -0.25134715 0.017900702 0.60256404
0002c0 ba 65 b9 3e bc 72 d1 be 0a 44 99 3e 58 20 73 3f
       0.36210424 -0.40907848 0.29934722 0.9497123
0002d0 22 b2 d8 3b a4 20 04 be bc 5f 1e 3f 20 72 7f bd
       0.006613032 -0.12903076 0.6186483 -0.062364697
0002e0 f5 58 64 bd 30 77 12 3d 1f 6c 91 3e dc fb f3 bd
       -0.0557489 0.035758197 0.28402802 -0.11913273
0002f0 0a e3 8f be 2f fb c8 3e 75 3a 0f 3d 52 71 6f 3c
       -0.28102905 0.39254138 0.03496786 0.01461442
000300 8f 61 8c 3e 82 dd af be fd 10 9f 3e ef 82 1d 3e
       0.2741818 -0.34348685 0.3106765 0.15381978
000310 65 0d 2c bd d1 2f 7d 3e d8 67 0b 3e e8 a4 76 bf
       -0.04200496 0.24725272 0.13613832 -0.96345377
000320 a2 20 21 3e 27 20 51 3f 1d 24 6c 3f fe 42 33 be
       0.15735105 0.81689686 0.92242604 -0.17506024
000330 46 49 9a 3d 68 ce a9 3e 73 ab 0d be 1a e7 1e 3e
       0.07533507 0.33165288 -0.13834934 0.15517846
000340 84 66 00 3e 8f 64 2c bf 48 30 5a bc 57 62 27 bf
       0.12539107 -0.6734094 -0.013317175 -0.6538443
000350 a0 8c dc be aa 40 c2 be 95 4e 1e be 18 03 e9 be
       -0.43076038 -0.3793996 -0.15459664 -0.45510173
000360 85 70 2b be 6d 04 9c b9 41 24 93 3c 64 0a 48 3f
       -0.16742142 -0.00029757936 0.017961623 0.78140855
000370 4b 22 30 3f 2d f7 bf 3e 90 7d 40 bd 40 75 3e bd
       0.68802327 0.37493268 -0.046994746 -0.046498537
000380 8f 0b 13 bf 04 58 da 3e f7 14 97 bd 94 8d 19 bd
       -0.5743951 0.42645276 -0.073770456 -0.037488535
000390 e1 92 32 3d ee c4 c9 bd 72 ab 8d 3e 7e 0a 0b 3f
       0.043597106 -0.098520145 0.27669865 0.54312885
0003a0 b3 ce 99 be 71 5d 94 3c 78 47 2e bf 3d 56 1e 3d
       -0.3004051 0.018110963 -0.680778 0.038656462
0003b0 fd 40 b4 be 69 03 9f bd 24 43 d2 3e ca cd bf 3e
       -0.35205832 -0.07764322 0.4106685 0.37461692
0003c0 e0 cb 9d be b1 95 bc bd a5 9a 4a 3e 47 5c 41 bf
       -0.30819607 -0.09208239 0.19785555 -0.7553143
0003d0 d8 67 79 3e f5 d9 3e 3e 0b 05 5a 3e d2 4b fd 3c
       0.2435602 0.18637832 0.21290986 0.030919943
0003e0 8e 17 d3 3e 3b b2 97 b9 82 3e 7a 3e e1 81 81 be
       0.41228908 -0.00028933756 0.24437907 -0.25294402
0003f0 86 86 0b bf 1c aa 0b 3e 71 15 2d 3e 11 72 14 3e
       -0.5450214 0.1363911 0.1690271 0.14496638

gru.weight_hh_l1 f4 [384, 128]
000000 13 65 b8 3d c6 7c d3 bd 4d 63 f8 bc 16 a5 1b 3e
       0.090036534 -0.10326533 -0.030320788 0.15199694
000010 b0 a9 20 3b a3 a6 34 3d 41 ab c5 3d c1 1d 57 3d
       0.0024515204 0.04410423 0.09651805 0.05251861
000020 a8 6a 31 be ef bf 16 be d3 5a 0f 3e 9f eb 31 3e
       -0.17325842 -0.14721654 0.1399949 0.17375039
000030 3c 30 f8 3d ae 8c 3c bd 9c 43 84 bd da c6 43 bd
       0.12118575 -0.0460326 -0.06458208 -0.04779706
000040 a6 c0 9b 3c a9 01 60 3e 9b f4 a0 bd 11 ff a4 bd
       0.01901276 0.21875633 -0.07859155 -0.080564626
000050 2b b7 d7 3c 62 37 15 3d 25 d9 3b be c1 66 69 bd
       0.026332458 0.03642977 -0.18344553 -0.05698276
000060 db f8 41 bd fa aa 6b 3c ee fd 22 3e 93 e3 ca 3d
       -0.047356468 0.014384026 0.15917179 0.099066876
000070 b1 c2 8a 3e db 5c 2a be f7 d6 8e 3d cc bd 00 3e
       0.27101663 -0.16636984 0.06974595 0.12572402
000080 85 11 fe bd 55 4b 1e 3e a4 ae 45 be 65 b8 ca 3c
       -0.12405685 0.15458424 -0.19304901 0.02474613
000090 1d f0 1f 3d 20 57 5c bb 3e dc bf 3d 8e 19 39 be
       0.03904735 -0.0033621266 0.0936818 -0.18076155
0000a0 75 64 f3 bb 3e d3 ef bd 56 82 ce 3d 39 69 9b bd
       -0.007427747 -0.11710213 0.10083453 -0.07588429
0000b0 a1 70 06 3b f6 b5 13 bd da ea f5 3d 60 c0 a7 bd
       0.002051391 -0.036062203 0.12007685 -0.081909895
0000c0 e6 0f 23 be a6 8a 1a bd 3a b2 ed 3d 87 2b 3e 3e
       -0.15924034 -0.03772988 0.1160626 0.18571292
0000d0 d9 d9 05 be 73 07 49 be a5 82 aa bb d6 1c f5 3d
       -0.13071384 -0.19631748 -0.0052035623 0.11968391
0000e0 d0 d3 be 3c d7 58 c8 bd b1 bf 47 3d 43 c4 d8 bc
       0.02329436 -0.0978257 0.048766796 -0.026460772
0000f0 9b 51 0b 3c c0 a0 46 bd 6b 82 d0 bd 08 f4 a3 3d
       0.008503343 -0.048493147 -0.10181125 0.0800553
000100 73 29 81 bd bc 73 25 3b db a2 55 be 6c 84 2d bd
       -0.06306734 0.0025245985 -0.20862906 -0.042362615
000110 be 7b cf 3c eb 9d 76 bd 24 9b a2 3b 20 84 07 be
       0.02532756 -0.060209196 0.004962342 -0.13233995
000120 48 ad de bc 95 87 b9 bd e1 5b 66 3d 33 7d 34 3e
       -0.027182236 -0.09059063 0.056239966 0.17625885
000130 3d d8 c0 3d 9f 54 40 bd 20 fa 62 bd 0d 52 07 3d
       0.09416244 -0.0469557 -0.05541432 0.033037234
000140 f3 10 52 bd 7d be cf bd c7 0e ff 3d dc 8c 9c be
       -0.051285695 -0.10143755 0.124539904 -0.30576217
000150 7c f1 0b be cc 6a d5 3c 86 c5 7e bd 1f d8 0a be
       -0.13666338 0.026051901 -0.06220009 -0.13559006
000160 c4 50 55 3e 5e 35 66 3d b2 b8 ed 3d 5e 13 8d bc
       0.20831591 0.05620324 0.116074935 -0.017221149
000170 10 54 88 bd aa cc 26 3e 17 be ff bd 86 d8 77 3e
       -0.06656659 0.1628901 -0.12487429 0.24203691
000180 da f4 da 3d 5f 17 3d 3e be cc 8a bd 2f cb 8c bd
       0.10691233 0.18465947 -0.06777333 -0.06874692
000190 bc b4 da 3d f4 86 18 3e eb 7d 71 3e 0e 7d f8 bd
       0.106790036 0.1489523 0.2358319 -0.12133227
0001a0 0f b5 32 3b 82 b3 17 3d c3 1c 48 3e cd 29 2a bd
       0.0027268564 0.037036426 0.19542222 -0.04154377
0001b0 e3 9c 1d be ec a4 58 3e 8c 34 df 3c 3e 37 12 3e
       -0.15391879 0.21156663 0.027246736 0.14278886
0001c0 36 82 eb bc ea dc 23 bd 55 cf a2 3c 75 b9 f5 3d
       -0.028748613 -0.040005602 0.019874254 0.11998264
0001d0 dc 5c 91 bd 3b b7 fd 3c 85 24 60 3d 2a 04 42 3c
       -0.0709779 0.03097116 0.054722328 0.011841813
0001e0 da 62 a8 bd 83 bb d5 3d a6 4e 1d bd 3d b0 d6 3d
       -0.082219794 0.10436156 -0.038405083 0.104828335
0001f0 32 4d 02 3e b7 09 ef 3d 10 45 4d bd 7b 85 e9 bd
       0.1272476 0.11671775 -0.05011469 -0.114024125
000200 dd bf 87 3c d0 b4 01 bf e5 2a 83 3e 0b 4a c9 3c
       0.01657098 -0.5066652 0.25618663 0.02457144
000210 c1 59 47 3d f3 66 d3 bd 31 70 05 be 40 aa 9f bd
       0.04866958 -0.103223704 -0.13031079 -0.077961445
000220 b7 25 e0 3c 63 d1 7c 3c fd a1 80 be d1 fc 3f 3c
       0.027361734 0.015430781 -0.25123587 0.011717991
000230 e9 2d 1c 3e 9e ea 2f bf c4 be ca bc dd 78 b8 bd
       0.15251888 -0.6871737 -0.024749167 -0.09007428
000240 9c ca 77 3d e8 6c 05 bd 3b 92 85 be 58 eb 7c be
       0.060495958 -0.032574564 -0.26088127 -0.24699152
000250 a2 72 c0 3e 0f 79 99 3b fb 14 bb bd f3 93 c8 bd
       0.37587458 0.0046836208 -0.09134861 -0.09793844
000260 96 bd 94 3c 8c a2 8d 3d d2 5e 1d bd 3f b8 47 3d
       0.018156808 0.06915769 -0.038420506 0.048759695
000270 63 ba b8 3c 72 d9 be 3c 9a 91 b6 bd 2f a6 b1 3c
       0.022549814 0.023297045 -0.0891449 0.021685688
000280 50 11 92 3e 91 95 b6 3e d5 8b 06 bc 01 9e be 3d
       0.28528833 0.35660985 -0.0082120495 0.093074806
000290 b1 24 43 be f5 6d f8 bb d4 7b 9d bc dd 42 87 bd
       -0.19056965 -0.0075814673 -0.019224085 -0.0660455
0002a0 ca a5 11 3d 66 92 a8 be 2b 1d 02 3c 18 30 c2 be
       0.0355585 -0.32924193 0.0079415245 -0.37927318
0002b0 fa e9 30 3d 37 6c 04 bc d7 ec 88 bc 76 b2 9e bd
       0.043191887 -0.008082441 -0.016714497 -0.077488825
0002c0 c5 d6 b0 bc 83 db 51 bd c4 30 1e 3d ea c2 20 3d
       -0.021586785 -0.051234733 0.038620725 0.039248385
0002d0 84 d7 09 bd 0a 76 33 bd ea 10 32 3d f6 5e a3 bb
       -0.033652797 -0.043813743 0.04347316 -0.0049856855
0002e0 2a 2f 6c 3c c9 5d 94 bd da 75 d9 3d cb 97 93 bd
       0.014415542 -0.072444506 0.106181815 -0.072066866
0002f0 c6 fc 7b bd 3d 70 90 bc 39 5f d2 bd c1 5b 19 be
       -0.06152036 -0.017631644 -0.102720685 -0.14976408
000300 c1 24 a1 bc 38 dd 91 bd b9 65 85 bc 60 7f 30 be
       -0.019670846 -0.07122272 -0.016283857 -0.1723609
000310 45 7b a8 bc a4 1f 20 3d 40 27 40 bc d2 81 05 be
       -0.020566592 0.039092675 -0.011728108 -0.13037804
000320 7e 49 a3 bd 86 50 7c 3d b9 54 db 3d 47 07 83 bd
       -0.07973002 0.06160023 0.10709519 -0.063978724
000330 d8 a7 ac bd c0 ad a3 3d a1 2b ba bd 8e 20 eb 3d
       -0.08430451 0.079921246 -0.09090353 0.11480819
000340 9d ec cf bc 58 80 a1 be b2 e3 4e bd 2c 54 99 bb
       -0.02538138 -0.3154323 -0.050510116 -0.0046792235
000350 ba 59 2b 3d c3 39 98 3e 7f a8 b3 3b 79 bd 6c 3d
       0.041833617 0.2973157 0.005482733 0.057797883
000360 7b f5 f2 3d df 7f c4 3d ec 4a 0e 3e c9 cc 46 3d
       0.11863228 0.09594702 0.13895768 0.048535142
000370 ca 8a ad bd d0 99 7c bd 17 3e e8 bc 59 40 85 3d
       -0.084737375 -0.061670125 -0.02834992 0.06506414
000380 db ae 70 3b 87 3a 5f 3e c2 6f d4 bc 78 67 1c bd
       0.0036725316 0.2179967 -0.025932197 -0.038184613
000390 1f 63 40 be d4 69 1b 3f cf 42 ea 3d c8 13 a5 bd
       -0.18787812 0.60708356 0.11438524 -0.080604136
0003a0 9b 84 1e 3e 5f 63 85 3d 64 30 81 3d 30 03 b8 bd
       0.15480272 0.06513094 0.06308058 -0.08984983
0003b0 02 ce 0e 3e 6e a3 8e bd 21 4c 73 3d de 47 3f bd
       0.13945773 -0.069647655 0.059398774 -0.046699397
0003c0 fa dc 8b 3c b9 d4 62 bd 98 9d 8f 3d d5 98 a6 3e
       0.017073143 -0.05537865 0.070124805 0.32538477
0003d0 41 b3 59 be f7 9f 0b 3e 4e a1 b3 bd 21 dc 02 3d
       -0.21259786 0.1363524 -0.08771001 0.031948213
0003e0 cf 49 10 bd 14 ea c3 3d 6d 45 38 3d ed 12 ae 3d
       -0.03522664 0.09566131 0.044988085 0.084997036
0003f0 3d 81 00 3e 0d 27 b2 bd 05 2f 6d bd ee da 73 bd
       0.125493 -0.086988546 -0.05790617 -0.05953496

gru.bias_ih_l1 f4 [384]
000000 d6 46 83 3d e4 4c c0 3a 4d 68 e4 3d 14 31 17 be
       0.06409995 0.0014671353 0.11152706 -0.14764816
000010 84 00 b6 ba c4 f5 3a be b2 22 22 3d 55 05 8d 3b
       -0.0013885652 -0.18257815 0.03958387 0.004303614
000020 4b ce c4 bd 3a b5 c1 3d 6b 9b 1f be a5 88 bc bd
       -0.0960966 0.09458394 -0.15586631 -0.092057504
000030 81 d0 80 bd e5 3b 61 bd 12 6b 80 be 9d e0 85 bd
       -0.06289769 -0.05498876 -0.25081688 -0.06536982
000040 dd a6 8f bd a7 47 36 bd 26 a4 8e 3e 9a 9c 0e be
       -0.070142485 -0.044501927 0.2785961 -0.13926926
000050 ed 83 df bc 93 5b f0 bd 62 ab 38 bc 1e 31 af bc
       -0.027284587 -0.117362164 -0.01127133 -0.021385726
000060 da f7 51 3c 0f a7 df bd 05 e4 d8 bd 40 fa ce bd
       0.01281544 -0.10920536 -0.10590366 -0.10106325
000070 21 97 2b 3d 70 b0 18 be 52 20 91 3d f3 2b 33 3d
       0.041892175 -0.14911056 0.07086243 0.043743085
000080 62 7b d7 bd fa a0 64 3d 9f 96 61 bd dc 41 4b bc
       -0.1052158 0.05581758 -0.055075284 -0.012405839
000090 c8 d7 84 3d 64 ba 27 3e 53 35 92 bd 35 87 74 bd
       0.064864695 0.16379696 -0.07139077 -0.059699256
0000a0 a0 c8 a9 3d e0 f7 83 bc 89 3e c8 3c 5e a7 55 3e
       0.08290219 -0.016109407 0.024443882 0.20864627
0000b0 78 f8 5c be 88 bb b7 bd 5a 1a 74 ba 6b 83 43 3d
       -0.21579158 -0.089713156 -0.0009311788 0.04773275
0000c0 78 66 9a be b9 06 0e 3e ea 40 10 be 0c c4 54 3b
       -0.30156302 0.13869752 -0.14087263 0.0032465486
0000d0 c3 23 52 bd d8 93 f9 bc 5a 04 34 be e4 07 75 3e
       -0.051303636 -0.030466005 -0.17579785 0.23928791
0000e0 4c 47 92 bd e4 80 97 bc d5 3b 6b 3e 12 1d 9f 3e
       -0.07142505 -0.018494077 0.22972043 0.31076866
0000f0 f2 53 5f 3d 7f 3d 7c bd c5 70 0e 3e 9c 80 90 bd
       0.054523416 -0.061582085 0.13910206 -0.0705578
000100 4a 50 d6 3d c5 fa ec 3d fd ef f8 bc ab 76 38 3c
       0.10464533 0.11571268 -0.030387873 0.011258761
000110 de 6f ff bd ff 67 bb 3d 32 08 20 3d 9d 67 5f bd
       -0.12472509 0.09150695 0.039070316 -0.054542173
000120 46 c9 7b bd 3d cc de bd c1 85 59 bc 3e 47 e2 bd
       -0.061471246 -0.10878799 -0.013276518 -0.110487446
000130 8e d7 15 3e 5c ab 05 3d ac ca 3c 3e 49 72 0c be
       0.14633009 0.032634124 0.18436688 -0.13715471
000140 a4 59 86 bd 4a 77 bd 3a 2d 3d 9a 3d 96 35 8b be
       -0.06560066 0.0014455107 0.075311996 -0.2718932
000150 3b d7 5a bd a7 37 4e bc 0b 65 56 be da 69 ad bd
       -0.053427916 -0.012586511 -0.20936982 -0.08467455
000160 b3 c8 36 3e 73 aa 13 3e ec b6 00 3d 6c d9 19 be
       0.17849998 0.1442049 0.031424448 -0.15024346
000170 7f f6 2e bd 3f 14 11 be 2d ff 7c bd 31 b4 45 bd
       -0.042715546 -0.1416788 -0.061766792 -0.048267547
000180 d1 0c 04 be 24 40 01 3d cc 12 6d be 3d 2e 33 3c
       -0.12895514 0.03155531 -0.23151702 0.010936317
000190 a2 45 87 be 03 1a f3 bc 97 32 16 bd 7e 7d 84 3d
       -0.26420313 -0.02967549 -0.03666934 0.06469248
0001a0 be bf c0 3d 0c 7a 1c 3d 2d c2 dc bd 40 f8 17 bb
       0.09411572 0.03820233 -0.107792236 -0.002318874
0001b0 1f 75 1b bc 77 bf 2b be fa bc 6c 3e 1d cc 1e bc
       -0.009488373 -0.16772257 0.23118964 -0.009692219
0001c0 d7 c8 89 bd 9a ac 69 bd bf 3c 88 bd 58 33 2a 3c
       -0.0672776 -0.05704937 -0.066522114 0.010388218
0001d0 0a 4f 08 3d 41 dc 48 bd e7 ca 2f bc d9 37 bb bc
       0.033278503 -0.049038175 -0.010729528 -0.022853779
0001e0 02 6e 27 be 84 a2 20 3e 88 d8 61 3d 48 82 9e bd
       -0.16350558 0.15686995 0.05513814 -0.07739693
0001f0 54 44 df 3c 09 45 6a be 18 80 39 3d f5 a7 4d 3b
       0.027254261 -0.22877897 0.045288175 0.0031380628
000200 42 1f f2 be 1d 4e c5 be 99 06 68 be 82 07 63 be
       -0.47289473 -0.38536158 -0.22658767 -0.22170833
000210 c9 b4 f2 be e4 cf b1 be 67 a3 b3 be d1 30 05 bf
       -0.47403553 -0.3472892 -0.35085604 -0.5202761
000220 89 de d8 be ec c6 04 bf 4a f4 76 be fd b4 b4 be
       -0.4235728 -0.5186603 -0.24116626 -0.35294333
000230 ae 0b 33 be 54 f8 8b be 15 00 9e be 31 ba f4 be
       -0.17484924 -0.27337897 -0.30859438 -0.47798303
000240 ef 99 b2 be ea 18 e9 be 40 89 b4 be 36 67 b9 be
       -0.34883067 -0.4552682 -0.35260963 -0.36211556
000250 c6 ae ca be f4 19 47 bf bd b7 2f bf c9 f3 e6 be
       -0.39586467 -0.77773976 -0.6863974 -0.45107868
000260 e5 46 f3 be 5c 06 0c bf 42 7d ec be 7b 8b fe be
       -0.47515026 -0.54697204 -0.46189314 -0.4971579
000270 71 13 d7 be 30 f0 0c bf f0 b2 15 bf be c5 10 bf
       -0.4200702 -0.55054 -0.5847616 -0.5655173
000280 1a 4b 18 bf 7a a8 e3 be c5 fb 1b bf 22 af a5 be
       -0.59489596 -0.44464475 -0.60931045 -0.32360178
000290 01 09 1a be 22 c3 c8 be 3e 7d 38 bf 9d 7f 10 bf
       -0.15042497 -0.39211375 -0.72066104 -0.5644472
0002a0 59 87 5f be e7 86 a5 be 43 34 00 bf cf ac cc be
       -0.21828975 -0.32329485 -0.50079745 -0.39975592
0002b0 44 3a 50 be 6c 4f 1e bf c9 c3 b9 be 57 3c 0f bf
       -0.20334727 -0.6183994 -0.36282185 -0.55951446
0002c0 28 c2 b6 be 1e c3 20 bf 83 79 fe be 0a 55 b0 be
       -0.35695004 -0.62797725 -0.4970208 -0.3443988
0002d0 7e e8 ed be cc 08 e4 bd f7 92 44 bf 39 8e 90 be
       -0.4646644 -0.1113449 -0.7678675 -0.28233507
0002e0 bb 7f f9 be df 78 5c be bc 21 de be 69 83 dd be
       -0.48730263 -0.21530484 -0.43385112 -0.4326432
0002f0 7d 7b 35 bf ba c6 91 be df 34 0f bf 2d 52 db be
       -0.70891553 -0.2847193 -0.5594005 -0.42836133
000300 76 a9 d6 be 81 22 af be 97 4f 10 bf 53 52 0d bf
       -0.41926163 -0.34206012 -0.56371444 -0.5520374
000310 d7 7f 2a bf cb c6 e3 be 06 bd f7 be 14 1e bd be
       -0.6660132 -0.44487604 -0.483864 -0.3693701
000320 32 5a 30 bf 80 68 09 bf ff ea da be 9b d7 ad be
       -0.6888763 -0.5367508 -0.42757413 -0.33953556
000330 c1 40 eb be b5 52 23 bf ca c1 90 be 0c bc 31 bf
       -0.4594784 -0.63798076 -0.2827285 -0.6942756
000340 67 62 e9 be da 89 b1 be 41 56 40 bf 21 73 f5 be
       -0.45582888 -0.34675485 -0.75131613 -0.479394
000350 80 4a d7 be 41 f5 ab 3c 9f ae d1 be 55 dc f6 be
       -0.42049026 0.02099097 -0.40953538 -0.48214975
000360 4b 25 b4 be 23 ca c6 be 3c e0 a2 be bd 52 3f be
       -0.35184702 -0.38826093 -0.31811702 -0.18683906
000370 e4 3b 17 be 64 ad 16 bf 0c d5 d5 be 6b 31 50 be
       -0.1476894 -0.58858323 -0.41764104 -0.20331351
000380 3e 1e 8e be 63 64 a1 be d1 6c 0e bf 6d a6 95 be
       -0.27757448 -0.315219 -0.5563479 -0.29228535
000390 8a 79 28 bf 63 38 bd be cc 52 ba be 40 1f a9 be
       -0.65810454 -0.36957082 -0.36391294 -0.33031654
0003a0 ea 2c f9 bd 3c 31 a0 be 7b 95 8b be f1 a1 45 bd
       -0.1216677 -0.31287563 -0.27262482 -0.048250142
0003b0 34 de c2 bd 9d 74 fe be 9a 2e 06 bf b2 51 f2 be
       -0.09515038 -0.49698344 -0.5241486 -0.47327954
0003c0 26 eb 7a be 21 cf 34 bf 55 9a 27 bf c0 e5 f4 be
       -0.24503765 -0.70628554 -0.65469867 -0.47831535
0003d0 0b 77 d1 be 8e a3 c6 bd 50 fb ec be d7 00 b1 be
       -0.40911135 -0.09699164 -0.46285486 -0.34570953
0003e0 5a fa df be 19 db c7 be 90 04 d2 be 88 60 04 bf
       -0.4374569 -0.39034346 -0.41019106 -0.51709795
0003f0 ee 50 16 bf b1 94 0e bf 4a 22 2c bf 8b 89 07 bf
       -0.5871724 -0.55695635 -0.6723982 -0.5294425
