model/gru_physics_epoch_60.pth (torch, 687480 bytes, 18 tensors)

gru.weight_ih_l0 f4 [384, 10]
000000 41 2a f7 bc 25 70 bb 3c 15 d1 99 3a 4c 5f 75 3d
       -0.030171515 0.022880623 0.0011735285 0.059905335
000010 dd f3 18 3d 8a f2 dd 3b 30 ef 61 3d 2a 29 96 3c
       0.03734194 0.0067732977 0.055159748 0.018330175
000020 90 aa 16 bd 28 66 ed 3c 1b 7a 83 3c fe a3 ac bc
       -0.036783755 0.028979376 0.016049435 -0.021074291
000030 6d a4 2d bd 70 25 33 bc 97 fb cb bb ef 9b 1a bd
       -0.042393137 -0.010934219 -0.00622506 -0.037746366
000040 3e 46 34 bd ac cb fe 3b 85 d5 a2 3d 9f 8f ca ba
       -0.0440123 0.0077757444 0.07950882 -0.0015454179
000050 7f 0d 1d bd d3 2c 99 3d 48 9f b3 bc a2 c1 7e ba
       -0.03834295 0.07479253 -0.021926537 -0.00097181846
000060 36 22 56 bd f9 24 29 3d de 90 6e 3d 2a 13 9d 3c
       -0.05227872 0.041295025 0.058243625 0.019174177
000070 6f c3 90 bc 0c 3b 36 3d 4c 54 8e bd 3f 5a 80 bd
       -0.017671315 0.044489905 -0.06949672 -0.06267213
000080 13 fd 4a bd 60 c2 49 3d de df 1a bc 4d ac 9b bd
       -0.049557757 0.049257636 -0.009452788 -0.07601223
000090 4b b3 15 bc c2 e8 6b bd bb bb 53 3d 18 9a 8c 3d
       -0.009136985 -0.057595022 0.051692706 0.068653286
0000a0 df 02 47 3d 36 88 4d bd a4 6c 7c 3d 12 54 52 bc
       0.048586722 -0.05017873 0.061627045 -0.012837427
0000b0 cf ce 1e bc fd 65 80 bd 1f 58 94 bd 8c 1a 4c 3c
       -0.009692862 -0.06269453 -0.0724337 0.012457501
0000c0 60 6b 44 3d ca 7b a8 3c 04 13 52 3c 84 53 4a bd
       0.047953963 0.02056684 0.0128219165 -0.049396053
0000d0 ae 9c 17 bc d2 4b 20 3c 8c a3 0c bd b7 6e c0 3d
       -0.009253664 0.009783702 -0.034335658 0.09396117
0000e0 ef 72 91 3c 79 70 98 3d e0 ee ab bc 6d a6 39 bc
       0.017755 0.074433275 -0.020987928 -0.011331183
0000f0 84 f1 d0 3c c4 a9 05 bd e6 47 c9 3c b6 37 c2 3c
       0.025505789 -0.032632604 0.024570417 0.023708206
000100 bd e1 34 bd 35 c4 91 bd b5 fc 52 bd a9 ba 21 3b
       -0.044160593 -0.07117502 -0.05151053 0.0024677909
000110 c5 0d f7 3c 5b 25 a2 3d 41 e0 b0 bd 0d 83 3b bd
       0.030157933 0.07917281 -0.08636523 -0.045779277
000120 fb 95 09 bd 92 97 ba 3b f3 e0 c3 bc ad f3 12 bd
       -0.0335903 0.005694338 -0.023910975 -0.03587692
000130 b8 64 35 3c 2a 8e b4 3c f8 bd 5a 3c 36 b6 19 3b
       0.0110713765 0.022040445 0.013350956 0.0023454553
000140 c0 54 55 3d 7c d0 fd 3c 6e 9e 1b bd 2e 1b 67 bb
       0.052082777 0.030983202 -0.037992887 -0.0035264003
000150 d6 91 49 bc a1 0b 74 3d 4f c9 81 3d cc 7f b1 bc
       -0.012302836 0.059581403 0.06337225 -0.021667384
000160 ab 1e 28 bd 6c 04 df 3c 97 64 13 bc 97 a3 87 bd
       -0.041044872 0.027223788 -0.00899615 -0.06622999
000170 e5 3e 2b 3d c4 b0 32 bd 5f ee 9d bb 9e ba 1c 3d
       0.041808028 -0.043625608 -0.004819676 0.03826391
000180 1c 42 9d bb 15 46 37 3c c0 65 6f 3d 11 57 8d bc
       -0.0047991406 0.011186142 0.058446646 -0.01725343
000190 2a ce ca bd a0 0a 9f bc 41 d9 4e bd 88 a4 8f 3b
       -0.09902604 -0.019414246 -0.05050016 0.0043836273
0001a0 e6 89 51 bd 18 c4 73 ba aa 34 75 3d aa be 23 bd
       -0.0511569 -0.00092989346 0.059864677 -0.039976753
0001b0 66 75 6c bc f2 57 ab bb e4 49 d7 3c e3 ac 87 bd
       -0.014432287 -0.0052289898 0.026280351 -0.066247724
0001c0 f7 b7 43 3d a2 f8 75 3c 15 11 51 bd 89 b7 81 3d
       0.047782864 0.015012892 -0.05104168 0.06333835
0001d0 e2 2b 5e 3d 32 cd e4 bc a2 d0 a4 bd 27 67 38 3c
       0.05424107 -0.027929876 -0.08047606 0.011255062
0001e0 a1 d1 1b 3d 05 9d c6 3d 77 6a 3a bc 95 3f 1f bd
       0.038041715 0.09697918 -0.011377922 -0.038878996
0001f0 2b 30 a7 3b 79 fb 7c 3c af dd 96 3d aa b6 ca bb
       0.0051021776 0.015440815 0.073665015 -0.006186326
000200 b7 1b 91 bd f5 96 88 3c 21 0b 0a 3d 57 5d 1a 3d
       -0.07085364 0.016673544 0.03370202 0.037686672
000210 aa 26 77 bd cd 1f d6 bc de 4a 94 bc b9 90 bc bd
       -0.060339607 -0.02613821 -0.018102106 -0.09207291
000220 b6 5c 54 3c 22 e8 7b bc 28 13 dc 3c 11 38 bf 3d
       0.012961557 -0.015375169 0.026864603 0.09336866
000230 1d de 1b 3d 56 83 da bc 17 02 10 3d 5e 01 e1 bb
       0.03805362 -0.026673954 0.035158243 -0.006866618
000240 9f bd 02 3d 7b 1f 9c bc 2c 29 88 3c 07 74 e1 3b
       0.031919118 -0.01905798 0.016621195 0.0068802866
000250 e2 29 fd 3c b4 6b 83 3d 4f 03 18 3d d0 76 4f 3d
       0.03090376 0.06417027 0.03711253 0.050650418
000260 3b ca 81 3c c2 1d f7 bc 1e b1 0f 3d f5 16 6e bd
       0.015843501 -0.030165557 0.03508102 -0.058127362
000270 25 50 82 bc 22 6b a6 bc 10 96 c5 3c b1 67 8d 3b
       -0.015907357 -0.020314757 0.024119407 0.0043153395
000280 f0 e6 2b 3d 2b 00 22 bc 40 db 71 3d 46 84 02 3d
       0.041968286 -0.009887735 0.059046984 0.031864427
000290 bd b5 3c 3d 0a cc 3b 3c c3 50 27 bd 4f 43 5f bd
       0.046071757 0.011462221 -0.040848505 -0.05450755
0002a0 a7 bd a4 bb 8f 82 4f bd 81 0c 0b 3d a7 f6 ef 3c
       -0.005027491 -0.05066162 0.03394747 0.029292418
0002b0 83 61 f3 bc 8c 5f 43 bd 05 f1 a0 3c 5e 86 08 bd
       -0.029709583 -0.047698542 0.019646177 -0.033331268
0002c0 86 ba 61 3d 56 0e af 3c c1 4a ce 3c 11 ac 22 bd
       0.055109523 0.02136914 0.02518213 -0.039714877
0002d0 fb fb d1 3b 7a 4e 87 3d b1 7e a1 bd f5 64 1c 3d
       0.0064082122 0.06606765 -0.078854926 0.038182218
0002e0 5c 3a 4f 3b a3 06 9b 3d f8 46 cc 3d 66 f4 a1 3d
       0.0031620478 0.07569625 0.09974474 0.079079434
0002f0 73 43 2b be 7a 33 88 bd 3d 13 f2 3d 73 17 8d 3c
       -0.16724949 -0.066504434 0.11820076 0.017223096
000300 72 d8 45 3d 00 79 3c 3d 13 b2 41 3d 40 a8 2f bd
       0.04830212 0.046013832 0.047288965 -0.042885065
000310 11 f0 1b 3d c9 2b 90 bb 02 96 f6 3c cc 91 92 bb
       0.038070742 -0.004399751 0.030100826 -0.0044729467
000320 70 2e 85 3d 9c df 03 bc 9d e9 61 bd 10 7f e9 bc
       0.06502998 -0.008048918 -0.05515443 -0.028502971
000330 51 74 9a 3c af 7e 66 bd 83 25 4b bd 3d 17 86 bd
       0.018854292 -0.05627316 -0.04959632 -0.06547401
000340 fa d8 fd bb 31 63 53 3d bc 3e 59 3c b4 00 ab 3d
       -0.007746813 0.05160827 0.013259586 0.083497435
000350 65 7c d2 3c 89 85 57 bc 6c 25 5b 3d fb 74 ae bd
       0.025694082 -0.013154396 0.053502485 -0.08518406
000360 71 30 33 bd e4 d0 b3 bd c2 5b 42 3b 62 5a 00 3d
       -0.04374737 -0.08780077 0.0029656743 0.031336196
000370 d4 93 bf 3c 31 bd 95 bd 31 78 97 bc 11 60 9b b9
       0.02338592 -0.07311476 -0.018489929 -0.0002963548
000380 b0 d9 42 bd d5 33 53 bc b4 20 2c 3c 9b 77 94 bd
       -0.047570884 -0.012890776 0.010505844 -0.072493754
000390 64 70 8c 3d 8f e5 de bb 0c 3d 4c bd 44 a3 c5 3d
       0.06857374 -0.006802268 -0.049862906 0.09650281
0003a0 c7 97 ba bd bf f0 22 3d 94 af 7d 3d e2 c9 76 bd
       -0.091109805 0.039780375 0.061935022 -0.060251124
0003b0 6e bb 83 3c a9 17 45 bb df 60 c3 3c 6d d1 f3 3c
       0.016080584 -0.0030073917 0.023849903 0.029762948
0003c0 af b3 e7 b9 fc a9 7c bc 45 41 43 3e 7f 08 47 bc
       -0.00044193628 -0.015421387 0.19067867 -0.012148022
0003d0 fc 99 09 bd c8 87 dc bd 2f f9 b7 bd 3c b7 df bd
       -0.033594117 -0.10768086 -0.08983075 -0.10923621
0003e0 2a 9b ce 3d 58 0c 60 3d b4 3b 2d bc a3 fb 34 3d
       0.10088189 0.054699272 -0.010573316 0.044185292
0003f0 29 ca 92 3c 75 d4 fb 3c b4 20 67 bd 68 c1 95 3d
       0.017918663 0.030740956 -0.056427673 0.0731228

gru.weight_hh_l0 f4 [384, 128]
000000 a7 38 17 3d d7 19 ca 3c 23 39 97 3c 34 f2 d8 bb
       0.036919262 0.024670525 0.018459862 -0.0066206697
000010 ab 26 a6 bb 76 87 ea bb 4f 55 02 bd 05 b6 35 bb
       -0.0050705275 -0.0071572615 -0.031819638 -0.00277269
000020 90 7f a9 bc e0 4c d8 bc f8 be 93 3b 22 96 8e 3b
       -0.02069071 -0.026403844 0.0045088492 0.0043513933
000030 b0 cd a6 3c d4 c9 64 3d 32 fb 71 3d 20 f1 4e 3c
       0.020361751 0.05585654 0.05907745 0.012630731
000040 31 33 e5 bc 4c 7b 42 bd 67 3a 0e bd 78 78 82 bc
       -0.027978512 -0.047480866 -0.034723666 -0.015926585
000050 96 0e 62 bd ab b2 66 bd d9 5d 3c bc 72 bb e8 3c
       -0.05518969 -0.056322735 -0.011496984 0.028409693
000060 ac fe 35 bd 68 02 40 bc e9 50 15 3d d0 12 16 bd
       -0.044432327 -0.011719324 0.036454115 -0.036639035
000070 20 1b 12 bd 72 ef 2f 3d f4 9a 24 bb 47 61 8c bc
       -0.0356704 0.042952962 -0.0025116773 -0.01713623
000080 0c 4d 52 3d 3b 7d fa bc fd 10 2c 3d fb 62 25 3d
       0.05134301 -0.030577293 0.04200839 0.0403776
000090 b1 b5 55 bc 49 11 38 3d 6e 2a 42 3d 32 3e b2 bc
       -0.013043807 0.04493836 0.047403745 -0.021758173
0000a0 ab 85 36 3d d5 50 14 3d 5b ce 97 3c 22 9d 4b bc
       0.04456107 0.0362099 0.018531015 -0.0124276
0000b0 c9 61 66 bd 05 07 30 bd 3e 7b 03 bd 53 57 71 bc
       -0.0562456 -0.042975444 -0.032099955 -0.014730292
0000c0 ec b4 a9 bb b5 38 a2 3c 6d 96 16 3c fc 1e 8e bb
       -0.0051790383 0.01980243 0.009191138 -0.0043371897
0000d0 cd 55 37 3d ca ad 11 3d 16 1d 2f 3d ee 81 5f bb
       0.04475956 0.03556613 0.042752348 -0.0034104544
0000e0 d5 4e 3b bd 68 4d 2f 3d 55 50 ee bc d6 bc d6 bc
       -0.045729477 0.04279843 -0.02909104 -0.02621309
0000f0 83 4b 01 3d f9 87 36 bd 55 46 d0 3a 60 22 cd bc
       0.031566154 -0.044563267 0.0015890101 -0.025040805
000100 3f b5 1a bd aa 23 df bc 1b 78 80 37 12 92 1c bc
       -0.037770506 -0.027238686 1.5314718e-05 -0.00955631
000110 19 ea 91 3c 78 d5 1e 3d a5 4a d5 3b 11 4d 8f bc
       0.017811822 0.0387778 0.0065091425 -0.017492803
000120 32 38 2c 3a 38 65 d5 bc 95 35 81 3c 69 5d 09 3d
       0.0006569653 -0.026049241 0.01577262 0.03353635
000130 c3 cd 5e 3d 87 6c 39 3d 31 52 50 3d 43 06 9e 3c
       0.05439545 0.045269515 0.050859634 0.019290095
000140 6f 58 ae 3c 8c 87 07 bd 54 9f 19 ba ad 2a e8 ba
       0.021282403 -0.033088252 -0.00058602286 -0.0017712914
000150 35 30 78 bd 0d 61 49 bc 4c c0 9c bb eb d5 12 bd
       -0.06059285 -0.012291205 -0.0047836658 -0.03584854
000160 bf 74 28 3d 30 18 27 bc c1 4c d7 bc 20 3e 22 3d
       0.041126963 -0.010198638 -0.026281716 0.03961003
000170 94 dc 83 bc ef 15 16 bd f2 04 1e bd 6e fc a5 bb
       -0.01609639 -0.03664201 -0.038578935 -0.0050654924
000180 0a 5f 23 3d 1c 63 4b 3c ff 4a e5 bc 46 fe a1 3c
       0.03988556 0.012413766 -0.027989862 0.019774567
000190 5e 5f 88 b9 bd a3 5d 3d 77 43 86 3c 8c ec 38 3c
       -0.00026010995 0.05411123 0.016389592 0.011286866
0001a0 16 b1 20 bd 67 71 67 bd e8 b1 fd 3c c6 77 bf bc
       -0.039231382 -0.056504633 0.030968621 -0.023372542
0001b0 7b 51 15 bc 1b 9a 34 bd 7f 47 06 3d cc 2d 31 3d
       -0.009113665 -0.04409228 0.032783028 0.043256566
0001c0 42 c6 26 3c 62 8b c1 ba 0e dd e7 3c 45 b6 a9 bc
       0.010179104 -0.0014766271 0.02830365 -0.020716796
0001d0 20 90 8a bc db 5f 76 3d 9f e0 67 3c 93 61 d2 3c
       -0.016914427 0.06015001 0.014152675 0.025681293
0001e0 45 a6 c4 3c 46 60 51 bd 40 3d 86 3c 9f 4b 37 bb
       0.024005065 -0.051117204 0.016386628 -0.0027968658
0001f0 ac 93 1c 3c 18 bf b6 bc a3 67 16 3d 6c 8e ed 3c
       0.009556692 -0.022307917 0.03671993 0.028998576
000200 3e 0c 77 3c 72 8f 53 3d 57 66 c8 bc 5a dd 99 bc
       0.015078602 0.051650472 -0.024462862 -0.018782306
000210 48 11 35 bd 28 15 b0 bd b1 fb b2 bd 04 21 b0 3a
       -0.044205934 -0.08597785 -0.087394126 0.0013437574
000220 9d 04 ed bc 00 44 4f bc ff 08 b8 3c af 45 08 bd
       -0.028932864 -0.01265049 0.022465227 -0.03326958
000230 b7 85 09 3b c4 9d 37 3d c7 8f 04 3d a6 37 90 3c
       0.0020984241 0.04482819 0.03236368 0.01760466
000240 6c 1a d8 3c 51 c6 1e 3d 9f 23 c4 bc eb 57 c6 bc
       0.026379786 0.038763348 -0.023942767 -0.024211844
000250 eb 53 71 bc 21 be 3b 3d f1 c1 5e bc fb 22 d9 bb
       -0.01472948 0.045835618 -0.013596044 -0.0066264844
000260 6c 02 33 bc 9a 72 16 bd df 1e 69 3d bf ca 33 bd
       -0.01092587 -0.036730386 0.056914207 -0.043894526
000270 30 6d 13 3d fe 86 25 3c 9b e0 88 bc 82 85 f6 bc
       0.0359928 0.010102985 -0.016708663 -0.030092958
000280 2b 3e 72 bd f9 89 d3 bb 70 77 39 3d e9 70 97 3c
       -0.05914132 -0.0064556566 0.04527992 0.018486457
000290 db 0d 86 bc 09 2a 78 bd c7 9f 10 bd f6 23 78 ba
       -0.016364029 -0.060586963 -0.035308626 -0.0009465808
0002a0 8b b2 0a bc 25 88 9c 3c 97 0a c9 3c 73 fb 86 3d
       -0.0084654195 0.019107888 0.024541182 0.06590929
0002b0 72 00 5e bb cb 31 44 3c 0e ee 72 bd e1 a8 96 bc
       -0.0033874777 0.011974762 -0.059309058 -0.018391075
0002c0 d5 bc 54 3c 33 56 0b 3d 5e 38 43 bc 3e 84 bb 3b
       0.012984474 0.034017753 -0.011915294 0.0057225516
0002d0 5f 40 12 bd 58 51 a7 3c 11 fe ae bd 3e 8a fa 3c
       -0.03570592 0.02042453 -0.08544553 0.030583497
0002e0 fe 2f 3d 3c 3c b1 a9 bb 48 90 37 bd b2 b0 9d bc
       0.011547087 -0.0051785987 -0.04481533 -0.019249294
0002f0 32 2d 22 3d 6c 14 1d 39 d4 dc 85 bd 7b 95 8a bd
       0.039593883 0.00014980295 -0.0653626 -0.067667924
000300 9a 0e cd 3c 80 87 ea bc 99 d7 2b bd 92 18 61 bd
       0.025031377 -0.028629065 -0.041953657 -0.054955073
000310 a4 14 8e bd 0b 19 a9 bd ec e2 97 3d ef 69 76 3d
       -0.06937531 -0.0825673 0.07416329 0.06015962
000320 2d 7c 8a bb 56 1e 4f bc d7 4e bc bd e3 d4 08 bd
       -0.0042262287 -0.01264151 -0.09194725 -0.03340615
000330 df 70 38 3c e9 34 2e bd 44 2e 51 bc 1c 7f 65 3d
       0.011257379 -0.042530928 -0.012767378 0.056029424
000340 a6 57 08 bc d0 13 41 3c 51 64 64 3d 19 39 0a 3d
       -0.008321678 0.011784509 0.05575973 0.03374586
000350 82 d2 74 3c 78 d8 ae bb 70 30 8a 3c 3e 81 dd bc
       0.014942767 -0.0053358637 0.0168688 -0.027039167
000360 02 6d 72 bc 09 b9 0b 3d 6c ba 96 bd 67 17 8e bb
       -0.014796497 0.03411201 -0.07359776 -0.004336286
000370 dd 13 a6 3b d9 84 5e bd b5 5f ec 3b 99 74 5e bd
       0.005068286 -0.054325912 0.0072135576 -0.054310415
000380 50 71 db 3c 1a 1f 87 3b 0b 67 a1 bd 82 84 17 3b
       0.02678743 0.0041235806 -0.07880982 0.0023119752
000390 cf b5 09 bd 27 fe 61 3d ee e6 a0 3c c4 6a aa bc
       -0.03362065 0.05517402 0.019641366 -0.020802863
0003a0 6e 00 08 3d a8 5a 3e 3d 9f 69 0b bd 86 72 5c bb
       0.033203535 0.046473175 -0.034036275 -0.0033637597
0003b0 a7 0c ba 3c 46 e9 15 bc 9e 78 2e bb 50 1d 20 3d
       0.022711111 -0.009149855 -0.0026622186 0.039090455
0003c0 ee a8 c4 39 4b 3c 55 3d b4 c6 c6 3c 5f 43 c1 3b
       0.00037509896 0.052059453 0.02426467 0.005897924
0003d0 65 4a 39 bd dc cc e1 3c 98 75 c9 bd f9 0f cc 3c
       -0.045236964 0.027563505 -0.09836882 0.02490996
0003e0 a1 d9 bb 3b d8 5a 52 3c d9 14 36 bd eb 54 53 3d
       0.0057327305 0.012839042 -0.044453476 0.051594656
0003f0 af 00 35 3b d4 8e a3 bb 46 0b 48 3c 8c c1 c4 bd
       0.0027618816 -0.0049913917 0.012209719 -0.09607229

gru.bias_ih_l0 f4 [384]
000000 35 8d 1a bb 37 9a 85 3c 1f 45 32 bb 71 2c a4 3c
       -0.00235827 0.016308887 -0.0027201844 0.020040723
000010 54 9b 69 3c b7 79 01 bd 20 c0 45 bb 52 29 d3 3a
       0.0142582245 -0.031610217 -0.003017433 0.0016110337
000020 58 cd f2 bc f7 d0 9b bb 4f 9d 5a bc b0 11 a0 bc
       -0.029638931 -0.004755135 -0.013343169 -0.019539684
000030 a4 50 a9 bc 2d 87 11 3d 3d bf 01 3c c8 91 31 b9
       -0.020668335 0.035529304 0.00791913 -0.00016934343
000040 8e 48 c1 3b 6c 38 6b bb ca 36 a1 bd e8 32 e1 b8
       0.005898542 -0.0035891784 -0.07871778 -0.00010738318
000050 32 34 df 3c c9 31 fc 3a 04 d6 9e 3b 57 54 b5 bb
       0.027246568 0.0019240911 0.00484729 -0.0055337357
000060 b9 10 41 3d 7c 8f 50 bc a0 af 3d 3b 76 01 51 3d
       0.04713509 -0.012729522 0.0028943792 0.051026784
000070 cf e3 f0 3c 23 87 1b bc 9d c3 17 3c cc 78 96 bc
       0.029405503 -0.009492668 0.009262946 -0.018368147
000080 42 32 bc 3c e5 c8 94 3c 75 90 21 bc 63 1b 43 3d
       0.022973184 0.0181622 -0.009861101 0.04763354
000090 2d f0 36 3c a1 81 cb 3b 86 3e 81 bc 50 a6 33 bd
       0.011165661 0.0062105213 -0.015776884 -0.04385978
0000a0 d3 87 32 b7 a2 9e 73 3c 86 34 09 3d 9d 02 83 3c
       -1.0641251e-05 0.014869364 0.033497356 0.015992457
0000b0 96 bd 22 3d a9 ac 02 3d 2e 70 17 bd 4d 54 8d bc
       0.039731584 0.031902943 -0.036972217 -0.017252112
0000c0 e6 b3 9c 3c 83 57 da b9 c6 64 52 3c a5 78 e7 3a
       0.019128751 -0.00041645402 0.012841409 0.0017659856
0000d0 6c 32 cc bb b8 76 ff 3c 36 68 86 bc 7d c0 92 bd
       -0.0062315967 0.03118454 -0.016407114 -0.071656205
0000e0 c7 43 76 bb bd 6d 6d bc b4 46 95 3c 58 9c 4d 3c
       -0.003757702 -0.014491496 0.01822219 0.012549482
0000f0 8b 4e d4 3c 15 93 20 3c ed eb 98 3c e0 dc f7 3c
       0.025916358 0.009800692 0.018667186 0.030256689
000100 f0 0f 11 3c 72 7e 98 ba 96 46 b5 3b 7e cd ce 3c
       0.008853897 -0.0011634363 0.005532096 0.02524447
000110 e4 77 e5 3c 0f 7d 0d bd 3c 69 e0 bc bc 25 0f bc
       0.02801127 -0.034543093 -0.02739393 -0.008737024
000120 5e 05 17 3b c2 ac 0a 3c 69 a0 d3 3b af 95 20 bd
       0.002304397 0.00846404 0.0064583314 -0.03920525
000130 be 65 df bc da 2b 07 bc 23 a3 25 3a 32 6c bc bc
       -0.027270194 -0.008250201 0.000631856 -0.02300081
000140 65 8d 7d bb 7d 3b 37 3b 4c 36 89 3c 64 98 bd bc
       -0.0038689014 0.0027959042 0.016749524 -0.023143955
000150 f8 21 26 bc 11 b0 9a 3b a0 23 c8 bb 83 c1 9d ba
       -0.010139935 0.004720696 -0.0061077625 -0.001203582
000160 f1 71 82 3c b8 24 2a 3d 3f 65 b1 3c 03 76 b2 3c
       0.015923472 0.041538924 0.021654723 0.021784788
000170 d7 34 e9 ba 79 0f 1d bc bb ed 2a bc 37 06 71 ba
       -0.0017792237 -0.0095862085 -0.010432656 -0.00091943465
000180 81 a6 74 bc 77 7f 34 3d 60 24 2c 3d 6a 7a 49 bc
       -0.014932276 0.044066872 0.042026877 -0.012297252
000190 7f 8a 25 b9 23 db 0a bc 9f f6 21 ba db 91 1f bc
       -0.0001578722 -0.008475098 -0.0006178412 -0.0097393645
0001a0 a9 47 f8 3c f2 10 97 bb 6e 01 0f bc bc a9 dd 3b
       0.030307608 -0.0046101743 -0.008728368 0.0067646187
0001b0 68 a5 ef 3c 66 08 9f bb c4 99 10 bd 83 91 c5 3b
       0.029253677 -0.004853296 -0.035302892 0.0060293092
0001c0 89 fb 0f 3c 88 60 0d 3d e6 b8 8b 3d 5c b3 89 39
       0.008787998 0.034515887 0.06822376 0.0002626431
0001d0 3a c7 02 bd d4 c9 04 3d 32 4a 4b 3d 3c 86 03 bb
       -0.03192828 0.03241904 0.049631305 -0.0020069024
0001e0 a7 d9 0d 3d fa 97 dd 3b bf 4f 08 38 c5 94 c8 bc
       0.034631398 0.006762502 3.2499196e-05 -0.024485001
0001f0 13 ed d9 3c 14 f4 0f 3d 2c 50 c4 3b e0 af 4c 3d
       0.026602304 0.03514488 0.0059910025 0.049972415
000200 64 50 a4 3d 68 fb 7d bd ca 7e 57 3e 6d b8 33 3d
       0.08023146 -0.062007338 0.2104446 0.043877054
000210 8b 42 77 3e 44 60 16 be 4e fb a6 bd 75 ba 5d 3e
       0.24146478 -0.1468516 -0.08153401 0.21653159
000220 94 1f de 3c a5 3b 02 3e 9b 1d b9 bd 6a b9 97 be
       0.027114667 0.12718065 -0.0903885 -0.29633647
000230 f8 4d 51 be 08 29 47 3e 09 07 41 bd b7 18 83 3e
       -0.20439899 0.19449246 -0.04712585 0.25604793
000240 a6 1d 1d 3e 77 96 e4 3d b6 57 96 bd a3 92 e5 bd
       0.15343341 0.111615114 -0.07340948 -0.11209609
000250 3a a5 09 3e 48 25 89 bd b3 aa b2 bb 41 3f 7d 3d
       0.13441935 -0.06696564 -0.005452478 0.0618279
000260 04 f8 ff bd ba ec 53 3e 8e 29 cc 3b 33 11 9d bd
       -0.12498477 0.20695773 0.0062305396 -0.07669296
000270 2f 0a ef bd 67 eb 78 be c6 c3 26 be 62 1b dd 3d
       -0.11671864 -0.24308549 -0.16285619 0.107962385
000280 23 ea 81 bc 49 35 ce 3b f9 c8 8f 3d de d3 92 bd
       -0.015858715 0.006292973 0.07020754 -0.07169317
000290 86 0a 2f 3e 81 b5 5f 3e 8d 21 90 bd 2d f3 16 be
       0.17093858 0.21846582 -0.07037649 -0.14741202
0002a0 76 92 72 3e 56 9e 37 bd 4d a2 cc 3d 33 cd 6d be
       0.23688683 -0.044828735 0.09991894 -0.23222809
0002b0 40 f1 85 be 02 f6 bc 3d d4 cf 01 be a5 46 82 bd
       -0.26160622 0.0922661 -0.12676936 -0.063611306
0002c0 5d 5d bb bd bc 77 91 3e a7 1d 09 3d 34 0e 27 3e
       -0.09148667 0.28411663 0.033475544 0.16314012
0002d0 ca 2e 8c be 69 d2 7c be b7 78 60 be 51 f0 56 be
       -0.27379447 -0.2468964 -0.21921049 -0.20990111
0002e0 65 9f 09 3e ba f6 e0 3d 99 9b ce bd 46 85 f0 bd
       0.1343971 0.10984559 -0.10088272 -0.1174417
0002f0 28 28 e0 bd c3 1b 39 3e 33 a6 54 be 4b 42 25 be
       -0.10945159 0.18076997 -0.20766525 -0.1613857
000300 8f 9d e4 3d 82 db 78 3d 18 a5 d2 3c 03 ce 84 bb
       0.111628644 0.060756214 0.025713488 -0.004052879
000310 eb 33 34 be 94 c6 46 be 82 e6 58 be 68 40 65 3e
       -0.1759793 -0.19411689 -0.21181682 0.2238785
000320 9d 32 81 3e d9 9f 47 3e b5 ef 66 be 82 35 1f be
       0.25233927 0.19494571 -0.22552378 -0.15547755
000330 4e 49 67 be e0 28 46 3e 11 71 80 3e 41 75 0c 3e
       -0.22586557 0.1935153 0.25086263 0.13716604
000340 6a a2 bb bd 88 56 8c 3e f6 6b 39 bd a1 36 4c be
       -0.091618374 0.27409768 -0.045268975 -0.19942714
000350 c6 df 4c 3c 1f 4a b3 bd 36 14 46 3c af f0 5c 3e
       0.012504524 -0.08754372 0.01208978 0.21576189
000360 f4 a0 83 be 04 bf 66 be 30 36 b2 3d 5f d7 ac bd
       -0.25708735 -0.22533804 0.08701742 -0.08439516
000370 fd 48 a5 3d 58 13 17 be 19 4e 16 be cd a7 3c 3e
       0.08070562 -0.14753473 -0.1467823 0.18423386
000380 0d 14 24 be f4 fe 20 be 60 62 95 bd 7e ff 01 3e
       -0.16023274 -0.15722257 -0.07294154 0.12695119
000390 21 87 49 3e ba f4 30 3e b6 b3 98 3d cd 93 46 be
       0.19680454 0.17280856 0.07456152 -0.19392319
0003a0 12 35 37 be 38 21 39 3e 94 ab 4b 3e 4d 6c f3 3d
       -0.17891338 0.18079078 0.1988967 0.11885891
0003b0 e3 e1 1c be 89 c7 85 be 21 30 82 bd 15 7a 3b be
       -0.15320544 -0.26128796 -0.06356836 -0.1830829
0003c0 ff ad 2f 3d 57 f4 68 be 65 5b 3b be 49 01 29 3e
       0.042890545 -0.22749458 -0.18296583 0.16504396
0003d0 8d ea 55 be 6f 72 af 3d 5d 75 0a be cb 18 30 3e
       -0.20890255 0.08566748 -0.13521333 0.17196958
0003e0 4f 95 e8 bd 21 a3 85 bd f7 ee 41 3a b5 67 6c 3e
       -0.11356603 -0.06525255 0.0007397974 0.23086436
0003f0 01 e8 5a 3e 86 bb 1c 3e 88 27 79 bd c8 8d ce 3d
       0.21377565 0.1530591 -0.060828716 0.100856364

gru.bias_hh_l0 f4 [384]
000000 35 8d 1a bb 37 9a 85 3c 1f 45 32 bb 71 2c a4 3c
       -0.00235827 0.016308887 -0.0027201844 0.020040723
000010 54 9b 69 3c b7 79 01 bd 20 c0 45 bb 52 29 d3 3a
       0.0142582245 -0.031610217 -0.003017433 0.0016110337
000020 58 cd f2 bc f7 d0 9b bb 4f 9d 5a bc b0 11 a0 bc
       -0.029638931 -0.004755135 -0.013343169 -0.019539684
000030 a4 50 a9 bc 2d 87 11 3d 3d bf 01 3c c8 91 31 b9
       -0.020668335 0.035529304 0.00791913 -0.00016934343
000040 8e 48 c1 3b 6c 38 6b bb ca 36 a1 bd e8 32 e1 b8
       0.005898542 -0.0035891784 -0.07871778 -0.00010738318
000050 32 34 df 3c c9 31 fc 3a 04 d6 9e 3b 57 54 b5 bb
       0.027246568 0.0019240911 0.00484729 -0.0055337357
000060 b9 10 41 3d 7c 8f 50 bc a0 af 3d 3b 76 01 51 3d
       0.04713509 -0.012729522 0.0028943792 0.051026784
000070 cf e3 f0 3c 23 87 1b bc 9d c3 17 3c cc 78 96 bc
       0.029405503 -0.009492668 0.009262946 -0.018368147
000080 42 32 bc 3c e5 c8 94 3c 75 90 21 bc 63 1b 43 3d
       0.022973184 0.0181622 -0.009861101 0.04763354
000090 2d f0 36 3c a1 81 cb 3b 86 3e 81 bc 50 a6 33 bd
       0.011165661 0.0062105213 -0.015776884 -0.04385978
0000a0 d3 87 32 b7 a2 9e 73 3c 86 34 09 3d 9d 02 83 3c
       -1.0641251e-05 0.014869364 0.033497356 0.015992457
0000b0 96 bd 22 3d a9 ac 02 3d 2e 70 17 bd 4d 54 8d bc
       0.039731584 0.031902943 -0.036972217 -0.017252112
0000c0 e6 b3 9c 3c 83 57 da b9 c6 64 52 3c a5 78 e7 3a
       0.019128751 -0.00041645402 0.012841409 0.0017659856
0000d0 6c 32 cc bb b8 76 ff 3c 36 68 86 bc 7d c0 92 bd
       -0.0062315967 0.03118454 -0.016407114 -0.071656205
0000e0 c7 43 76 bb bd 6d 6d bc b4 46 95 3c 58 9c 4d 3c
       -0.003757702 -0.014491496 0.01822219 0.012549482
0000f0 8b 4e d4 3c 15 93 20 3c ed eb 98 3c e0 dc f7 3c
       0.025916358 0.009800692 0.018667186 0.030256689
000100 f0 0f 11 3c 72 7e 98 ba 96 46 b5 3b 7e cd ce 3c
       0.008853897 -0.0011634363 0.005532096 0.02524447
000110 e4 77 e5 3c 0f 7d 0d bd 3c 69 e0 bc bc 25 0f bc
       0.02801127 -0.034543093 -0.02739393 -0.008737024
000120 5e 05 17 3b c2 ac 0a 3c 69 a0 d3 3b af 95 20 bd
       0.002304397 0.00846404 0.0064583314 -0.03920525
000130 be 65 df bc da 2b 07 bc 23 a3 25 3a 32 6c bc bc
       -0.027270194 -0.008250201 0.000631856 -0.02300081
000140 65 8d 7d bb 7d 3b 37 3b 4c 36 89 3c 64 98 bd bc
       -0.0038689014 0.0027959042 0.016749524 -0.023143955
000150 f8 21 26 bc 11 b0 9a 3b a0 23 c8 bb 83 c1 9d ba
       -0.010139935 0.004720696 -0.0061077625 -0.001203582
000160 f1 71 82 3c b8 24 2a 3d 3f 65 b1 3c 03 76 b2 3c
       0.015923472 0.041538924 0.021654723 0.021784788
000170 d7 34 e9 ba 79 0f 1d bc bb ed 2a bc 37 06 71 ba
       -0.0017792237 -0.0095862085 -0.010432656 -0.00091943465
000180 81 a6 74 bc 77 7f 34 3d 60 24 2c 3d 6a 7a 49 bc
       -0.014932276 0.044066872 0.042026877 -0.012297252
000190 7f 8a 25 b9 23 db 0a bc 9f f6 21 ba db 91 1f bc
       -0.0001578722 -0.008475098 -0.0006178412 -0.0097393645
0001a0 a9 47 f8 3c f2 10 97 bb 6e 01 0f bc bc a9 dd 3b
       0.030307608 -0.0046101743 -0.008728368 0.0067646187
0001b0 68 a5 ef 3c 66 08 9f bb c4 99 10 bd 83 91 c5 3b
       0.029253677 -0.004853296 -0.035302892 0.0060293092
0001c0 89 fb 0f 3c 88 60 0d 3d e6 b8 8b 3d 5c b3 89 39
       0.008787998 0.034515887 0.06822376 0.0002626431
0001d0 3a c7 02 bd d4 c9 04 3d 32 4a 4b 3d 3c 86 03 bb
       -0.03192828 0.03241904 0.049631305 -0.0020069024
0001e0 a7 d9 0d 3d fa 97 dd 3b bf 4f 08 38 c5 94 c8 bc
       0.034631398 0.006762502 3.2499196e-05 -0.024485001
0001f0 13 ed d9 3c 14 f4 0f 3d 2c 50 c4 3b e0 af 4c 3d
       0.026602304 0.03514488 0.0059910025 0.049972415
000200 64 50 a4 3d 68 fb 7d bd ca 7e 57 3e 6d b8 33 3d
       0.08023146 -0.062007338 0.2104446 0.043877054
000210 8b 42 77 3e 44 60 16 be 4e fb a6 bd 75 ba 5d 3e
       0.24146478 -0.1468516 -0.08153401 0.21653159
000220 94 1f de 3c a5 3b 02 3e 9b 1d b9 bd 6a b9 97 be
       0.027114667 0.12718065 -0.0903885 -0.29633647
000230 f8 4d 51 be 08 29 47 3e 09 07 41 bd b7 18 83 3e
       -0.20439899 0.19449246 -0.04712585 0.25604793
000240 a6 1d 1d 3e 77 96 e4 3d b6 57 96 bd a3 92 e5 bd
       0.15343341 0.111615114 -0.07340948 -0.11209609
000250 3a a5 09 3e 48 25 89 bd b3 aa b2 bb 41 3f 7d 3d
       0.13441935 -0.06696564 -0.005452478 0.0618279
000260 04 f8 ff bd ba ec 53 3e 8e 29 cc 3b 33 11 9d bd
       -0.12498477 0.20695773 0.0062305396 -0.07669296
000270 2f 0a ef bd 67 eb 78 be c6 c3 26 be 62 1b dd 3d
       -0.11671864 -0.24308549 -0.16285619 0.107962385
000280 23 ea 81 bc 49 35 ce 3b f9 c8 8f 3d de d3 92 bd
       -0.015858715 0.006292973 0.07020754 -0.07169317
000290 86 0a 2f 3e 81 b5 5f 3e 8d 21 90 bd 2d f3 16 be
       0.17093858 0.21846582 -0.07037649 -0.14741202
0002a0 76 92 72 3e 56 9e 37 bd 4d a2 cc 3d 33 cd 6d be
       0.23688683 -0.044828735 0.09991894 -0.23222809
0002b0 40 f1 85 be 02 f6 bc 3d d4 cf 01 be a5 46 82 bd
       -0.26160622 0.0922661 -0.12676936 -0.063611306
0002c0 5d 5d bb bd bc 77 91 3e a7 1d 09 3d 34 0e 27 3e
       -0.09148667 0.28411663 0.033475544 0.16314012
0002d0 ca 2e 8c be 69 d2 7c be b7 78 60 be 51 f0 56 be
       -0.27379447 -0.2468964 -0.21921049 -0.20990111
0002e0 65 9f 09 3e ba f6 e0 3d 99 9b ce bd 46 85 f0 bd
       0.1343971 0.10984559 -0.10088272 -0.1174417
0002f0 28 28 e0 bd c3 1b 39 3e 33 a6 54 be 4b 42 25 be
       -0.10945159 0.18076997 -0.20766525 -0.1613857
000300 8f 9d e4 3d 82 db 78 3d 18 a5 d2 3c 03 ce 84 bb
       0.111628644 0.060756214 0.025713488 -0.004052879
000310 eb 33 34 be 94 c6 46 be 82 e6 58 be 68 40 65 3e
       -0.1759793 -0.19411689 -0.21181682 0.2238785
000320 9d 32 81 3e d9 9f 47 3e b5 ef 66 be 82 35 1f be
       0.25233927 0.19494571 -0.22552378 -0.15547755
000330 4e 49 67 be e0 28 46 3e 11 71 80 3e 41 75 0c 3e
       -0.22586557 0.1935153 0.25086263 0.13716604
000340 6a a2 bb bd 88 56 8c 3e f6 6b 39 bd a1 36 4c be
       -0.091618374 0.27409768 -0.045268975 -0.19942714
000350 c6 df 4c 3c 1f 4a b3 bd 36 14 46 3c af f0 5c 3e
       0.012504524 -0.08754372 0.01208978 0.21576189
000360 f4 a0 83 be 04 bf 66 be 30 36 b2 3d 5f d7 ac bd
       -0.25708735 -0.22533804 0.08701742 -0.08439516
000370 fd 48 a5 3d 58 13 17 be 19 4e 16 be cd a7 3c 3e
       0.08070562 -0.14753473 -0.1467823 0.18423386
000380 0d 14 24 be f4 fe 20 be 60 62 95 bd 7e ff 01 3e
       -0.16023274 -0.15722257 -0.07294154 0.12695119
000390 21 87 49 3e ba f4 30 3e b6 b3 98 3d cd 93 46 be
       0.19680454 0.17280856 0.07456152 -0.19392319
0003a0 12 35 37 be 38 21 39 3e 94 ab 4b 3e 4d 6c f3 3d
       -0.17891338 0.18079078 0.1988967 0.11885891
0003b0 e3 e1 1c be 89 c7 85 be 21 30 82 bd 15 7a 3b be
       -0.15320544 -0.26128796 -0.06356836 -0.1830829
0003c0 ff ad 2f 3d 57 f4 68 be 65 5b 3b be 49 01 29 3e
       0.042890545 -0.22749458 -0.18296583 0.16504396
0003d0 8d ea 55 be 6f 72 af 3d 5d 75 0a be cb 18 30 3e
       -0.20890255 0.08566748 -0.13521333 0.17196958
0003e0 4f 95 e8 bd 21 a3 85 bd f7 ee 41 3a b5 67 6c 3e
       -0.11356603 -0.06525255 0.0007397974 0.23086436
0003f0 01 e8 5a 3e 86 bb 1c 3e 88 27 79 bd c8 8d ce 3d
       0.21377565 0.1530591 -0.060828716 0.100856364

gru.weight_ih_l1 f4 [384, 128]
000000 d1 9a 25 bc bb 1b 1a 3e 1f 53 bf be bd 30 8d 3e
       -0.010107712 0.15049641 -0.37368104 0.27576247
000010 ac ca 6a bf f8 f5 b2 3d d8 75 82 ba be 0d 7f 3e
       -0.917155 0.08738321 -0.0009953333 0.24907586
000020 c8 90 a2 bd 09 21 3b bc b7 9b 9a 3d 10 e1 ad be
       -0.07937771 -0.01142145 0.075492315 -0.33960772
000030 31 48 84 bd fa a4 d7 3e f7 a4 54 3c 82 18 c6 be
       -0.06459082 0.42118055 0.012978784 -0.38690573
000040 b7 0d 7d be 98 b6 e9 3e 7a 81 00 3e f6 8c d0 bd
       -0.24712263 0.4564712 0.12549391 -0.10183136
000050 01 36 dc bd 34 b9 38 3d 66 50 83 bd 4b 71 a5 be
       -0.10752488 0.0450985 -0.06411819 -0.32312998
000060 2d d2 87 3e 28 2d ce 3e 80 6c 47 3e af 49 e0 3c
       0.2652754 0.40268826 0.19474983 0.027378885
000070 63 30 13 3d f7 ad b0 bd 34 5a 15 3e e6 54 eb 3c
       0.035934817 -0.08626931 0.14585191 0.028727006
000080 4f 07 4e 3d 5c c3 53 3e 4f 73 86 be 08 4e f0 bb
       0.05029994 0.20679992 -0.26259848 -0.007333521
000090 24 19 05 be e2 74 0f 3f 01 a7 9f 3d 31 88 2a 3e
       -0.12997872 0.56037724 0.07795525 0.16653515
0000a0 ca ac 71 be 4d cb 8c 3d ce db 10 3e d4 1a 8a 3e
       -0.2360107 0.06874714 0.14146349 0.26973593
0000b0 31 47 dc be 19 c2 1b be 75 97 7a be 22 11 55 bd
       -0.43023065 -0.15210761 -0.24471839 -0.052018292
0000c0 c0 f8 0b 3e fb 58 8c bf ab 14 12 3e a4 1d 7d bd
       0.1366911 -1.0964655 0.14265697 -0.061795846
0000d0 a2 7d c0 3e 9c 7c e6 bd 24 86 a6 3c 2e 08 a5 3e
       0.3759585 -0.11254236 0.020327635 0.32232803
0000e0 0f 09 f4 be a5 f8 bc 3d 7a f9 cd 3d 40 76 8b bc
       -0.4766316 0.09227113 0.100573495 -0.01702416
0000f0 51 ed 16 3f 93 25 c3 3e 82 3c b5 be 76 75 60 be
       0.58955866 0.38114604 -0.35397726 -0.21919808
000100 b1 0d bf 3d 62 c6 40 3e a4 55 19 be de a9 7f bc
       0.09328783 0.18825677 -0.14974076 -0.015604464
000110 3b 4b 90 be d2 92 2a 3d c4 9c 45 3e 6d 79 a0 be
       -0.28182396 0.041643925 0.19298083 -0.3134264
000120 9d 4e a3 3e 95 4f a5 3e 6b fd 99 be 45 7b 34 3e
       0.31895915 0.3228728 -0.30076155 0.17625149
000130 25 ba b0 3c 23 26 35 3d c3 83 86 be 26 6a e7 3d
       0.021573136 0.044225823 -0.262724 0.11299543
000140 68 7e 67 be 67 6a 62 be d1 c9 b6 bc 09 c3 c5 3e
       -0.22606814 -0.22110902 -0.02231303 0.38625363
000150 a5 b8 14 be 3c 76 71 3e 73 36 7e be 4d 9a 09 bf
       -0.14523561 0.23580259 -0.24825458 -0.5375107
000160 8f ff ba 3d 8d eb 15 3f 82 6f 89 bc 31 a4 2e be
       0.09130775 0.58562547 -0.016776804 -0.17054822
000170 fb 13 4c 3a bf f4 a0 be a8 d1 19 3e 38 1d 74 be
       0.000778496 -0.31436726 0.15021384 -0.23839271
000180 66 aa 09 3e 2c 96 29 be ae fd e7 3a 60 33 a5 be
       0.13443908 -0.16561192 0.0017699504 -0.3226576
000190 c3 d5 55 be cf eb de 3e 17 53 85 be 73 f3 02 be
       -0.20882325 0.43539283 -0.26039955 -0.12788181
0001a0 66 6c 3a 3e 3f 52 92 be cf 9a ac be 34 09 fb 3e
       0.18205413 -0.28578374 -0.3371186 0.4903046
0001b0 70 c5 8a 3d 7d 74 bd 3e 31 21 24 3d c9 7f fb 3d
       0.067759395 0.37002936 0.040070716 0.122802325
0001c0 7e ea 94 3e a5 b1 0b 3e d8 4b 4a 3c 50 76 14 3e
       0.29085153 0.13641985 0.012347184 0.14498258
0001d0 56 35 bf be 0c 75 17 bc d1 6b 53 be 49 27 66 be
       -0.3734538 -0.009244215 -0.20646597 -0.22475924
0001e0 30 14 aa 3c 87 14 db 3e 52 e7 95 3c e9 6f a2 be
       0.02076158 0.427891 0.018298779 -0.31726006
0001f0 6b 87 2a be 94 28 2e 3e 95 0f 8f 3d 7f 57 4d be
       -0.1665322 0.17007667 0.06985394 -0.20052908
000200 97 0c cb 3d 0d 8d 77 3d ef 74 31 be fb 19 04 bd
       0.09914511 0.06043725 -0.17329763 -0.03225134
000210 54 fc 62 be 4f b6 02 3c 8c 9c dd 3c 8c 80 30 3e
       -0.22166568 0.007978036 0.027052186 0.17236537
000220 b1 da 50 3e 4e 61 ff 3d 6b ef 44 3c 1f 94 83 bd
       0.20395924 0.12469731 0.012019972 -0.06424736
000230 75 03 c4 bd 7b de af 3e 1c 73 7d 3e b4 58 58 bf
       -0.09570972 0.34349427 0.24750942 -0.8451035
000240 05 c1 7d bd f9 df 60 3d cf 38 ea 3e 3e ce 88 bd
       -0.061951656 0.054901097 0.45746467 -0.066799626
000250 aa 39 45 be 02 0f a3 be 52 50 5c be 25 1c d4 3e
       -0.19260278 -0.31847388 -0.21515015 0.41427723
000260 5a 91 89 bd f2 07 84 3e 16 95 87 bd 3c d2 97 3e
       -0.06717177 0.25787312 -0.06620233 0.29652584
000270 c8 2f 6e be 19 b1 e9 3d a8 cf c3 3d 55 00 17 3e
       -0.23260415 0.11410732 0.09561092 0.1474622
000280 a7 32 8d be 45 63 9a bc a5 ef 54 be 51 c4 08 3e
       -0.27577707 -0.018846164 -0.20794542 0.13356139
000290 6b f0 32 bf 73 7f 02 3e 34 68 8c 3e 8d 0a 86 be
       -0.698981 0.1274393 0.2742325 -0.26179925
0002a0 37 3a 54 bf af 41 5c 3c e3 1d 67 3d b2 c5 ba be
       -0.8290133 0.013443395 0.056424987 -0.36478955
0002b0 2b 4a 28 3d 49 d4 a1 bd 7f 88 84 3e e7 f1 11 3f
       0.041086357 -0.07901818 0.25885388 0.5700974
0002c0 2f 0f 4f 3e a3 91 02 bf 7c 49 84 3e 85 e0 63 3f
       0.20220636 -0.51003474 0.25837314 0.89014465
0002d0 66 58 2e bd c4 90 ba bd 68 91 ff 3e 00 c2 8a bd
       -0.042564772 -0.09109643 0.49915624 -0.06775284
0002e0 16 2f f7 bc ac 98 03 3e 4d cb 1a 3e 42 85 94 bd
       -0.03017382 0.12851208 0.15116616 -0.072519794
0002f0 a2 94 79 be 1f a9 31 3f 09 cd a2 3e da 5b b2 3d
       -0.24373105 0.69398683 0.31797054 0.087089255
000300 87 1f 69 3e 6b f7 e8 be 20 60 a7 3e 35 32 a1 3d
       0.22765933 -0.45501265 0.32690525 0.07870904
000310 f9 58 a7 3a bf e3 5d 3e 2d db aa 3d 9f d2 18 bf
       0.0012767605 0.2166891 0.08342586 -0.5969638
000320 51 86 2b 3f e3 9b 22 3f f3 fd 3d 3f 40 c8 02 be
       0.67001826 0.63519114 0.7421562 -0.12771702
000330 97 34 8a 3d db 06 81 3e 2a 4c 0f bf db 1f f7 3d
       0.06748312 0.25200543 -0.5597559 0.12066623
000340 a6 52 6b 3d 76 72 39 bf 35 df 82 3d 3c 82 49 bf
       0.057451867 -0.7244028 0.063902296 -0.78714347
000350 a0 b5 a3 be 34 b5 da be f8 ad 52 bd 3e 5c e5 be
       -0.31974506 -0.42716372 -0.05143544 -0.44796938
000360 f3 2b 08 be 4b 82 cc bd 98 d4 64 3c 8d 89 d3 3e
       -0.13298015 -0.09985789 0.013966702 0.4131588
000370 13 99 61 3f f5 04 28 3f 09 1d 93 bd e1 84 72 bc
       0.881242 0.65632564 -0.071832724 -0.014802189
000380 87 9e c8 be db a9 08 3f 1a 0a 21 be 66 02 c0 bb
       -0.39183447 0.5338418 -0.1572651 -0.005859661
000390 77 a3 ac be 5e f4 cc bd b8 53 5c 3e f9 bc c6 3e
       -0.33718464 -0.10007547 0.21516311 0.3881605
0003a0 b0 cf 10 be b1 16 de bd c7 39 be be 79 bc 35 3c
       -0.14141726 -0.10844172 -0.37153456 0.011092299
0003b0 50 b4 b5 be e6 8b 91 bd f6 5e 93 3e 4f 53 2a 3e
       -0.3548913 -0.07106762 0.28783387 0.16633342
0003c0 07 26 75 be 54 86 bc bd 74 71 22 3e 00 7d 14 bf
       -0.23940288 -0.092053086 0.15863591 -0.58003235
0003d0 48 81 56 3e 0f e2 12 3e 80 a9 fb 3d b0 f3 c4 3c
       0.20947754 0.14344047 0.12288189 0.02404198
0003e0 c9 05 8a 3e 91 0d 90 bd d9 72 63 3e 43 6a 49 be
       0.2695754 -0.070338376 0.2221178 -0.19669442
0003f0 10 55 6f bf c6 32 d9 3d 04 5a 3e 3e 5e 7c 10 3f
       -0.9348917 0.106053874 0.18589026 0.5643977

gru.weight_hh_l1 f4 [384, 128]
000000 d5 a4 44 bd c7 e5 a7 3d 90 d7 b9 3d 86 e8 b4 bb
       -0.04800876 0.081981234 0.090743184 -0.005520883
000010 a7 df ae 3d 92 8d 2f 3e cb 71 1b 3e 07 b8 a7 bd
       0.08538752 0.17143849 0.15180127 -0.08189397
000020 bb eb 83 be ff 45 cc bd fa 92 4d 3e 81 1e d4 bc
       -0.25765786 -0.09974288 0.20075598 -0.025893452
000030 e2 ac 88 bd 7c ce c9 3c 3a c1 cb 3c 83 a6 43 be
       -0.066736 0.024634592 0.024872411 -0.19106488
000040 ab 8b 18 be f8 3f ba 3d 89 19 a7 3d 58 ff 09 be
       -0.14897029 0.09094232 0.08159167 -0.13476312
000050 d6 ec 12 be d3 96 3e bd ea ef 91 bd 84 9f 3e 3d
       -0.14348158 -0.046530556 -0.07125838 0.046538845
000060 3c 51 0a 3e 05 b4 c5 bd 4d 92 82 bc 9f 49 1a bd
       0.13507551 -0.096534766 -0.015938902 -0.037667867
000070 75 4f e7 3d 9d 55 c3 3b e5 9a b4 bd 58 12 f5 3d
       0.11294452 0.0059611336 -0.08818606 0.119663894
000080 84 08 69 be c3 96 1f bd 08 da 87 bd f5 32 46 3d
       -0.22757155 -0.038962137 -0.06633383 0.04838844
000090 03 f9 8f 3c b4 3f 6c be 18 0f 87 bd 31 8a 8d bd
       0.017574793 -0.23071176 -0.06594676 -0.069111235
0000a0 61 c3 b5 bd aa 53 61 3d 5b 53 b8 3b a8 a8 d3 3d
       -0.08875156 0.05501143 0.005625171 0.10334903
0000b0 b3 2f bc 3d 16 19 2d 3d 77 19 f0 bc 2b c2 cd 3d
       0.091887854 0.042260252 -0.029309018 0.100468
0000c0 ee 7f bf be fb 22 87 3d 71 7a 95 bd 83 8f ba 3d
       -0.3740229 0.06598469 -0.072987445 0.09109404
0000d0 8d 63 12 be b9 b3 36 be 9e bc b2 3b a0 e5 bc 3c
       -0.14295788 -0.17841996 0.005454614 0.023058712
0000e0 6f 3e c9 bd 1f 23 39 be ed e0 85 bc 25 2b 11 3e
       -0.098263614 -0.18079804 -0.016342605 0.14176615
0000f0 af b4 88 bd 04 d1 3e be 43 21 9a 3d c6 17 09 3e
       -0.06675088 -0.1863442 0.075258754 0.13387975
000100 57 ba b9 3d 86 65 97 3d 26 8d ae bd e1 fb d5 bd
       0.09068745 0.07392411 -0.08523016 -0.10448433
000110 7f 38 24 3e 40 26 f3 3d 7f d7 0e be a1 e1 28 be
       0.16037177 0.1187253 -0.13949393 -0.1649232
000120 47 f7 4e 3d 32 1d 7c be bc 5b f9 3d 9f 23 a1 bc
       0.05052879 -0.24620512 0.121757 -0.019670306
000130 5a e2 50 3d b3 5a 2e 3d 47 24 e8 3d 77 0a 39 bd
       0.050997116 0.042566966 0.11335044 -0.045175996
000140 e4 7d df bd 58 1f 18 be 44 f0 34 3e 11 88 7d bd
       -0.109126836 -0.14855707 0.17669779 -0.06189734
000150 9a fa 8f 3d ab b4 0d be 81 e9 ef bd 09 d9 a7 bc
       0.0703022 -0.1383845 -0.11714459 -0.020489233
000160 fa 5e 84 3c d2 d1 e4 bc bf 51 45 bd e3 38 cc bd
       0.01615857 -0.027932081 -0.048173662 -0.09971788
000170 53 48 29 be 72 27 e5 bc a5 34 62 3d 28 8d 2b 3d
       -0.16531496 -0.02797291 0.055225987 0.041882664
000180 f4 e5 8c bd 4e 1f 8a 3b a4 44 bd 3d f2 27 b5 3d
       -0.068797976 0.0042151576 0.09241608 0.088455096
000190 05 b0 38 3d ac 38 fe bc 84 28 99 3d bb 9e 6b 3c
       0.04508974 -0.031032883 0.07478431 0.014381106
0001a0 92 fd 42 be 6a 74 b9 3d 98 54 34 3e 7d 4c cf bd
       -0.19042042 0.09055407 0.17610395 -0.10122011
0001b0 bc ae 74 3d 05 3b 8f 3d fe 34 64 bd 57 22 0c 3c
       0.059736952 0.06993679 -0.0557146 0.008553109
0001c0 b6 89 c8 3d 85 4c d2 bd 7d c0 a1 3d e4 4a e1 3d
       0.09791891 -0.10268501 0.07898042 0.110006124
0001d0 11 a1 01 be c0 7d d1 3d 57 f4 a3 bd fb 9a 21 be
       -0.12659098 0.10229063 -0.080055885 -0.15781777
0001e0 7b 22 1d be a9 a9 2c bd 4c 51 12 3e 78 f4 7b bd
       -0.15345185 -0.042153988 0.14288825 -0.06151244
0001f0 7b 76 7a bd 44 d6 7a bd 87 a0 ea bd 19 cf 71 3d
       -0.061148148 -0.061239496 -0.114563994 0.059035394
000200 82 a9 7e bd 9c 32 d5 be 9f f2 56 3e 9e 09 ed 3d
       -0.062173374 -0.41640174 0.2099099 0.115741
000210 e5 3c a7 bd 63 10 72 3d cd 6e f2 bd 5f 9f 53 3d
       -0.081659116 0.05909766 -0.1183754 0.05166566
000220 4a ca 99 3d a2 1d ca bd ae fe 9a be e3 df 33 3e
       0.07509287 -0.09868933 -0.3027243 0.17565875
000230 07 cc 16 3e f2 ec f2 be 96 91 92 3d b7 d5 bb 3d
       0.14726268 -0.474464 0.071566746 0.09171622
000240 51 cc 45 3e 6f 20 0d bd 43 96 6d be 98 8c 47 be
       0.19316222 -0.03445476 -0.23201852 -0.19487226
000250 c4 14 38 3e 10 b0 0d 3e 94 a8 10 be bd 5b 34 be
       0.17976671 0.13836694 -0.14126807 -0.1761312
000260 43 ca 03 be 84 6c 48 3e 75 27 87 3d 51 09 38 3e
       -0.12870125 0.19572645 0.06599323 0.17972304
000270 f5 18 36 3e ff de fe bd 1b 28 89 3d b3 c3 de 3d
       0.17782958 -0.12444877 0.06697103 0.108771704
000280 e4 2a 91 3e 6e 2c a4 3e 00 ba 17 be 76 85 47 3e
       0.28353035 0.32065147 -0.14817047 0.19484505
000290 35 2c 26 be 66 60 ed 3d fc 24 5b 3d 7f ad 32 be
       -0.16227801 0.11590652 0.053502068 -0.17448996
0002a0 5e af 34 3e d4 cc 77 be e8 62 25 bc 90 14 9e be
       0.17645022 -0.2419923 -0.010094382 -0.30875063
0002b0 de 99 53 3d 6a f8 9d bb bc 0c 05 3e d6 55 0a 3d
       0.05166041 -0.004820873 0.12993139 0.033773266
0002c0 2e 24 bb bd 51 6d fd bc 70 61 52 3e b2 3c a8 3d
       -0.0913776 -0.030935915 0.20544982 0.08214702
0002d0 2d c3 13 be 9f 53 24 be c7 3d 3b 3d 00 4e cb 3d
       -0.14429922 -0.16047524 0.045713212 0.09926987
0002e0 fd 51 1c 3e e8 9d 81 3d 98 00 4a 3e b1 f6 d7 bd
       0.15265651 0.06328946 0.19726789 -0.105450995
0002f0 78 49 b4 bc 9a 44 46 3d 84 c5 08 bd d8 28 aa bd
       -0.022007689 0.048405267 -0.03339149 -0.083085716
000300 82 06 f9 bd 51 9c 75 bd 32 d0 8f bc 7c 93 13 be
       -0.121594444 -0.059963528 -0.01755533 -0.1441173
000310 32 dd 14 3d e1 5f aa bc b5 d2 d1 3d 85 62 6b be
       0.03634376 -0.020797672 0.10245267 -0.22986801
000320 f8 f8 c4 bc d4 2a 62 3e 84 a9 e5 b9 f1 6e b7 3d
       -0.024044499 0.2208665 -0.00043804583 0.08956707
000330 7d 0e 5c bc 12 1d 25 bd 1f e2 96 bd 4a df c8 3d
       -0.013431189 -0.040310927 -0.07367348 0.09808214
000340 b6 8f 3b bd a5 cd f2 bd 00 18 39 be 38 a6 25 be
       -0.04579135 -0.1185563 -0.18075562 -0.16176689
000350 58 83 ba bd 5d bf 57 3e 18 b1 fc bc 90 63 c6 bd
       -0.09107083 0.21069093 -0.030846164 -0.09686959
000360 13 c3 52 3e c2 7e 15 3d 08 bd 6b 3e ad 57 8e bd
       0.20582227 0.03649784 0.23021328 -0.069503166
000370 6c 07 c9 bd fb 5c c0 3d 6e e2 a2 bd 33 21 2e 3e
       -0.09815869 0.093927346 -0.07953344 0.17004852
000380 f8 8a fa 3d 8b c2 01 3e a9 e5 26 be 65 37 b8 bd
       0.122335374 0.12671869 -0.16298546 -0.08994941
000390 c2 a4 ea bd 05 0a b0 3e 7c 85 4b 3e d4 23 5c be
       -0.11457206 0.34382644 0.19875139 -0.21498042
0003a0 08 8e 16 3e a5 fe 51 3e b0 a3 18 3e a0 e9 3f bd
       0.14702618 0.20507295 0.14906192 -0.04685366
0003b0 52 ea 42 3d 96 8f b4 3d d0 cb f8 bc a0 e3 af 3b
       0.047586747 0.08816449 -0.030370623 0.005367711
0003c0 10 d1 4a bd ce 8f 21 bd b1 5a c0 3d a8 b7 f9 3d
       -0.049515784 -0.039443783 0.09392298 0.12193233
0003d0 3f 9b 58 bd 69 5f c5 3d e5 d7 98 3d e4 4b 3c 3e
       -0.05288243 0.09637339 0.074630536 0.18388325
0003e0 db 46 a5 bd 15 a2 47 3e ea 2d 9c bd 83 db 5a 3e
       -0.08070155 0.19495423 -0.07625945 0.213728
0003f0 a8 bf 0b 3a 65 f7 8c 3d 52 9e 26 3d b1 1f 46 be
       0.0005330988 0.06883124 0.04067833 -0.19348027

gru.bias_ih_l1 f4 [384]
000000 35 75 2c 3c 03 65 05 bc 76 97 f9 3d 95 13 35 be
       0.010525991 -0.008141759 0.12187092 -0.17683251
000010 3b 26 5b 3c 9b 46 07 bd 0e d7 51 bc 28 7c 5b 3d
       0.013375814 -0.03302632 -0.012807621 0.0535852
000020 86 77 26 be b8 88 dc bc 8f 73 7d bc 04 22 fe bd
       -0.16256532 -0.026920661 -0.015469446 -0.12408832
000030 23 ce 23 be e3 3f 4e 3d 69 53 89 bd a7 ca 91 bd
       -0.15996604 0.050353896 -0.06705362 -0.07118731
000040 5b 6a c6 bc 00 e0 17 be 7b 4d 92 3e d6 a8 f9 bd
       -0.024220636 -0.14831543 0.28574738 -0.12190406
000050 0a ff 06 bd f2 ab 47 be bc 97 56 3d 5e ef 26 be
       -0.032958068 -0.19499186 0.0523908 -0.16302249
000060 4d 5a 80 3c 01 24 e9 bd ce 7c 32 be 6a da 4f bd
       0.015668059 -0.1138382 -0.17430422 -0.050745405
000070 fb ee ca 3d 2c 64 bd bd e5 ce b7 3d 9a 12 2d bc
       0.09908863 -0.09247622 0.08975009 -0.010563517
000080 f3 7c 03 be 5e 2c 03 bd 74 f6 73 bd d1 f6 df bc
       -0.12840633 -0.032024734 -0.059561208 -0.02733937
000090 f5 e0 fe 3a 3d de ba bd 13 a1 19 be 8c 46 f0 bd
       0.0019445705 -0.0912442 -0.15002851 -0.11732206
0000a0 13 a1 89 3d d4 6d de bc f0 95 72 3c 87 56 97 3e
       0.067201756 -0.02715198 0.014806256 0.29558203
0000b0 4b ae 44 be 34 46 f0 3c ae 7b b8 3c 2a db 25 3d
       -0.19207112 0.02933035 0.022519913 0.040492214
0000c0 cc cd 19 be d7 e0 16 3e df 15 17 be 0c 90 4b 3d
       -0.15019912 0.14734207 -0.14754437 0.04969792
0000d0 51 21 e3 bd 6f f7 66 3c 9e 95 17 be 0b ef 1d 3e
       -0.11090339 0.014097079 -0.14803168 0.15423219
0000e0 1c d7 08 be 70 59 0d be ae 84 ee 3d 04 10 a5 3e
       -0.13363308 -0.13803649 0.116464004 0.3223878
0000f0 90 8a cc 3d ee 2e 4c bd 06 7b 8b 3c 1d 5e b0 bd
       0.09987366 -0.049849443 0.017026436 -0.08611701
000100 3d b6 8f 3d 01 46 2a 3e 5b be a9 bc 65 f8 6c 3d
       0.07017181 0.16628267 -0.020720651 0.057854075
000110 5f 89 08 be af 1b 94 3d 7a fe 9c 3d b5 e8 0b bd
       -0.13333653 0.07231843 0.07665725 -0.034157474
000120 5a e1 06 bd 98 cb 61 bd 87 11 2a 3e 37 a8 74 bc
       -0.032929756 -0.055125803 0.16608249 -0.014932684
000130 79 d2 e5 3d 9b 64 d3 bd 5c 75 45 3e 64 3f 23 be
       0.11221785 -0.10321923 0.1928305 -0.1594215
000140 06 12 88 3d c9 56 b2 bd cb ef 8e 3b 5d a2 10 be
       0.06644063 -0.08707959 0.0043620816 -0.14124437
000150 82 b2 ac bd c8 f4 02 bd f4 38 68 be 6a de 0a bd
       -0.08432485 -0.031971723 -0.22677976 -0.033903517
000160 c8 82 ea 3d 92 65 e6 3d c8 fe 0b bd b9 b3 1d bd
       0.11450726 0.11249842 -0.034178525 -0.038501475
000170 7b c2 1c 3d 71 5a 78 be 7c 11 1a be 7f 03 61 bd
       0.03827141 -0.2425325 -0.15045732 -0.054934975
000180 32 8d 77 bd 84 9f 11 3d 07 07 7c bd 3b bd d0 3d
       -0.06043739 0.035552517 -0.06153014 0.10192343
000190 be dc 8b be b9 1a 30 3d 1a 71 90 bd be be 2a 3d
       -0.2731685 0.042994235 -0.070528224 0.041685812
0001a0 f7 6e b8 3d 99 bc 2d 3e d8 76 c9 bd f4 ce 9c bc
       0.0900554 0.16966476 -0.09837121 -0.019141652
0001b0 2b c7 f9 3b d1 f3 18 bd 04 df e0 3d f7 42 1e bd
       0.0076226196 -0.037341896 0.10980037 -0.03863808
0001c0 af 72 0e 3d b3 b5 b9 bd 44 22 33 be f1 f3 15 bd
       0.03477734 -0.090678595 -0.1749354 -0.036609594
0001d0 84 42 fe 3c 30 51 02 be f4 2c 81 bd 8e 0f 3f bd
       0.031037576 -0.12726283 -0.06307402 -0.046645693
0001e0 5e fb dd bd 78 c5 28 3e ef b1 78 bc 74 b0 7b be
       -0.1083896 0.16481578 -0.015179141 -0.2457903
0001f0 e8 48 79 3d 77 e9 3e be a5 3a 8a 3d c3 08 c4 3c
       0.060860544 -0.18643747 0.06749467 0.02392996
000200 b2 52 ef be c5 e8 95 be 5b b1 85 be 55 67 6d be
       -0.4674278 -0.29279152 -0.26111874 -0.2318395
000210 a2 58 bb be 10 60 f2 be d6 a7 89 be cc 61 07 bf
       -0.3659106 -0.47338915 -0.2688586 -0.528836
000220 91 08 c6 be 12 1f ef be 99 27 80 be ac 8b d1 be
       -0.3867841 -0.46703392 -0.2503021 -0.40926874
000230 f6 3c 58 be 18 82 86 be 67 22 c7 be 50 ea 84 be
       -0.21117005 -0.2627113 -0.38893434 -0.25960016
000240 2e e3 c2 be 12 18 f2 be fa e1 8c be 52 5c c0 be
       -0.3806395 -0.4728399 -0.27516156 -0.37570435
000250 c8 8e 9c be 1b 2c 28 bf 1d 34 24 bf d6 3b d9 be
       -0.30577683 -0.656923 -0.6414202 -0.42428464
000260 e4 f6 d7 be fb 38 ed be 5c 03 d5 be 7d 0b d2 be
       -0.4218055 -0.46332535 -0.41604125 -0.4102439
000270 b7 8f b6 be a2 83 06 bf 00 6a e7 be 18 ec 02 bf
       -0.3565652 -0.52544606 -0.4519806 -0.511415
000280 81 c6 02 bf 77 5d d7 be 38 89 fc be db 9c a3 be
       -0.5108414 -0.42063496 -0.4932344 -0.3195561
000290 9a cc 41 be 1c 2d ea be bc 39 25 bf ec 53 03 bf
       -0.18925706 -0.4573754 -0.6454122 -0.5129993
0002a0 74 01 57 be e1 83 5a be 38 37 c8 be 22 28 ed be
       -0.20996648 -0.2133937 -0.3910463 -0.4631968
0002b0 e0 65 65 be 2f e5 06 bf a6 d6 cf be c3 0d 01 bf
       -0.22402143 -0.52693456 -0.4059345 -0.50411624
0002c0 75 64 80 be 5f 09 05 bf b2 38 f0 be b2 96 a0 be
       -0.25076643 -0.51967424 -0.46918255 -0.3136497
0002d0 17 2a ea be 41 34 17 be 01 69 31 bf 24 f3 8b be
       -0.45735237 -0.14766027 -0.6930085 -0.2733394
0002e0 5b a2 09 bf fd 61 59 be 9b c4 d1 be e5 9f de be
       -0.5376336 -0.21228786 -0.4097031 -0.43481365
0002f0 76 8a 1b bf a0 83 89 be 9f a6 f6 be 26 02 b8 be
       -0.6075815 -0.26858234 -0.48173997 -0.3593914
000300 bd 62 a0 be eb 8f aa be 73 37 df be 6b 8e fa be
       -0.3132533 -0.33312926 -0.43596992 -0.4893678
000310 7a 20 0b bf e7 3d f2 be 29 db a3 be c5 5b 6d be
       -0.5434643 -0.47312853 -0.32003143 -0.23179539
000320 74 aa 1e bf 67 f6 e5 be 82 cf 9f be 3d 16 90 be
       -0.6197884 -0.44914553 -0.31213003 -0.28141966
000330 b2 64 b3 be 4e 5c 0f bf 64 2f 66 be 17 cf 1f bf
       -0.35037762 -0.5600022 -0.22479016 -0.6242537
000340 ba 36 06 bf 00 7e e7 be f2 78 25 bf 92 14 ce be
       -0.52427256 -0.45213318 -0.6463767 -0.4025007
000350 48 96 ea be c8 bc 8c be f9 28 58 be eb 5b cd be
       -0.4581778 -0.2748778 -0.2110938 -0.4010919
000360 c9 bb 86 be 64 a4 9c be 05 a9 4a be 71 5f 38 be
       -0.26315144 -0.3059417 -0.19791038 -0.18005158
000370 d5 c3 69 be 24 2c 03 bf 96 f6 ed be e4 cf 40 be
       -0.2282861 -0.5123923 -0.46477193 -0.18829304
000380 9f 3d 80 be 4a d6 7d be 0a 1b 01 bf 62 68 aa be
       -0.25047013 -0.24788776 -0.50431883 -0.33282763
000390 8e e2 04 bf 3b ea a4 be 50 05 9c be 93 eb d6 be
       -0.51908195 -0.32209954 -0.30472803 -0.41976604
0003a0 dc 45 b5 be cf 91 97 be 4b 9a 86 be bb 5e ff bd
       -0.3540486 -0.2960343 -0.2628959 -0.1246924
0003b0 d2 42 48 be 94 70 f3 be 6a bb fa be 1b 88 c1 be
       -0.1955674 -0.47546828 -0.4897111 -0.37799153
0003c0 45 9a 92 be 63 57 32 bf a6 ee 14 bf 32 9b e4 be
       -0.28633323 -0.6966459 -0.5817665 -0.44649655
0003d0 fc e2 f3 be 14 83 ed bd a5 f8 f0 be 13 92 a8 be
       -0.47634113 -0.11597267 -0.470647 -0.32923946
0003e0 26 cf b9 be 3e 7c 8c be 56 e1 bd be 2b 5f f0 be
       -0.36290854 -0.2743854 -0.3708598 -0.46947607
0003f0 f4 14 05 bf 94 af fd be d1 70 13 bf bd 36 f3 be
       -0.51985097 -0.49548018 -0.5759402 -0.475027
