model/gru_physics_epoch_20.pth (torch, 687480 bytes, 18 tensors)

gru.weight_ih_l0 f4 [384, 10]
000000 ad f4 3b bd 89 8a 0e 3d 24 f3 e9 3a 5c 98 ba 3d
       -0.045887638 0.034800086 0.0017848951 0.091110915
000010 21 9f 68 3d c0 c7 28 3c 09 cf ab 3d 59 61 e4 3c
       0.056792382 0.01030153 0.08389098 0.02787845
000020 ff 26 65 bd 5f 87 34 3d cb f4 c7 3c a6 49 03 bd
       -0.055945393 0.044074412 0.024408719 -0.03205266
000030 b6 0b 84 bd fb 3a 88 bc 91 1e 1b bc 15 26 6b bd
       -0.06447546 -0.016629687 -0.009467737 -0.057409365
000040 48 17 89 bd c2 c2 41 3c 5e a9 f7 3d aa 0a 1a bb
       -0.06693894 0.011826219 0.12092851 -0.0023504891
000050 0c df 6e bd f5 f6 e8 3d ef 97 08 bd 2e bb c1 ba
       -0.058318183 0.11375228 -0.03334802 -0.0014780515
000060 eb d6 a2 bd f2 a0 80 3d 59 6a b5 3d 8b e7 ee 3c
       -0.079511486 0.06280698 0.08858175 0.029163143
000070 95 2e dc bc 39 94 8a 3d 2f 79 d8 bd 24 36 c3 bd
       -0.02687768 0.067665525 -0.10569989 -0.09531811
000080 94 5d 9a bd c4 6b 99 3d 1a 8c 6b bc 13 c3 ec bd
       -0.0753738 0.07491258 -0.0143766645 -0.11560645
000090 ff ad 63 bc 2c 66 b3 bd 5c 03 a1 3d e6 d6 d5 3d
       -0.013896464 -0.08759722 0.07861969 0.10441379
0000a0 03 57 97 3d 7d 4b 9c bd af f4 bf 3d 95 f0 9f bc
       0.07389643 -0.07631586 0.093728416 -0.019523898
0000b0 01 88 71 bc 06 48 c3 bd 35 9e e1 bd 1e 36 9b 3c
       -0.0147418985 -0.09535222 -0.11016504 0.018946704
0000c0 2e 5f 95 3d 2d 20 00 3d cb 0a f5 3c 8b 63 92 bd
       0.07293545 0.031280685 0.029912373 -0.071478926
0000d0 e8 f0 b0 bc 98 c5 06 3c c1 22 57 bd 68 86 0e 3e
       -0.021599248 0.008225821 -0.05252338 0.1391846
0000e0 c1 e3 be 3c 68 89 e0 3d 55 99 e7 bc 0b cf 5d bc
       0.02330196 0.10963708 -0.028271357 -0.013538132
0000f0 ff e4 1e 3d 8b 48 4b bd e7 0d 19 3d f0 b1 13 3d
       0.038792606 -0.04962973 0.037366774 0.036058366
000100 a1 8d 89 bd 95 b0 dd bd c1 6f a0 bd 77 f9 75 3b
       -0.06716467 -0.10824696 -0.07833815 0.0037532726
000110 0d df 3b 3d 2a 9b f6 3d 15 81 06 be de 98 8e bd
       0.045867015 0.12041314 -0.13135178 -0.06962751
000120 39 41 51 bd 42 e5 0d 3c f1 f4 14 bd 56 80 5f bd
       -0.05108759 0.008660616 -0.036366407 -0.05456575
000130 18 f1 89 3c 24 4e 09 3d f3 57 a6 3c f4 c9 69 3b
       0.016838595 0.033521786 0.02030561 0.0035673352
000140 08 3a a2 3d a0 01 41 3d d7 ad 6c bd 8f be af bb
       0.07921225 0.04712069 -0.057782974 -0.0053632925
000150 31 46 99 bc 56 93 b9 3d 57 66 c5 3d d2 fa 06 bd
       -0.018710228 0.09061305 0.096386604 -0.032954045
000160 20 b2 7f bd fe 97 29 3d 39 2d 60 bc 1e 4e ce bd
       -0.062425733 0.041404717 -0.013682657 -0.100734934
000170 26 39 82 3d f6 e2 87 bd 4d 32 f0 bb 98 60 6e 3d
       0.063585564 -0.06635086 -0.007330215 0.058197588
000180 e4 2d ef bb 73 5e 8b 3c eb 0a b6 3d db f7 d6 bc
       -0.0072991718 0.01701281 0.08888801 -0.026241234
000190 39 3a 1a be 74 e3 f1 bc 59 4b 9d bd 69 76 da 3b
       -0.15061273 -0.029527403 -0.07680387 0.0066669476
0001a0 17 58 9f bd 50 5d b9 ba d3 77 ba 3d 09 0b 79 bd
       -0.07780474 -0.0014142189 0.09104886 -0.06080154
0001b0 42 d1 b3 bc 11 4c 02 bc 6e 7d ba 3c 7b a0 02 be
       -0.021950368 -0.007952706 0.022764888 -0.12756531
0001c0 63 ca db 3d 18 3c dd 3c 87 c9 90 bd cf 2c 9d 3d
       0.107319616 0.027006194 -0.07069688 0.07674562
0001d0 6f b2 85 3d a7 ed 72 bd 6b bf d8 bd fa 39 11 3d
       0.06528174 -0.059308674 -0.10583385 0.03545568
0001e0 cf fe 68 3d 82 1a 17 3e 3f c5 8d bc 67 34 72 bd
       0.05688363 0.14756206 -0.017305968 -0.059132006
0001f0 0a 46 fe 3b 1d 46 c1 3c 15 be e5 3d cf c7 17 bc
       0.007759814 0.023593003 0.11217896 -0.009263947
000200 28 00 dd bd 5b b8 ce 3c 52 f4 51 3d 97 c7 6a 3d
       -0.107910454 0.025234392 0.051258393 0.05731925
000210 f4 f1 bb bd 0f d5 22 bd 07 8a e1 bc c8 64 0f be
       -0.09177008 -0.03975397 -0.027531637 -0.14003289
000220 3e 7e a1 3c 31 90 bf bc 89 59 27 3d 9e 69 11 3e
       0.019713517 -0.023384186 0.04085687 0.14200446
000230 5c 0f 6d 3d 90 2b 26 bd 69 06 5b 3d dc 18 2b bc
       0.057875976 -0.04056889 0.05347291 -0.010442939
000240 a5 d7 46 3d 54 73 ed bc f9 15 cf 3c 03 70 2b 3c
       0.0485455 -0.028985657 0.025279032 0.010463717
000250 fd 82 40 3d 11 df c7 3d 93 32 67 3d ea c3 9d 3d
       0.04699992 0.097593434 0.056444716 0.07703383
000260 b8 67 c5 3c 34 eb 3b bd b7 89 5a 3d 23 0e b5 bd
       0.024097309 -0.045878604 0.05335399 -0.08840587
000270 29 32 c6 bc 2a 1d fd bc de 40 16 3d 8a 11 d7 3b
       -0.02419384 -0.030897696 0.036682956 0.00656337
000280 5f b9 82 3d be 62 76 bc bb eb b7 3d f6 80 46 3d
       0.06383013 -0.01503819 0.08980509 0.04846283
000290 01 81 8f 3d 34 d0 8e 3c e0 77 7e bd d0 c7 a9 bd
       0.070070274 0.017433263 -0.06212604 -0.08290064
0002a0 85 8c fa bb e3 cc 9d bd f2 7b 53 3d f5 79 36 3d
       -0.0076461458 -0.07705095 0.051631875 0.0445499
0002b0 05 13 39 bd 95 91 94 bd 33 c7 f4 3c 56 a3 4f bd
       -0.045184154 -0.0725433 0.029880142 -0.05069288
0002c0 66 a6 ab 3d fa 1f 05 3d 29 de 1c 3d 80 69 77 bd
       0.08381347 0.0325012 0.038297806 -0.060403347
0002d0 90 05 e0 3d bd b0 31 3c 9d 5f f3 bd 48 c6 82 3b
       0.10938561 0.01084536 -0.11883471 0.003990922
0002e0 02 37 99 3d 5f 96 8f bd 6b fe 08 bd c0 71 85 bd
       0.07481195 -0.07011103 -0.033445757 -0.06515837
0002f0 67 d6 8d bd c3 c7 ab 3d 9c 16 38 3e 87 95 d6 3c
       -0.069256596 0.08387711 0.17977375 0.026194347
000300 1c 73 96 3d b0 52 8f 3d a9 4c 93 3d c0 94 85 bd
       0.07346174 0.06998193 0.07192356 -0.065225124
000310 d0 2a 6d 3d 4b 46 db bb 1f 84 3b 3d 04 eb de bb
       0.057902157 -0.006691729 0.045780297 -0.0068029184
000320 66 8f ca 3d d6 90 48 bc bd ca ab bd 07 90 31 bd
       0.09890632 -0.012241563 -0.08388279 -0.043350246
000330 42 ea ea 3c 0c 47 af bd 13 7c 9a bd d3 ee cb bd
       0.028676156 -0.08558473 -0.075431965 -0.099576615
000340 33 08 41 bc 9d be a0 3d 5d 34 a5 3c fe 09 02 3e
       -0.01178174 0.078488566 0.02016657 0.12699124
000350 ec 0e 20 3d 95 e2 a3 bc 40 a6 a6 3d 89 aa 04 be
       0.03907673 -0.020005504 0.081371784 -0.12955679
000360 52 43 88 bd c8 bd 08 be 41 cd 93 3b 59 36 43 3d
       -0.06653465 -0.13353646 0.004510552 0.04765925
000370 66 af 11 3d 0b bd e3 bd eb 5f e6 bc 5c 4e ec b9
       0.035567664 -0.111200415 -0.02812191 -0.0004507181
000380 b0 2c 94 bd 31 9a a0 bc 06 e6 82 3c 21 ce e1 bd
       -0.07235086 -0.019604774 0.015978824 -0.11025644
000390 f8 97 d5 3d 85 80 29 bc 75 16 86 bc 62 9b 29 3e
       0.10429376 -0.010345583 -0.01636813 0.1656318
0003a0 77 4c 0e be 5b a6 77 3d 42 e8 c0 3d a2 41 6b bd
       -0.13896357 0.060461383 0.094193 -0.05743564
0003b0 d2 77 83 3d 85 2a 16 3d 69 71 ac bb 76 84 07 3c
       0.06419338 0.036661644 -0.005262543 0.008271327
0003c0 e3 e6 86 3c b3 70 02 bd 77 53 97 3e 99 6c 98 bc
       0.016467517 -0.03184576 0.29555866 -0.01860647
0003d0 a0 a4 55 bd e5 92 1c be 82 1d fe bd bf d1 1c be
       -0.05215895 -0.15290411 -0.12407972 -0.15314387
0003e0 2a c1 0f 3e 61 45 92 3d 19 bc 83 bc 45 a1 89 3d
       0.1403853 0.07142139 -0.016080903 0.06720213
0003f0 c2 40 df 3c 42 81 3f 3d c4 c2 af bd 74 c3 e3 3d
       0.027252559 0.04675413 -0.085820705 0.11121264

gru.weight_hh_l0 f4 [384, 128]
000000 fd ff 65 3d 80 af 19 3d ba 00 e6 3c 29 fa 24 bc
       0.056152333 0.037520885 0.028076518 -0.010069408
000010 da b5 fc bb df 56 32 bc f6 39 46 bd 21 2f 8a bb
       -0.007712108 -0.0108849695 -0.04839512 -0.004217044
000020 fd e4 00 bd 48 7b 24 bd df b6 e0 3b 9f dc d8 3b
       -0.03146838 -0.040156633 0.0068577374 0.006618097
000030 fc b0 fd 3c 3b fb ad 3d 32 04 b8 3d 9e 5d 9d 3c
       0.030968182 0.08495184 0.08985175 0.01920968
000040 79 4a 2e bd 2a e5 93 bd 0c 52 58 bd 1e 6f c6 bc
       -0.04255149 -0.07221444 -0.05281262 -0.024222907
000050 41 e7 ab bd cc 6e af bd 09 3e 8f bc b0 fb 30 3d
       -0.083937176 -0.08566055 -0.017485635 0.043208778
000060 70 66 8a bd a4 03 92 bc 6e 18 63 3d 6b 3f 64 bd
       -0.0675782 -0.017824002 0.05544322 -0.055724543
000070 d3 35 5e bd c2 ca 85 3d fd 57 7a bb 13 81 d5 bc
       -0.05425055 0.065328136 -0.0038199418 -0.026062524
000080 4f eb 9f 3d 0e 7c 3e bd e0 d9 82 3d 76 8a 7b 3d
       0.078085534 -0.046505027 0.063892126 0.061411344
000090 f7 83 a2 bc 1c fa 8b 3d df a7 93 3d e4 8c 07 bd
       -0.019838316 0.06834814 0.07209753 -0.03309335
0000a0 cf cc 8a 3d 1c 93 61 3d 18 e2 e6 3c aa d6 9a bc
       0.067773454 0.055071935 0.028183982 -0.018901188
0000b0 f9 30 af bd 8b dc 85 bd 84 f6 47 bd e6 86 b7 bc
       -0.08554263 -0.06536206 -0.04881908 -0.022403192
0000c0 c5 0d 01 bc 83 b8 f6 3c ef 07 65 3c a0 28 d8 bb
       -0.007876818 0.030117279 0.013978942 -0.0065966398
0000d0 4d 6a 8b 3d db 8e 5d 3d 3d 2b 85 3d 8f f7 a9 bb
       0.06807385 0.054091316 0.06502388 -0.005186982
0000e0 fc 70 8e bd e4 4f 85 3d a2 39 35 bd 81 4c 23 bd
       -0.06955144 0.065093786 -0.044244416 -0.03986788
0000f0 d5 a5 44 3d 8f ce 8a bd 9b 62 1e 3b 9a fe 1b bd
       0.048009712 -0.06777679 0.002416766 -0.038084604
000100 0e 4c 6b bd bb af 29 bd a5 63 c3 37 97 22 6e bc
       -0.05744558 -0.041427355 2.3292212e-05 -0.014534614
000110 a2 ea dd 3c 31 92 71 3d 64 32 22 3c bc f0 d9 bc
       0.02708942 0.05897731 0.009899709 -0.026604049
000120 17 f8 82 3a 7f 46 22 bd db 83 c4 3c 1d eb 50 3d
       0.000999215 -0.03961801 0.023988655 0.05100547
000130 71 6e a9 3d 57 01 8d 3d ae 6b 9e 3d da 56 f0 3c
       0.08273018 0.06885021 0.07735382 0.029338289
000140 98 94 04 3d 46 23 4e bd ee a6 69 ba 38 8d 30 bb
       0.032368273 -0.050326608 -0.0008913119 -0.0026939642
000150 ad bb bc bd c1 20 99 bc 4a 69 ee bb c0 52 5f bd
       -0.09215484 -0.018692376 -0.007275735 -0.054522276
000160 cd 1a 80 3d 62 21 7e bc 14 b8 23 bd bb c0 76 3d
       0.06255112 -0.015510889 -0.039970472 0.060242396
000170 24 8c c8 bc 25 44 64 bd d9 54 70 bd 52 75 fc bb
       -0.024480887 -0.05572905 -0.058674667 -0.0077044154
000180 b3 7a 78 3d 7d aa 9a 3c 61 5c 2e bd de 5f f6 3c
       0.06066389 0.018880123 -0.04256857 0.03007501
000190 e5 67 cf b9 d9 8b a8 3d c8 32 cc 3c b1 a0 8c 3c
       -0.00039559524 0.08229799 0.024926558 0.017166467
0001a0 57 66 74 bd d2 ff af bd 05 ea 40 3d 06 9a 11 bd
       -0.05966791 -0.08593716 0.04709818 -0.03554728
0001b0 4a 19 63 bc 3f 57 89 bd f7 38 4c 3d 42 bc 86 3d
       -0.01386101 -0.06706094 0.049859013 0.06578876
0001c0 d8 a5 7d 3c 26 2f 13 bb fa 51 30 3d cc 0e 01 bd
       0.015481435 -0.0022458523 0.04304693 -0.031508252
0001d0 82 be d2 bc 02 5b bb 3d b3 54 b0 3c c3 fa 1f 3d
       -0.025725607 0.09148218 0.021524763 0.039057504
0001e0 07 8c 15 3d 75 38 9f bd 3a 29 cc 3c a0 62 8b bb
       0.036510494 -0.0777444 0.024922002 -0.0042537004
0001f0 0a 25 6e 3c 59 f8 0a bd 3c c0 64 3d fc a5 34 3d
       0.014535198 -0.03392825 0.05584739 0.044103608
000200 e0 dd bb 3c f6 e0 a0 3d 0c 65 18 bd 0b 06 ea bc
       0.022932947 0.07855408 -0.03720574 -0.028567335
000210 ac b1 89 bd 31 e7 05 be 45 1b 08 be 23 f0 05 3b
       -0.06723341 -0.13076474 -0.13291653 0.0020437322
000220 98 3d 34 bd 19 9d 9d bc b6 f3 0b 3d bf 40 4f bd
       -0.044004053 -0.019239949 0.034167968 -0.050598856
000230 79 28 51 3b 13 a1 8b 3d 10 a0 49 3d 72 58 db 3c
       0.0031914993 0.06817832 0.049224913 0.026775572
000240 7c 54 24 3d 16 7b 71 3d 40 28 15 bd b0 d4 16 bd
       0.040119633 0.058955275 -0.03641534 -0.03682393
000250 4e 84 b7 bc a7 c5 8e 3d 71 65 a9 bc 3f 1f 25 bc
       -0.022401955 0.06971293 -0.020678254 -0.01007825
000260 65 20 88 bc dd d0 64 bd 93 47 b1 3d 18 b9 88 bd
       -0.01661701 -0.05586325 0.0865623 -0.06675929
000270 66 3a 60 3d 7c c1 7b 3c 22 2d d0 bc 94 77 3b bd
       0.054743193 0.0153659545 -0.025412146 -0.045768335
000280 7e 37 b8 bd b0 dc 20 bc 9e 09 8d 3d ef 54 e6 3c
       -0.08994959 -0.009818241 0.068866 0.028116671
000290 6d e0 cb bc ff b6 bc bd f7 f7 5b bd 60 b2 bc ba
       -0.024887288 -0.09214591 -0.053703275 -0.0014396422
0002a0 0c f3 52 bc 66 13 ee 3c 04 e0 18 3d 5b 4c cd 3d
       -0.01287533 0.029061984 0.037323013 0.10024329
0002b0 58 d2 a8 bb 18 33 95 3c 8c bc b8 bd 6e 24 e5 bc
       -0.005152028 0.01821284 -0.090203375 -0.027971473
0002c0 ff c6 a1 3c da eb 53 3d 13 74 94 bc c5 99 0e 3c
       0.019748209 0.051738597 -0.018121755 0.008703654
0002d0 e8 6e 5e bd c4 78 fe 3c 90 13 05 be f4 85 3e 3d
       -0.054304987 0.031063445 -0.12995744 0.046514466
0002e0 05 de 8f 3c f2 0a 01 bc d1 96 8b bd 2a d4 ef bc
       0.017561922 -0.007876145 -0.06815875 -0.029275972
0002f0 09 a7 76 3d 6c e9 6e 39 56 95 cb bd a9 c6 d2 bd
       0.06021789 0.00022784405 -0.09940593 -0.10291798
000300 ba ef 1b 3d e4 56 32 bd 83 ad 82 bd 3a 2a ab bd
       0.038070418 -0.043539897 -0.06380751 -0.083576635
000310 02 19 d8 bd e8 97 00 be 56 01 e7 3d a8 62 bb 3d
       -0.10551645 -0.12557948 0.11279552 0.091496766
000320 32 a0 d2 bb 43 80 9d bc bd 32 0f be 3d 1b 50 bd
       -0.006427788 -0.019226199 -0.13984199 -0.050807226
000330 6b 43 8c 3c 4d 79 84 bd c5 12 9f bc aa 83 ae 3d
       0.017121991 -0.06468449 -0.01941813 0.08521207
000340 21 5c 4f bc 4f d3 92 3c 49 ae ad 3d 38 3a 52 3d
       -0.012656243 0.017923025 0.08480508 0.051325053
000350 42 2c ba 3c de f6 04 bc 0b 2d d2 3c 78 71 28 bd
       0.022726182 -0.008115498 0.025656244 -0.041123837
000360 05 5b b8 bc 2d 81 54 3d 79 3f e5 bd 32 1d d8 bb
       -0.022504339 0.051881004 -0.11193747 -0.006595277
000370 58 99 fc 3b 02 37 a9 bd d8 c0 33 3c a4 2a a9 bd
       0.0077087097 -0.08262445 0.0109712705 -0.08260086
000380 3b df 26 3d 0d 83 cd 3b 75 7a f5 bd 88 72 66 3b
       0.040740233 0.006271726 -0.119862475 0.003516348
000390 ad 71 51 bd 96 da ab 3d dc b7 f4 3c 34 98 01 bd
       -0.0511338 0.08391301 0.029872827 -0.031639293
0003a0 f0 d8 4e 3d 3e c2 90 3d 31 09 54 bd d0 a1 a7 bb
       0.050499856 0.07068299 -0.051766578 -0.005115725
0003b0 b0 7a 0d 3d 55 00 64 bc 52 ad 84 bb 12 86 73 3d
       0.034540832 -0.013916095 -0.0040489817 0.05945403
0003c0 0e 8e 15 3a 7f 27 a2 3d 33 29 17 3d a7 f7 12 3c
       0.0005705067 0.079176895 0.036904525 0.008970178
0003d0 75 e7 8c bd 8d b4 2b 3d 55 30 19 be 13 2e 1b 3d
       -0.068800844 0.041920234 -0.14959843 0.037885737
0003e0 73 da 0e 3c b4 f5 9f 3c 40 77 8a bd a1 b3 a0 3d
       0.008719075 0.01952634 -0.067610264 0.078467615
0003f0 19 a5 89 3b d8 c2 f8 bb 6a 20 98 3c 9b a0 15 be
       0.0042005894 -0.0075915866 0.018570144 -0.14612047

gru.bias_ih_l0 f4 [384]
000000 db 0f 6b bb 40 31 cb 3c 36 92 87 bb 61 b1 f9 3c
       -0.0035867605 0.024803758 -0.0041373027 0.030480089
000010 48 a5 b1 3c b5 51 40 bd b1 60 96 bb 18 92 20 3b
       0.021685258 -0.046952922 -0.004589163 0.002450114
000020 dd a3 38 bd 40 fb ec bb 38 3f a6 bc 21 f3 ab 3b
       -0.045078147 -0.0072321 -0.020293817 0.005247489
000030 62 c2 00 bd 03 55 5d 3d 1e 57 45 3c 9a 08 87 b9
       -0.031435378 0.05403615 0.012044696 -0.00025755615
000040 9f fb 12 3c 51 de b2 bb 1b f6 0c 3d 2e 3e 2b b9
       0.008971124 -0.005458631 0.034414392 -0.00016330995
000050 4c bc 29 3d 16 c8 3f 3b 02 93 f1 3b b7 cd 14 bc
       0.04143934 0.0029263548 0.007372261 -0.009082249
000060 c0 8b 92 3d 8b 9a 9e bc 71 3f 90 3b 01 f1 9e 3d
       0.071555614 -0.019360801 0.004402094 0.077608116
000070 2c 2f 37 3d 4a e3 73 bc cf d1 66 3c 43 da e4 bc
       0.04472272 -0.014885733 0.014088108 -0.027936107
000080 c8 c6 07 3d 9f 49 e2 3c 5b b9 75 bc 42 5e 94 3d
       0.033148557 0.027622996 -0.0149978055 0.07244541
000090 94 1d 8b 3c ba c1 1a 3c b3 91 c4 bc 4f 9d 88 bd
       0.016981877 0.009445602 -0.023995256 -0.06670629
0000a0 4c c4 87 b7 07 41 b9 3c e4 ac 50 3d 6d 40 c7 3c
       -1.6184662e-05 0.022614015 0.05094613 0.024322713
0000b0 75 84 77 3d 01 be 46 3d 8d 12 2b 3b 9a f3 d6 bc
       0.060429055 0.048521046 0.0026103586 -0.026239205
0000c0 56 56 ee 3c 62 0a 26 ba 28 fd 9f 3c 57 05 30 3b
       0.029093903 -0.00063339446 0.019529894 0.0026858652
0000d0 c1 95 13 bc 0e 44 42 3d bc 10 61 bc d4 31 df bd
       -0.009007872 0.047428183 -0.0137369 -0.10898176
0000e0 b2 45 bb bb 18 8d b4 bc e7 08 e3 3c c9 5a 9c 3c
       -0.0057150954 -0.022039935 0.027714206 0.019086258
0000f0 c3 4b a8 3b 13 39 74 3c 2c b7 f0 3c 81 7c 3c 3d
       0.0051359846 0.014906186 0.029384218 0.046017174
000100 20 a2 5c 3c 03 ed e7 ba 0c da 09 3c 51 42 1d 3d
       0.013466388 -0.0017694536 0.008413803 0.038393322
000110 42 3e 2e 3d 8f 32 57 bd b4 ef 52 bd 62 b5 59 bc
       0.042539842 -0.05253845 -0.05149813 -0.013287874
000120 65 b2 65 3b 4a ea 52 3c 22 ee 20 3c 43 12 24 bc
       0.0035048958 0.012873242 0.0098224 -0.01001412
000130 f9 e1 29 bd 11 05 46 bc 79 ec 7b 3a eb 48 0f bd
       -0.04147527 -0.012086169 0.00096101273 -0.03498165
000140 91 bb 29 bd 79 56 8b 3b 95 af d0 3c 99 da e5 bc
       -0.041438643 0.0042522517 0.025474349 -0.028058337
000150 c2 ae 7c bc 24 4a eb 3b e2 32 18 bc bf ed ef ba
       -0.015422525 0.007180469 -0.009289475 -0.0018305107
000160 3e 65 c6 3c 0b 63 81 3d 72 e6 06 3d 95 1a d0 3c
       0.024218198 0.06317719 0.032934614 0.0254033
000170 2b 58 31 bb 51 05 88 bc c8 45 6c 3b 49 49 b7 ba
       -0.002706061 -0.016604098 0.0036052335 -0.0013983633
000180 00 81 30 ba 3b b8 84 3d 7c ee 7d 3d 3f 11 99 bc
       -0.00067330897 0.06480452 0.061995015 -0.018684981
000190 d8 c6 7b b9 b8 30 53 bc 42 54 76 ba 82 d6 44 bc
       -0.000240113 -0.012890033 -0.00093967107 -0.012014033
0001a0 71 cd 3c 3d 08 c4 e5 bb a2 7e 59 bc 6b 90 28 3c
       0.04609436 -0.007011894 -0.0132748205 0.010288338
0001b0 e7 84 81 3d 73 03 99 bc e8 7a 01 bd 37 fd a3 bc
       0.06324177 -0.018678403 -0.031611353 -0.020018203
0001c0 5d fc 5a 3c b9 8c cb 3c bc 40 d5 3d f3 6d d1 39
       0.013365832 0.024847375 0.10412738 0.00039945505
0001d0 36 57 e4 bb 57 f7 49 3d b7 97 9a 3d 1f 07 48 bb
       -0.006968404 0.049308147 0.075484686 -0.0030521823
0001e0 e7 bf 57 3d ea 82 28 3c 16 50 4f 38 cf 87 18 bd
       0.052673247 0.010285119 4.942723e-05 -0.037238892
0001f0 d5 b9 25 3d eb f0 5a 3d 59 4a 15 3c cd a7 9b 3d
       0.040460426 0.053452414 0.009111964 0.07600365
000200 bc a0 61 3d c7 22 c1 bd 09 61 56 3e c1 61 da bd
       0.05508493 -0.094304614 0.20935453 -0.10663176
000210 5a ec 80 3e b4 ad 2d be b1 f5 fd bd 26 99 3d 3e
       0.25180322 -0.16960794 -0.124003775 0.18515453
000220 5d ba 99 3d fc e9 54 3e af c5 0c be e2 1f 8f be
       0.07506249 0.20792383 -0.13747285 -0.27954012
000230 d8 a0 4f bd 8b 8b 4c 3e 00 27 df bd 7f 84 a0 3e
       -0.050690502 0.19975106 -0.108961105 0.31351086
000240 bb 2f c2 3d 4e c2 00 3d 0d a8 e4 bd 9e b4 f5 bd
       0.0948176 0.031435303 -0.11164866 -0.119973406
000250 90 98 58 3d ab 95 d0 bd ad 71 3c 3d 3c 37 f5 3d
       0.05287987 -0.10184797 0.046006847 0.11973426
000260 87 a6 42 be 98 75 00 3e 9f 6f c9 3d 2c c4 e1 bd
       -0.19008838 0.12544858 0.09835743 -0.11023745
000270 4f 60 34 be a4 fa 89 be 33 ba 6f be dc fc 1a 3e
       -0.17614864 -0.26949036 -0.23410873 0.1513552
000280 89 c5 98 3c ce 18 a8 bd b1 c6 4d 3d 9d 4f df bd
       0.01864888 -0.08207856 0.050238315 -0.10903857
000290 3e 11 5c 3e 66 7e 1e 3e 9b 36 db bd 90 ba 95 bd
       0.21490952 0.15477905 -0.107037745 -0.073109746
0002a0 13 12 8e 3e 57 a1 df bd 52 3e fa 3d 47 4e 48 be
       0.27748165 -0.10919445 0.12218918 -0.1956111
0002b0 11 0e 7e be 40 af d7 bb 32 70 45 be d5 54 12 bd
       -0.24810053 -0.0065821707 -0.1928108 -0.035725433
0002c0 17 7c 0e be 41 53 7f 3e 9f fb 07 be 9b 5d 6c 3e
       -0.13914524 0.24934103 -0.1327958 0.23082583
0002d0 9d f7 17 be c8 2f 5c be 07 cd 35 be 9e 3a 15 be
       -0.1484055 -0.21502602 -0.17753993 -0.14573142
0002e0 68 6e 61 3d db 63 4b 3d 7d b8 c1 bd b8 1f 31 be
       0.055036932 0.049655776 -0.094590165 -0.17297256
0002f0 34 76 2a be 29 0f c6 3d b4 d3 0b 3d e9 63 57 be
       -0.16646653 0.0967086 0.034137443 -0.21034206
000300 3e 4b a0 3d 07 3b dc 3c 4d c3 7d 3d 54 ef da bd
       0.07826851 0.026883615 0.06195383 -0.106901795
000310 51 09 89 be f5 7f 04 be dd 22 2f be 73 71 82 3e
       -0.2676492 -0.12939437 -0.17103143 0.2547718
000320 9b e4 4e 3e b2 a7 7b 3e 02 61 54 be af 5e 64 be
       0.20204394 0.2457569 -0.2074013 -0.22301744
000330 31 9e 38 be f4 34 35 3e 3a ce 97 3e 2f 9d 9c 3d
       -0.18029095 0.17695981 0.29649526 0.07647168
000340 a7 f9 73 be b7 e5 94 3e 7d 24 0c be 24 9e 7f be
       -0.23825704 0.2908151 -0.13685794 -0.2496267
000350 83 56 12 3e 68 dd 18 bc 74 82 6f 3d 96 25 12 3e
       0.14290814 -0.009330131 0.05847402 0.1427215
000360 c3 f8 66 be e9 62 0e be c0 86 07 3e 7d 6c 03 be
       -0.22555833 -0.13904919 0.13234997 -0.12834354
000370 7c 16 1e 3e 56 7e 61 be 6f 99 64 be 8e ec 16 3e
       0.15438265 -0.2202085 -0.22324155 0.14738676
000380 85 8c 79 be 93 00 69 be 8f b0 34 3d d8 c4 a9 bd
       -0.2437001 -0.22754125 0.044113692 -0.08289498
000390 6f ad b0 3d 06 29 13 3e 5d 3d e8 3d 55 8a 3c be
       0.0862683 0.14371118 0.11339829 -0.18412144
0003a0 d9 8d 05 be b4 b5 c4 3d 72 7f 94 3e 38 8b b8 3d
       -0.13042392 0.096049696 0.29003483 0.09010929
0003b0 89 6c 5b be 41 33 29 be 43 ba ec bd 16 20 aa 3c
       -0.21428122 -0.16523458 -0.11558964 0.020767253
0003c0 5d 4c 90 bd 3d ab 7e be ba d4 79 3c 99 9b 0a 3e
       -0.07045815 -0.2487001 0.015248472 0.13535918
0003d0 80 cd 81 be d7 22 25 3e c4 54 39 be 39 20 4b 3e
       -0.25352097 0.16126572 -0.18098742 0.1983651
0003e0 b3 2e fe 3c 9c 3e cb bd f3 ab db bd 20 25 96 3e
       0.031028127 -0.09924051 -0.10726156 0.293252
0003f0 e4 9c 4c 3e 4b 7d 06 3e 00 52 00 be 8a c0 a5 bd
       0.19981724 0.13133733 -0.1253128 -0.080933645

gru.bias_hh_l0 f4 [384]
000000 db 0f 6b bb 40 31 cb 3c 36 92 87 bb 61 b1 f9 3c
       -0.0035867605 0.024803758 -0.0041373027 0.030480089
000010 48 a5 b1 3c b5 51 40 bd b1 60 96 bb 18 92 20 3b
       0.021685258 -0.046952922 -0.004589163 0.002450114
000020 dd a3 38 bd 40 fb ec bb 38 3f a6 bc 21 f3 ab 3b
       -0.045078147 -0.0072321 -0.020293817 0.005247489
000030 62 c2 00 bd 03 55 5d 3d 1e 57 45 3c 9a 08 87 b9
       -0.031435378 0.05403615 0.012044696 -0.00025755615
000040 9f fb 12 3c 51 de b2 bb 1b f6 0c 3d 2e 3e 2b b9
       0.008971124 -0.005458631 0.034414392 -0.00016330995
000050 4c bc 29 3d 16 c8 3f 3b 02 93 f1 3b b7 cd 14 bc
       0.04143934 0.0029263548 0.007372261 -0.009082249
000060 c0 8b 92 3d 8b 9a 9e bc 71 3f 90 3b 01 f1 9e 3d
       0.071555614 -0.019360801 0.004402094 0.077608116
000070 2c 2f 37 3d 4a e3 73 bc cf d1 66 3c 43 da e4 bc
       0.04472272 -0.014885733 0.014088108 -0.027936107
000080 c8 c6 07 3d 9f 49 e2 3c 5b b9 75 bc 42 5e 94 3d
       0.033148557 0.027622996 -0.0149978055 0.07244541
000090 94 1d 8b 3c ba c1 1a 3c b3 91 c4 bc 4f 9d 88 bd
       0.016981877 0.009445602 -0.023995256 -0.06670629
0000a0 4c c4 87 b7 07 41 b9 3c e4 ac 50 3d 6d 40 c7 3c
       -1.6184662e-05 0.022614015 0.05094613 0.024322713
0000b0 75 84 77 3d 01 be 46 3d 8d 12 2b 3b 9a f3 d6 bc
       0.060429055 0.048521046 0.0026103586 -0.026239205
0000c0 56 56 ee 3c 62 0a 26 ba 28 fd 9f 3c 57 05 30 3b
       0.029093903 -0.00063339446 0.019529894 0.0026858652
0000d0 c1 95 13 bc 0e 44 42 3d bc 10 61 bc d4 31 df bd
       -0.009007872 0.047428183 -0.0137369 -0.10898176
0000e0 b2 45 bb bb 18 8d b4 bc e7 08 e3 3c c9 5a 9c 3c
       -0.0057150954 -0.022039935 0.027714206 0.019086258
0000f0 c3 4b a8 3b 13 39 74 3c 2c b7 f0 3c 81 7c 3c 3d
       0.0051359846 0.014906186 0.029384218 0.046017174
000100 20 a2 5c 3c 03 ed e7 ba 0c da 09 3c 51 42 1d 3d
       0.013466388 -0.0017694536 0.008413803 0.038393322
000110 42 3e 2e 3d 8f 32 57 bd b4 ef 52 bd 62 b5 59 bc
       0.042539842 -0.05253845 -0.05149813 -0.013287874
000120 65 b2 65 3b 4a ea 52 3c 22 ee 20 3c 43 12 24 bc
       0.0035048958 0.012873242 0.0098224 -0.01001412
000130 f9 e1 29 bd 11 05 46 bc 79 ec 7b 3a eb 48 0f bd
       -0.04147527 -0.012086169 0.00096101273 -0.03498165
000140 91 bb 29 bd 79 56 8b 3b 95 af d0 3c 99 da e5 bc
       -0.041438643 0.0042522517 0.025474349 -0.028058337
000150 c2 ae 7c bc 24 4a eb 3b e2 32 18 bc bf ed ef ba
       -0.015422525 0.007180469 -0.009289475 -0.0018305107
000160 3e 65 c6 3c 0b 63 81 3d 72 e6 06 3d 95 1a d0 3c
       0.024218198 0.06317719 0.032934614 0.0254033
000170 2b 58 31 bb 51 05 88 bc c8 45 6c 3b 49 49 b7 ba
       -0.002706061 -0.016604098 0.0036052335 -0.0013983633
000180 00 81 30 ba 3b b8 84 3d 7c ee 7d 3d 3f 11 99 bc
       -0.00067330897 0.06480452 0.061995015 -0.018684981
000190 d8 c6 7b b9 b8 30 53 bc 42 54 76 ba 82 d6 44 bc
       -0.000240113 -0.012890033 -0.00093967107 -0.012014033
0001a0 71 cd 3c 3d 08 c4 e5 bb a2 7e 59 bc 6b 90 28 3c
       0.04609436 -0.007011894 -0.0132748205 0.010288338
0001b0 e7 84 81 3d 73 03 99 bc e8 7a 01 bd 37 fd a3 bc
       0.06324177 -0.018678403 -0.031611353 -0.020018203
0001c0 5d fc 5a 3c b9 8c cb 3c bc 40 d5 3d f3 6d d1 39
       0.013365832 0.024847375 0.10412738 0.00039945505
0001d0 36 57 e4 bb 57 f7 49 3d b7 97 9a 3d 1f 07 48 bb
       -0.006968404 0.049308147 0.075484686 -0.0030521823
0001e0 e7 bf 57 3d ea 82 28 3c 16 50 4f 38 cf 87 18 bd
       0.052673247 0.010285119 4.942723e-05 -0.037238892
0001f0 d5 b9 25 3d eb f0 5a 3d 59 4a 15 3c cd a7 9b 3d
       0.040460426 0.053452414 0.009111964 0.07600365
000200 bc a0 61 3d c7 22 c1 bd 09 61 56 3e c1 61 da bd
       0.05508493 -0.094304614 0.20935453 -0.10663176
000210 5a ec 80 3e b4 ad 2d be b1 f5 fd bd 26 99 3d 3e
       0.25180322 -0.16960794 -0.124003775 0.18515453
000220 5d ba 99 3d fc e9 54 3e af c5 0c be e2 1f 8f be
       0.07506249 0.20792383 -0.13747285 -0.27954012
000230 d8 a0 4f bd 8b 8b 4c 3e 00 27 df bd 7f 84 a0 3e
       -0.050690502 0.19975106 -0.108961105 0.31351086
000240 bb 2f c2 3d 4e c2 00 3d 0d a8 e4 bd 9e b4 f5 bd
       0.0948176 0.031435303 -0.11164866 -0.119973406
000250 90 98 58 3d ab 95 d0 bd ad 71 3c 3d 3c 37 f5 3d
       0.05287987 -0.10184797 0.046006847 0.11973426
000260 87 a6 42 be 98 75 00 3e 9f 6f c9 3d 2c c4 e1 bd
       -0.19008838 0.12544858 0.09835743 -0.11023745
000270 4f 60 34 be a4 fa 89 be 33 ba 6f be dc fc 1a 3e
       -0.17614864 -0.26949036 -0.23410873 0.1513552
000280 89 c5 98 3c ce 18 a8 bd b1 c6 4d 3d 9d 4f df bd
       0.01864888 -0.08207856 0.050238315 -0.10903857
000290 3e 11 5c 3e 66 7e 1e 3e 9b 36 db bd 90 ba 95 bd
       0.21490952 0.15477905 -0.107037745 -0.073109746
0002a0 13 12 8e 3e 57 a1 df bd 52 3e fa 3d 47 4e 48 be
       0.27748165 -0.10919445 0.12218918 -0.1956111
0002b0 11 0e 7e be 40 af d7 bb 32 70 45 be d5 54 12 bd
       -0.24810053 -0.0065821707 -0.1928108 -0.035725433
0002c0 17 7c 0e be 41 53 7f 3e 9f fb 07 be 9b 5d 6c 3e
       -0.13914524 0.24934103 -0.1327958 0.23082583
0002d0 9d f7 17 be c8 2f 5c be 07 cd 35 be 9e 3a 15 be
       -0.1484055 -0.21502602 -0.17753993 -0.14573142
0002e0 68 6e 61 3d db 63 4b 3d 7d b8 c1 bd b8 1f 31 be
       0.055036932 0.049655776 -0.094590165 -0.17297256
0002f0 34 76 2a be 29 0f c6 3d b4 d3 0b 3d e9 63 57 be
       -0.16646653 0.0967086 0.034137443 -0.21034206
000300 3e 4b a0 3d 07 3b dc 3c 4d c3 7d 3d 54 ef da bd
       0.07826851 0.026883615 0.06195383 -0.106901795
000310 51 09 89 be f5 7f 04 be dd 22 2f be 73 71 82 3e
       -0.2676492 -0.12939437 -0.17103143 0.2547718
000320 9b e4 4e 3e b2 a7 7b 3e 02 61 54 be af 5e 64 be
       0.20204394 0.2457569 -0.2074013 -0.22301744
000330 31 9e 38 be f4 34 35 3e 3a ce 97 3e 2f 9d 9c 3d
       -0.18029095 0.17695981 0.29649526 0.07647168
000340 a7 f9 73 be b7 e5 94 3e 7d 24 0c be 24 9e 7f be
       -0.23825704 0.2908151 -0.13685794 -0.2496267
000350 83 56 12 3e 68 dd 18 bc 74 82 6f 3d 96 25 12 3e
       0.14290814 -0.009330131 0.05847402 0.1427215
000360 c3 f8 66 be e9 62 0e be c0 86 07 3e 7d 6c 03 be
       -0.22555833 -0.13904919 0.13234997 -0.12834354
000370 7c 16 1e 3e 56 7e 61 be 6f 99 64 be 8e ec 16 3e
       0.15438265 -0.2202085 -0.22324155 0.14738676
000380 85 8c 79 be 93 00 69 be 8f b0 34 3d d8 c4 a9 bd
       -0.2437001 -0.22754125 0.044113692 -0.08289498
000390 6f ad b0 3d 06 29 13 3e 5d 3d e8 3d 55 8a 3c be
       0.0862683 0.14371118 0.11339829 -0.18412144
0003a0 d9 8d 05 be b4 b5 c4 3d 72 7f 94 3e 38 8b b8 3d
       -0.13042392 0.096049696 0.29003483 0.09010929
0003b0 89 6c 5b be 41 33 29 be 43 ba ec bd 16 20 aa 3c
       -0.21428122 -0.16523458 -0.11558964 0.020767253
0003c0 5d 4c 90 bd 3d ab 7e be ba d4 79 3c 99 9b 0a 3e
       -0.07045815 -0.2487001 0.015248472 0.13535918
0003d0 80 cd 81 be d7 22 25 3e c4 54 39 be 39 20 4b 3e
       -0.25352097 0.16126572 -0.18098742 0.1983651
0003e0 b3 2e fe 3c 9c 3e cb bd f3 ab db bd 20 25 96 3e
       0.031028127 -0.09924051 -0.10726156 0.293252
0003f0 e4 9c 4c 3e 4b 7d 06 3e 00 52 00 be 8a c0 a5 bd
       0.19981724 0.13133733 -0.1253128 -0.080933645

gru.weight_ih_l1 f4 [384, 128]
000000 07 0f 3c 3b fe 0b fc 3b ea 67 ff be b2 53 e8 3d
       0.002869548 0.0076918593 -0.49883968 0.113440886
000010 fe 98 69 bf f0 fd 25 be 06 0b cd 3c 1d 24 7d 3e
       -0.9124907 -0.1621015 0.02502967 0.24720807
000020 30 fa 9c 3d 2b d3 9b be 0f 24 1d 3c f6 ce 0b 3e
       0.07664907 -0.30434546 0.009591117 0.13653168
000030 cf fe 11 be 85 ba a4 3e 7a f4 45 3d 00 5a 0e bf
       -0.14257358 0.32173553 0.048328854 -0.5560608
000040 1c 5a 74 be 53 b0 16 3f ea eb e2 bd 12 0f 94 bd
       -0.23862499 0.588628 -0.11080153 -0.07229437
000050 1c b6 90 bd 1e 0b a9 3d f9 34 41 3d b4 32 8e be
       -0.070659846 0.082540736 0.04716966 -0.27773058
000060 0d 2a 5a 3d 58 f4 8e 3e 11 a8 f2 3d fc 66 ac bd
       0.05326276 0.27920794 0.118484624 -0.0841808
000070 76 09 88 3d fa d6 ca 3d eb 33 68 3e 7d 83 d4 be
       0.066424295 0.09904285 0.22676055 -0.41506568
000080 f1 38 f5 bd f7 6e 86 3e aa 3f e6 be 49 8f a6 3b
       -0.11973751 0.26256534 -0.44970447 0.005082999
000090 98 0c 6e be 46 2c fa 3e 7f 3a d0 3d 35 be ad 3d
       -0.23246992 0.48861903 0.10167407 0.08483545
0000a0 e4 30 b9 be 29 a5 87 3d 0c f2 81 3e b4 c3 7c 3e
       -0.36170113 0.06623299 0.2537998 0.2468403
0000b0 7d 97 21 bf a9 82 09 3e c4 68 4c be 5b ea 9f 3d
       -0.6312178 0.13428749 -0.1996184 0.07808372
0000c0 05 7e ab 3d 0c d5 15 bf 5a da 02 bc 4b 72 5f 3c
       0.08373646 -0.5852821 -0.007986629 0.013638089
0000d0 07 d6 9b 3e 8f 19 d8 bd 73 d1 0a be 00 6a 08 3f
       0.30436727 -0.1055175 -0.13556461 0.53286743
0000e0 f6 b4 71 be 25 f6 8b 3e 4a 1a 75 bd d5 ab a0 bd
       -0.23604187 0.2733623 -0.059839524 -0.07845274
0000f0 53 a3 da 3e 13 f2 f9 3e a2 51 81 be d7 f3 f9 bd
       0.42702731 0.488175 -0.25257593 -0.12204712
000100 6b 3b bb 3e c3 c0 d6 3d 7a 02 bf bc 1f 01 a8 bd
       0.3656877 0.10485985 -0.02331661 -0.08203339
000110 e2 be b0 be b6 b2 80 be 42 4a 9c 3e ff 1a a2 be
       -0.34520632 -0.25136346 0.30525404 -0.3166122
000120 fd aa bf 3e 99 f9 01 3f b0 8e 4c be 86 8b d3 3e
       0.3743514 0.5077148 -0.19976306 0.41317385
000130 3f 1e 7e be c7 5f d6 bd 8c 86 cc be 0c 1b 0b 3e
       -0.24816225 -0.10467487 -0.399464 0.13584536
000140 37 d7 0c bf 89 26 9b be 99 92 d9 3d 40 d3 43 3f
       -0.5501589 -0.30302837 0.106236644 0.76494217
000150 8f 60 55 bd 79 db ca 3e d0 89 98 bd e9 65 6c 3e
       -0.05209404 0.3962057 -0.07448161 0.2308575
000160 c3 af 09 bb 81 2a e2 3e a9 06 d1 bc 87 0c 82 be
       -0.0021009303 0.44173053 -0.025515871 -0.25400183
000170 64 1b cf 3d 5f 10 93 be 84 2b 5c 3e 17 5e 05 be
       0.10112646 -0.28723428 0.21500975 -0.13024174
000180 5c e9 98 3e 07 c1 de be 5a 5c 28 be 67 f8 f6 bd
       0.2986554 -0.43506643 -0.1644148 -0.12059098
000190 09 ae 8b be d2 10 b9 3e b3 c6 ca be 55 d3 37 be
       -0.27281216 0.36145645 -0.3960472 -0.1795171
0001a0 8f c7 58 3e fa 90 87 be 5b f0 93 be 5f 21 13 3f
       0.21169876 -0.26477796 -0.28894314 0.57472795
0001b0 09 7a 93 3d ae b7 3c 3e b6 fa 75 be 1c 5c cb bc
       0.07201011 0.18429443 -0.2402142 -0.024824195
0001c0 49 4a 35 bd 16 a2 11 3e c2 32 f6 3b 2d ea 42 3d
       -0.044260297 0.14221987 0.007513375 0.04758661
0001d0 28 42 5e be d3 0b 1c bd bb 07 a8 bd 45 ee a3 be
       -0.21704924 -0.038097214 -0.082045995 -0.32017723
0001e0 fa 0c 49 3d 72 fa 75 3e 51 f4 30 3e 75 7a d0 be
       0.04908464 0.24021319 0.172807 -0.40718427
0001f0 8f 06 68 be 97 cc 14 3e c1 1a 02 3e 32 25 52 be
       -0.22658752 0.1453117 0.12705518 -0.20522001
000200 dc f0 8f 3c c9 1c 29 3e 74 91 04 3e cc f8 85 bd
       0.017570905 0.16514887 0.12946111 -0.06541595
000210 e2 7b 29 be 9c e6 c7 3d 0e 68 85 3d 18 38 4d bd
       -0.16551164 0.09760782 0.065139875 -0.050102323
000220 f7 40 27 3d 8c 93 9a 3d a0 85 fb bb c4 c3 cc bd
       0.04083344 0.075476736 -0.0076758415 -0.09998277
000230 c1 4f e5 be 17 e5 d8 3d 69 69 9c 3e 1e 3d a5 be
       -0.4478741 0.105905704 0.30549172 -0.3227319
000240 91 8a 3c 3d f6 5e 45 3e 8f 12 d4 3e 70 ab 84 bd
       0.046030585 0.19274506 0.4142041 -0.064780116
000250 c3 9b 1d be ec 76 9a be c6 8f 0e be 79 8f 3a 3e
       -0.1539145 -0.30168855 -0.13922033 0.18218793
000260 44 24 0e bd 48 3c b7 3c 1b de 81 3e 7a af ea 3d
       -0.034702554 0.022367612 0.25364766 0.11459251
000270 87 a3 e3 bd aa 02 80 3e 55 36 1e 3c 27 38 d7 bd
       -0.11115175 0.25002033 0.009656508 -0.10508757
000280 13 9f d4 bd 0c 5a c6 bd fd 4b 41 3e 1c 55 58 3e
       -0.103819035 -0.09685144 0.18876643 0.21126217
000290 27 70 01 be 78 76 08 3b b9 64 01 bd f4 fa 99 be
       -0.12640439 0.0020822566 -0.031590197 -0.30074275
0002a0 c9 9e ac be 99 a8 48 3d 60 40 ae bd bf 84 c8 be
       -0.33714893 0.048988912 -0.08508372 -0.39163777
0002b0 1c 54 d3 3d 1d 3e 7e be eb cd 93 3d 5d 5c da 3e
       0.10318777 -0.24828382 0.0721701 0.42648593
0002c0 d2 46 45 3e 4d 5a 19 be 52 a5 c0 3e a0 aa 50 3f
       0.19265297 -0.14975853 0.3762613 0.81510353
0002d0 02 c2 71 3d f0 a3 60 be 62 c5 ce 3e ea 53 9d bd
       0.05902291 -0.21937537 0.40384966 -0.07682021
0002e0 9b cc 55 3c 25 65 09 bd df 02 5d 3e 09 53 23 be
       0.01304927 -0.033543725 0.21583126 -0.15949644
0002f0 51 f4 f1 be 33 52 0d 3f 60 63 7c bd a6 00 83 3d
       -0.4725671 0.5520355 -0.06161821 0.06396608
000300 90 44 a1 3d 25 1b ef be 2b cd c0 3e 1a e0 49 3e
       0.078744054 -0.46700397 0.3765653 0.19714394
000310 e9 26 ec 3d 90 99 f1 3d bf af 1c 3e 02 bd 8f bf
       0.11530859 0.11796868 0.15301417 -1.1229556
000320 8f 41 b1 bd b1 33 63 3f ae 74 48 3f 9d 12 dc be
       -0.086550824 0.8875075 0.7830304 -0.4298295
000330 90 2f 12 3e 2e 0e 7f 3e 04 47 9a 3e 50 4b e8 3d
       0.14275956 0.24907753 0.30132306 0.1134249
000340 85 e5 ea 3d 5e 81 4b bf 60 e9 35 3d 1c 4e 00 bf
       0.114695586 -0.79494274 0.044412017 -0.50119185
000350 6b bf c8 be 6e 1f d8 be ae c2 0f be 49 ab 0e bf
       -0.3920854 -0.4221148 -0.14039108 -0.5573011
000360 4f 5b 26 be 67 89 6b bd 52 03 ae 3c 86 fc 4c 3f
       -0.16245769 -0.057504084 0.021241818 0.8007282
000370 b6 d1 ff 3e 46 d3 30 3e 1e a2 51 3d ed 9f 16 3d
       0.49964684 0.17268094 0.051179998 0.03677361
000380 fc ab c7 be 1b 75 c3 3e 0d 75 6a be 89 9f 62 3d
       -0.389984 0.38175282 -0.22896214 0.055327926
000390 13 79 df 3d 36 5c 2c be 52 8a a7 3e cb f1 c5 3e
       0.10911765 -0.1683205 0.32722718 0.38661036
0003a0 ef d8 c9 be 91 a9 98 3d e0 ef 1f bf 43 0f 73 3c
       -0.3942332 0.07454217 -0.62475395 0.014835182
0003b0 14 73 22 bf 73 d4 c5 bd 0d 13 cb 3e a1 67 9a 3e
       -0.63456845 -0.09659662 0.39662972 0.30157188
0003c0 d9 bd 64 be 2b 63 83 bd 18 7a 3c 3d d6 92 51 bf
       -0.22338046 -0.06415399 0.046014875 -0.8186468
0003d0 c0 45 8e 3e 4d 4a a7 3d 7d 60 52 3e e7 d1 93 3d
       0.2778759 0.081684686 0.2054462 0.0721777
0003e0 f5 a1 8c 3e aa c0 cc 3b 9c f4 e1 3d e0 f1 56 be
       0.27467313 0.0062485533 0.11032984 -0.20990705
0003f0 d7 fa 6e be 8a 70 b8 3d a0 41 83 3d e8 fd fc 3b
       -0.23337875 0.0900584 0.06409001 0.0077206977

gru.weight_hh_l1 f4 [384, 128]
000000 bf 3a 8d 3d 62 0e 81 bd 15 aa d7 3c 0e 5a fe 3d
       0.068959706 -0.063015714 0.026326219 0.1241952
000010 f5 d5 63 3d ee e5 0f bc 1a 1d 48 3e 49 80 96 3c
       0.055623967 -0.008782847 0.19542351 0.018371718
000020 68 02 45 be e7 2d 7b be fc 0c 90 3d 1d 03 57 3b
       -0.19239199 -0.24529229 0.070337266 0.0032808252
000030 aa c1 ac 3d da 32 01 be 33 4d 8b 3d 21 d9 c3 bd
       0.08435376 -0.12617055 0.06801834 -0.095628984
000040 d5 62 7b bb 7b e3 95 3d c2 e6 0c bd 40 68 31 be
       -0.003835847 0.07318779 -0.034399755 -0.17324924
000050 7f ab e5 bc 1a f4 ba bc 2d 15 5f bd 7f d9 33 be
       -0.028035877 -0.022821475 -0.054463554 -0.17563437
000060 80 da 2b 3d 38 66 96 bd d3 ef 03 3e 1b ab 13 bd
       0.041956425 -0.073437154 0.12884454 -0.03605185
000070 c0 b9 cb 3d e0 1c 82 3a 3c a2 03 bd 57 56 0f 3e
       0.099475384 0.0009926818 -0.03213714 0.1399778
000080 59 2c 62 be 9b fc 7c 3d 19 e3 e3 3c c8 59 0f 3c
       -0.2208723 0.06176434 0.02781825 0.008749433
000090 18 18 4d bd 94 74 77 bd 60 0f da 3d 60 f9 9f bd
       -0.050071806 -0.060413912 0.10647464 -0.078112364
0000a0 e4 4d 96 3c 0c ea 78 bd 3f b1 12 3c c0 10 fb bc
       0.018347688 -0.06077008 0.008953392 -0.030647635
0000b0 af d5 8a 3d 50 1b 9f 3d e6 19 81 bd fa fa 19 bd
       0.06779038 0.07768881 -0.06303768 -0.037592866
0000c0 99 a0 8c bd 48 e1 65 3d 6b 89 a8 3d 6b c2 16 bc
       -0.06866569 0.056123048 0.082293354 -0.009201626
0000d0 e7 9f bd bd 80 fa ee bd 77 89 74 3d 6f 55 a8 bd
       -0.092590146 -0.11668873 0.05970141 -0.0821942
0000e0 79 25 de bd 11 93 80 bd c3 c0 7a 3d c3 4f d3 3c
       -0.10846991 -0.06278051 0.06121899 0.02579487
0000f0 f2 1e 5d bd 02 a0 dc bd 94 5d 7e bd 79 de 23 3e
       -0.05398459 -0.107727066 -0.06210096 0.16002835
000100 0d c3 78 bc b6 0c d2 3d 67 5f d6 bd 1a ce ec bd
       -0.0151832225 0.10256331 -0.10467415 -0.11562748
000110 e4 5f b1 3b 30 11 41 bc 2e a9 5a bd 80 ed 65 3b
       0.0054130424 -0.011783883 -0.053384 0.0035084188
000120 e3 eb 4f bd 5a 6e e8 bd 9f 55 90 3c 6e 23 61 bb
       -0.05076207 -0.11349173 0.017618952 -0.0034353393
000130 66 20 2f 3e e4 46 4b 3c 60 3c 7b bb 04 76 5a bd
       0.17102203 0.012407038 -0.0038335547 -0.053335205
000140 ed 60 f3 bd 52 b8 42 be 76 13 51 3e 77 96 38 be
       -0.118837215 -0.19015625 0.2041758 -0.18026148
000150 64 8e ce bd 2a 97 cb bc 83 36 0e be 27 a5 19 3d
       -0.100857526 -0.024852354 -0.13887982 0.037511017
000160 6b 57 22 3e c1 36 99 bc b7 f6 9f 3d 1a 18 a2 bc
       0.1585366 -0.018702867 0.07810729 -0.019786883
000170 15 e2 2e be 79 e5 5b 3d 10 ac b5 bd 42 eb 3e 3e
       -0.17078431 0.05368564 -0.08870709 0.18644431
000180 49 1e 78 bc 77 db 22 3e 01 c3 11 3b bf 09 3f bc
       -0.015143939 0.15904032 0.0022241476 -0.0116600385
000190 e0 e3 67 3d 66 46 02 3e a3 af 38 3b c5 d1 f6 3d
       0.056613803 0.12722167 0.002818086 0.12051729
0001a0 5e 91 fc 3d 02 42 be bd 58 a0 ed 3d 4f e7 eb bd
       0.12332414 -0.09289934 0.11602849 -0.11518728
0001b0 c6 91 0b be d7 dc 7c 3c 16 cd 84 bd 00 ff 16 3c
       -0.13629827 0.015433512 -0.064844295 0.00921607
0001c0 ca e4 55 3d fa a5 e6 bd df de 51 bc d2 c3 21 3e
       0.052220143 -0.11262126 -0.012809484 0.15797356
0001d0 71 2c 1a be fb 25 dc 3d bc c5 bf 3c ed 86 34 bd
       -0.15056016 0.10749432 0.023409717 -0.044073988
0001e0 17 8a 57 3d db 61 45 bc d9 31 6f 3d 3b 44 84 3d
       0.052621927 -0.012047256 0.058397148 0.064583264
0001f0 b9 d7 ed 3d 8c 58 c8 3c 93 0d 60 bd 25 b0 5c 3d
       0.116134115 0.024456285 -0.054700445 0.053878922
000200 b2 d2 1e 3b db be ea be c5 5b 0c 3e af 9e 57 bb
       0.002423447 -0.45848736 0.13706882 -0.003290098
000210 af 02 5a 3d a9 d2 9c 3d a3 0f 33 be 17 63 a2 bd
       0.053225216 0.07657368 -0.17486434 -0.07929056
000220 48 54 05 3c fe 86 9e 3c 57 c2 2a be df 1e c3 3a
       0.00813777 0.019351479 -0.16675697 0.001488652
000230 68 a2 87 3d c6 d5 14 bf 9f 87 f6 bc 40 eb c9 bd
       0.066227734 -0.5813869 -0.030093966 -0.098593235
000240 46 24 73 3d e1 18 19 be dc 85 80 be bf 40 bb bd
       0.059360765 -0.14950897 -0.25102127 -0.09143209
000250 de a2 07 3e 9b d6 47 3d 1b 73 5d bd 17 93 ea bd
       0.13245723 0.048788648 -0.05406485 -0.114538364
000260 d4 1e 0b 3d 75 55 55 3d f8 e3 c5 bd f8 15 e5 3c
       0.033964947 0.05208345 -0.09662622 0.027964577
000270 d6 f2 53 3c 70 1d 6b 3d cf 55 1f be 27 15 80 bc
       0.012936315 0.05740112 -0.15560077 -0.015635086
000280 40 1b f0 3c d7 6d 5d 3e 31 83 a3 3c c8 0f b0 3d
       0.029309869 0.21623932 0.019960018 0.0859676
000290 01 13 75 bd 54 21 ae bc b0 0d d0 bd db ae 4b bd
       -0.059832577 -0.021256126 -0.10158861 -0.049727302
0002a0 62 b1 c0 3c 51 53 53 be da 23 7a bd f8 b8 89 be
       0.023522083 -0.20637251 -0.061069347 -0.26898932
0002b0 47 c3 42 3d 5a b8 d1 3c 87 44 03 bd 9a 86 45 bd
       0.047549512 0.025600601 -0.032047775 -0.04822407
0002c0 84 df 5a bc a1 35 e0 bd 92 5e 34 3c 8a 69 08 3d
       -0.013358954 -0.10947729 0.011008875 0.033303775
0002d0 72 21 98 bb c7 56 91 bc fe e1 41 3d 78 6c 94 3c
       -0.004642659 -0.017741574 0.047334664 0.018118128
0002e0 59 3f 05 bc 21 ef 59 3d 91 cc fe 3d c5 a8 96 3c
       -0.008132779 0.053206567 0.12441362 0.018391022
0002f0 ec 37 b9 bd 45 bb 75 3d 0f 53 92 3c 13 ce 39 be
       -0.090438694 0.059993047 0.017861871 -0.18145017
000300 4b 8d d4 3c 55 1d 17 be a8 d1 8e 3d e4 fe d2 bd
       0.02594628 -0.14757283 0.069735825 -0.10302523
000310 96 0f 61 bd 90 d6 b6 3d e6 5a 7f bd f3 be 29 be
       -0.054946505 0.08927643 -0.062342547 -0.16576748
000320 c9 b7 29 be fa 4b b2 3d 08 19 fe 3d 9b 2b cd bd
       -0.16574015 0.08705898 0.12407118 -0.10018083
000330 66 a8 ce bd 2c c3 00 bd 45 d9 32 be f9 15 05 3e
       -0.10090713 -0.03143613 -0.17465694 0.12996663
000340 95 f2 6c 3d e0 29 bb bd da 6d fc bc 46 4b 0b 3c
       0.05784853 -0.091388464 -0.0308141 0.008501833
000350 c5 03 a5 3d b5 0f 30 3e 2d a2 44 3c 10 c7 c8 3d
       0.080573596 0.17193492 0.012001556 0.09803593
000360 98 d8 01 3e 55 80 e6 3d 70 63 b3 3d b3 9a 81 3d
       0.1268028 0.11254946 0.087592006 0.06328335
000370 a9 d3 c7 bd fa e0 d2 bd 98 b5 12 3c e7 e9 85 3b
       -0.09757168 -0.10296817 0.008954428 0.004086721
000380 6f 20 1c bd cf 99 e2 bc 29 04 77 ba c3 02 d3 3b
       -0.03811687 -0.027661232 -0.0009422922 0.006439538
000390 f5 f6 88 bd 0d 7b ce 3e 6f c8 e6 3d 8c 4f aa bd
       -0.06687728 0.40328255 0.112686984 -0.083159536
0003a0 4d 63 17 3e bc 45 84 3d bc 2a 98 3d 5e c0 6e b9
       0.14783974 0.06458613 0.07430026 -0.00022769111
0003b0 8d a6 97 3d 85 98 e5 bd d9 84 92 3d 42 a1 9a bd
       0.07404814 -0.112107314 0.07154245 -0.07550289
0003c0 55 a0 a9 3c 3e 15 0a bd 51 0e 42 bd d0 ef 97 3d
       0.020706335 -0.033711664 -0.047376934 0.074187875
0003d0 d3 c0 a9 bd 78 c4 f0 3d c9 6d e1 bd ae 86 04 3c
       -0.082887314 0.117562234 -0.11007268 0.008088751
0003e0 dd ca b5 bc b1 be 85 3d 58 b5 2c 3d ac f9 4f 3d
       -0.02219146 0.06530512 0.04216513 0.050775215
0003f0 a7 8d f5 3c 36 0d 08 be 5c 89 2d be 92 54 27 bd
       0.029974772 -0.1328629 -0.1694693 -0.040852137

gru.bias_ih_l1 f4 [384]
000000 e9 60 a8 3d 56 18 ed bb 74 ab 54 3e 80 70 ba bd
       0.08221609 -0.007235567 0.20768529 -0.09103489
000010 f8 e6 c4 bd cb c2 90 bc 36 e1 d6 bd 30 07 29 3c
       -0.09614366 -0.01767101 -0.10492174 0.010316655
000020 ec 95 0c be 5c 6d 97 3d 61 8c a1 be 81 84 58 bd
       -0.13729066 0.073939055 -0.31552413 -0.05286074
000030 f1 dc 9b bd 03 a1 ea bd f0 6b 28 be 13 25 af bd
       -0.076105006 -0.11456492 -0.16447425 -0.08551993
000040 1e 52 09 be b8 1e 68 bd 8f d8 23 3e 54 33 25 be
       -0.13410231 -0.05666992 0.1600058 -0.16132861
000050 a7 c4 f8 bd 0b 84 c5 3b 23 70 17 bd cd f1 f0 3c
       -0.121468835 0.0060277036 -0.036972176 0.029412175
000060 fa 62 28 bd 9f 1a 2c be cf 9b a1 bd 8f a4 51 bd
       -0.041110016 -0.1680703 -0.07891046 -0.051182326
000070 28 dd 6c bd 87 2b 86 bc dd 7a e8 3d 1b ae f2 3d
       -0.0578281 -0.016378177 0.11351559 0.11849614
000080 d4 b6 ff bd a7 43 9c bd e1 b8 12 bd 49 a8 3a bd
       -0.124860436 -0.07630091 -0.035820846 -0.045570645
000090 d6 26 97 bd ad e9 f9 bb 8c ff c2 39 bd f5 db bd
       -0.07380454 -0.0076267333 0.0003719296 -0.1074023
0000a0 e7 e1 cf 3d bf 03 8f bd ef 07 aa bc f9 51 1f 3e
       0.10150509 -0.069831364 -0.020755736 0.15558614
0000b0 fe 6b 9f be aa fe 62 be 52 6a f5 3c 54 a7 cc bd
       -0.3113708 -0.22167459 0.029957924 -0.09992853
0000c0 3f e0 59 bd 11 f1 1a 3e e4 33 6e bd 48 7b c3 bc
       -0.053192373 0.15131022 -0.058154956 -0.023862496
0000d0 cd 3a 81 bd de f5 f6 bc 20 7d 95 bc 15 20 93 3d
       -0.063100435 -0.030146535 -0.01824814 0.071838535
0000e0 27 41 57 be 62 73 7e bd fa b8 8c 3e 85 c0 5d 3e
       -0.21020947 -0.062121756 0.27484876 0.21655472
0000f0 83 a8 bf bd 77 da 48 bc 87 fe 15 3c 66 d4 11 be
       -0.09358313 -0.012259117 0.009154922 -0.1424118
000100 ba fe df 3d 62 1b 1f 3e a3 5c aa bd 35 e8 38 3d
       0.10937257 0.1553779 -0.0831845 0.045143325
000110 91 71 62 bd 5c dc b7 3d d7 46 f1 bc 2a bf ac bd
       -0.055284087 0.08977577 -0.029452724 -0.08434899
000120 c9 03 d6 bc 04 ea 05 be e9 d4 8d bd 2c 0e 09 be
       -0.026124852 -0.13077551 -0.06925375 -0.13384312
000130 fc e4 21 3e 3c 5b d1 3c e3 b1 ca b8 44 c0 2e 3d
       0.15810007 0.0255562 -9.6652446e-05 0.042663828
000140 71 0c da bc 4d f5 72 bd 37 9d 4c 3e ab 20 37 be
       -0.02661726 -0.05931597 0.19981848 -0.17883556
000150 f5 5f f7 bd 40 e7 c2 bd a3 51 3a be ba c2 5f 3c
       -0.12078849 -0.09516764 -0.18195204 0.013657266
000160 50 1f 4c 3d 7f be 3a 3e 84 9e 63 3d a1 0c 6d bd
       0.04983455 0.18236731 0.055571094 -0.057873372
000170 e0 2b 98 bd 2a de 83 bd 6b a3 a7 bd fc 5a 6a 3d
       -0.074302435 -0.06438859 -0.081854664 0.057215676
000180 2c 52 16 be 4e 89 b9 bd 2d 8e f7 bd 7d 8c 18 be
       -0.14679784 -0.09059392 -0.12087665 -0.14897342
000190 b2 9b 9e be 3b 9d 0f be 9c 84 90 bd da a3 69 3c
       -0.3097816 -0.14024822 -0.07056543 0.014260257
0001a0 e7 cb cc 3c b6 99 3d 3d bf e0 16 be b8 32 ce bd
       0.024999572 0.04628917 -0.14734171 -0.100682676
0001b0 0d ce 00 3e 42 ca ad bd 1a 3f 87 3d 87 6d 18 3d
       0.12578602 -0.08485843 0.066038325 0.03721383
0001c0 34 f4 60 bd cd 05 c7 3a 9c f6 c1 3c c9 a6 c6 3d
       -0.05492039 0.0015184224 0.023677163 0.096997805
0001d0 de 3a ad 3d ed 0a 08 be f9 ed a9 bd ea 0a ac bc
       0.08458494 -0.13285418 -0.08297343 -0.021001298
0001e0 df 02 6e be 19 5d a3 3d c6 b5 60 3d d9 14 17 bd
       -0.23243283 0.07976741 0.054860853 -0.036885116
0001f0 60 80 aa 3d 04 87 9c bd ec 73 dd 3b fe 5f d4 3d
       0.08325267 -0.0764294 0.0067582037 0.103698716
000200 a0 a4 d2 be 68 3d e6 be d4 2f 52 be 88 fe 19 be
       -0.41141224 -0.44968724 -0.20526057 -0.15038502
000210 4a 5d f8 be 33 80 c6 be 9e 58 4f be d2 79 f4 be
       -0.48508674 -0.38769683 -0.20248649 -0.47749192
000220 8b 7b a5 be f5 40 02 bf 1d ad 9a be 10 ab 94 be
       -0.32320818 -0.50880367 -0.302102 -0.2903676
000230 79 3a c2 bd 0d b0 b7 be 28 22 a5 be 03 71 fa be
       -0.09483809 -0.35876504 -0.32252622 -0.48914346
000240 27 4a 9d be 4a b5 e3 be c9 2b 07 bf b8 26 a0 be
       -0.30720636 -0.4447425 -0.52801186 -0.3127954
000250 64 ae cc be dc 37 30 bf 74 34 37 bf dd 0e a4 be
       -0.399768 -0.68835235 -0.7156441 -0.3204259
000260 ed a2 a0 be 75 dd e0 be 74 16 ef be ec f8 fa be
       -0.31374303 -0.43918958 -0.46696818 -0.49018037
000270 3b 35 d4 be 36 af dc be 3f 2d 07 bf bd ce 42 bf
       -0.41446862 -0.43102425 -0.52803415 -0.7609671
000280 df b7 06 bf 5f e5 e1 be 7e 71 08 bf 9b b8 e2 bd
       -0.52624315 -0.4412031 -0.53298175 -0.11070367
000290 16 c4 ca be 58 3d 08 be db 78 26 bf 48 82 fe be
       -0.39602727 -0.13304651 -0.6502816 -0.49708772
0002a0 e4 01 a6 bd ab d2 f1 be b5 a0 d8 be f8 8f db be
       -0.08105829 -0.4723104 -0.4231011 -0.42883277
0002b0 01 5e 8f be 06 21 0c bf 71 dd d3 bd c0 de df be
       -0.28001407 -0.5473789 -0.10344971 -0.43724632
0002c0 62 c7 12 be 82 1b 13 bf 79 7f bd be 9d 0f bc be
       -0.14333871 -0.5746385 -0.37011316 -0.36730662
0002d0 8d 16 fe be 28 e8 1c be 72 6b 2d bf 42 f1 2e be
       -0.4962658 -0.15322936 -0.67742074 -0.1708422
0002e0 59 bf f1 be 37 f6 17 be 9b d5 b7 be 87 7f f5 be
       -0.472163 -0.14840017 -0.35905156 -0.47948858
0002f0 d9 88 1d bf f0 bd 0b be 94 5b ed be 1e dc fe be
       -0.6153694 -0.13646674 -0.4635893 -0.4977731
000300 dc b1 d4 be 0e ec 61 be fa eb f4 be 56 68 11 bf
       -0.41541946 -0.22062704 -0.47836286 -0.5679983
000310 21 75 16 bf 8e db fa be 55 9b 0c bf 22 7a bf be
       -0.58772475 -0.48995632 -0.5492452 -0.37397867
000320 c7 46 1b bf da 13 0c bf 0b f2 7d be b9 3d b1 be
       -0.6065487 -0.5471779 -0.24799363 -0.34617403
000330 bf 6d 0d bf 1b 85 14 bf 78 bd 2a be ae 95 20 bf
       -0.55245584 -0.580156 -0.16673839 -0.62728393
000340 01 4b 75 be 0d 8d 72 be 98 50 26 bf 60 b8 ba be
       -0.23954393 -0.23686619 -0.64966726 -0.36468792
000350 23 dd 24 bf 5a 9d 38 be 67 d6 02 bf 1c ab 11 bf
       -0.6439993 -0.18028775 -0.511084 -0.5690172
000360 e9 3f 9b be 5c 52 c4 be b0 57 70 be 84 c2 db bd
       -0.30322197 -0.38344085 -0.2347095 -0.1073046
000370 1f 81 36 be 81 e2 f8 be c6 fa d4 be 7e e7 48 be
       -0.17822693 -0.4861031 -0.41597575 -0.19619557
000380 ef ea ad be f0 dd a3 be 1f df da be bc d8 e4 be
       -0.33968303 -0.32005262 -0.42748353 -0.44696605
000390 78 9b 2b bf 3a 3f d6 be 9f 68 e6 be dc 92 65 bd
       -0.670341 -0.41845113 -0.45001695 -0.05604826
0003a0 2a bb b5 be 6c 4d 86 be 73 47 d4 be 08 17 54 bd
       -0.35494357 -0.26230943 -0.4146076 -0.051779777
0003b0 47 ee 98 3d 32 c6 fc be 17 a7 d4 be 1a b1 11 bf
       0.07467323 -0.4936996 -0.4153373 -0.5691086
0003c0 3d 04 91 be 1a 61 27 bf fa d8 1c bf ed 08 f1 be
       -0.28323546 -0.6538254 -0.6126858 -0.47077122
0003d0 66 a1 9f be 87 0d a6 be 89 ab a9 be 1e a3 b6 be
       -0.31177825 -0.32432196 -0.33138683 -0.35671324
0003e0 42 be e7 be 8c 48 f3 be 03 db db be fd 22 c1 be
       -0.45262343 -0.47516286 -0.4294053 -0.37722006
0003f0 af dd fa be f9 76 dc be ad 0e 2d bf 46 94 fb be
       -0.48997256 -0.4305952 -0.6760052 -0.4913656
