model/gru_physics_epoch_100.pth (torch, 687495 bytes, 18 tensors)

gru.weight_ih_l0 f4 [384, 10]
00000000: 1f5c d5bc 93ea a13c 63d3 843a 72d7 533d
00000010: b710 043d 41a3 bf3b f821 433d c79b 813c
00000020: a60d 02bd 4dfc cc3c f410 633c 462e 95bc
00000030: 3d04 16bd 3baa 1abc 0415 b0bb e585 05bd
00000040: 9aa9 1bbd b814 dc3b b481 8c3d 08ea aeba
00000050: 4bad 07bd d742 843d 7717 9bbc e00b 5cba
00000060: 35fe 38bd 4511 123d 2e01 4e3d 4fb2 873c
00000070: daf5 79bc a15b 1d3d 16e1 75bd 07b8 5dbd
00000080: ce43 2fbd af41 2e3d aec1 05bc da74 86bd
00000090: 0d34 01bc cbaf 4bbd f3dd 363d b8da 723d
000000a0: 12eb 2b3d f967 31bd 0dfb 593d 19a3 35bc
000000b0: c33a 09bc a0cb 5dbd f6f8 7fbd 482f 303c
000000c0: 009d 293d 4080 913c f969 353c bab8 2ebd
000000d0: b6e2 02bc ea72 0a3c 93eb f2bc ec1f a63d
000000e0: d822 7b3c 179d 833d 8f8c 94bc 2c67 20bc
000000f0: 886a b43c 99de e6bc 3add ad3c cbaf a73c
00000100: 5d30 1cbd 9baa 7bbd c334 36bd cd9a 0b3b
00000110: 2044 d53c 1dee 8b3d 2aa1 98bd ddf9 21bd
00000120: ae96 edbc 173b a13b e123 a9bc 89a5 fdbc
00000130: e1a1 1c3c efe7 9b3c 7acc 3c3c bebb 043b
00000140: 3b48 383d 6f37 db3c 9568 06bd f487 47bb
00000150: df19 2ebc c0be 523d cd1e 603d 3530 99bc
00000160: 6f30 11bd 6093 c03c 2662 febb e84b 6abd
00000170: 6fef 133d a141 1abd 3874 88bb fa63 073d
00000180: d6db 87bb a943 1e3c 3cc0 4e3d 962b 74bc
00000190: 541d afbd 746e 89bc 5c91 32bd 0117 783b
000001a0: fdf0 34bd a383 52ba 38b4 533d f350 0dbd
000001b0: 672a 4cbc cd05 94bb 6273 b43c c921 2dbd
000001c0: dd4b 393d 5e7a 583c 2b98 26bd ad5b 7d3d
000001d0: bcc4 5b3d bd4f 90bc 66c4 9bbd b4d2 3b3b
000001e0: df95 063d 9291 ab3d ce13 21bc 6699 09bd
000001f0: 8260 903b c87b 5a3c a33a 823d 0d0a afbb
00000200: 5890 7abd b4e6 6b3c b960 ee3c d04e 053d
00000210: fa58 55bd 13fc b8bc d2e2 7fbc f7d3 a2bd
00000220: 896c 373c f985 59bc 22f9 bd3c 770a a53d
00000230: eba0 063d 9e9b bcbc efb2 f83c dd4d c2bb
00000240: f0c4 e13c beda 86bc df2c 6b3c 1fb4 c23b
00000250: aaa4 da3c 15f8 623d 063d 033d 621c 333d
00000260: 6320 603c 6151 d5bc fa2b f83c 6d96 4dbd
00000270: f505 61bc 5db1 8fbc e8a6 aa3c 3949 743b
00000280: 7985 143d 13d1 0bbc e2ee 503d 515f e13c
00000290: e6f1 223d e534 223c 7b7d 10bd c3c9 40bd
000002a0: 9a33 8ebb bf26 33bd 5520 f03c 4542 cf3c
000002b0: 2c32 d2bc a6b2 28bd dff8 8a3c 0cca ebbc
000002c0: 01f3 423d c024 973c a013 b23c db5c 0cbd
000002d0: a655 b53b 92bc 693d c06b 8bbd 3418 073d
000002e0: 0be7 323b cce3 853d 6b54 b03d e4c7 8b3d
000002f0: 80f3 13be 393e 6bbd ed1d d13d 2fba 733c
00000300: 11e3 2a3d c7c0 223d dd3a 273d 3b9f 17bd
00000310: cdb0 063d 6bf8 78bb 60df d43c 0802 7dbb
00000320: f903 663d 48c0 e3bb 001d 43bd 6d8e c9bc
00000330: 0863 853c 0a08 47bd f864 2fbd aaa0 67bd
00000340: ea3e dbbb 898f 363d 8290 3b3c e8b7 933d
00000350: a9c5 b53c 4327 3abc d125 3d3d b8aa 96bd
00000360: 19b4 1abd e543 9bbd 55cf 273b 40b8 dd3c
00000370: 585d a53c c33c 81bd 9bc2 82bc 7e32 86b9
00000380: 863d 28bd 9565 36bc 0db9 143c dd17 80bd
00000390: 6090 723d b078 c0bb 011d 32bd dd69 aa3d
000003a0: 9f68 93bd 88d7 0b3d 2906 5a3d d174 57bd
000003b0: b52a 593c b1be 56bb 352f ae3c df81 d73c
000003c0: f9d4 c7b9 7032 5abc 2898 283e 05f0 2bbc
000003d0: 4b9d edbc ce60 bebd dae4 9ebd 062e c1bd
000003e0: 935a b23d a177 413d eead 15bc cf46 1c3d
000003f0: 2e60 7d3c b274 d93c 798c 47bd 7940 813d
-0.026044903 0.019765174 0.0010133799 0.051719137 0.032242503 0.005848319 0.047639817 0.01582135
-0.031751297 0.02502265 0.013859022 -0.018210541 -0.036625136 -0.00944 -0.005373599 -0.032598395
-0.03800354 0.006716337 0.068606764 -0.0013344893 -0.03312425 0.06458061 -0.018932087 -0.00083941035
-0.045164306 0.035661 0.050294094 0.016564516 -0.0152563695 0.038417462 -0.06002911 -0.05413058
-0.042789273 0.04254311 -0.008163853 -0.065652564 -0.007885945 -0.049728196 0.04464526 0.059290618
0.041972227 -0.043312047 0.053217936 -0.011086249 -0.008375826 -0.05414927 -0.062493287 0.01075346
0.041409492 0.01776135 0.011072629 -0.042656638 -0.007988622 0.008450249 -0.029653346 0.08111557
0.015328132 0.06426447 -0.01813343 -0.009790223 0.022023454 -0.028182315 0.021223653 0.020469567
-0.03813206 -0.061442 -0.04448391 0.0021301985 0.026033461 0.06832526 -0.074526146 -0.03954493
-0.029002514 0.004920374 -0.020646991 -0.030962722 0.009560079 0.019031493 0.01152336 0.0020253505
0.04499076 0.026759831 -0.03281458 -0.0030446025 -0.010626285 0.051451445 0.054716874 -0.018699745
-0.03544658 0.023507774 -0.007763165 -0.057201296 0.036117014 -0.037660245 -0.004164245 0.03305433
-0.0041460795 0.009659686 0.050476298 -0.01490297 -0.08550516 -0.016776301 -0.043595657 0.0037855508
-0.044175137 -0.00080304797 0.051685542 -0.034501027 -0.012461281 -0.004517293 0.022027675 -0.04226855
0.045238364 0.013212768 -0.040672462 0.061855007 0.053654417 -0.017616147 -0.076058194 0.0028659524
0.032857772 0.08377375 -0.009831382 -0.033593558 0.004406036 0.013335176 0.0635884 -0.0053417743
-0.061172813 0.014398266 0.029098855 0.032545865 -0.052086808 -0.022581136 -0.015618043 -0.07950585
0.01119531 -0.0132765705 0.023190085 0.08058637 0.032868307 -0.023023423 0.03035876 -0.005929692
0.027559727 -0.016461726 0.01435396 0.0059418823 0.026689846 0.05541237 0.03204062 0.04372824
0.013679597 -0.026039781 0.030294407 -0.050192285 -0.01373433 -0.017540628 0.02083154 0.003727509
0.036260102 -0.008533734 0.051009066 0.02751127 0.039781474 0.009900306 -0.035275918 -0.047067415
-0.0043396475 -0.043738123 0.029312292 0.025300154 -0.02565869 -0.041185997 0.016964374 -0.028782867
0.047595028 0.018450141 0.021737874 -0.03426824 0.0055338917 0.0570646 -0.06807661 0.032982066
0.0027298357 0.065375894 0.086098514 0.068252355 -0.14448357 -0.057432387 0.10210786 0.014875933
0.041720454 0.039734628 0.04082762 -0.03701709 0.032883454 -0.0037989866 0.02598542 -0.0038605947
0.056156132 -0.006950412 -0.04763508 -0.024604047 0.016282573 -0.04859165 -0.0428209 -0.056549706
-0.0066908496 0.04457048 0.011448028 0.07212812 0.022188978 -0.0113619 0.046178643 -0.07356781
-0.03776941 -0.07581309 0.0025605757 0.027065396 0.020186111 -0.063104175 -0.015961936 -0.0002559609
-0.0410743 -0.0111326175 0.009077323 -0.062545516 0.059219718 -0.005873762 -0.04348469 0.08320973
-0.07197689 0.034141093 0.05322853 -0.05260164 0.013254811 -0.003276747 0.021262744 0.026307045
-0.00038114915 -0.013317689 0.16464293 -0.010494237 -0.029005667 -0.09295808 -0.07758494 -0.094326064
0.08708682 0.047233228 -0.009135706 0.038153466 0.015464826 0.026544902 -0.04871795 0.06311125

gru.weight_hh_l0 f4 [384, 128]
00000000: b08a 023d 6c89 ae3c 1d8b 823c bb52 bbbb
00000010: 8174 8fbb fc7a cabb cf0e e1bc 57e8 1cbb
00000020: 0860 92bc c9cc babc 1ff9 7e3b dd50 763b
00000030: f708 903c fba2 453d 0f0a 513d 6ca6 323c
00000040: 1af9 c5bc eeea 27bd 21b5 f5bc 154b 61bc
00000050: f93d 43bd 8832 47bd d1aa 22bc 77e3 c83c
00000060: 4e27 1dbd 27c1 25bc 51dd 003d 1c88 01bd
00000070: cb3b fcbc e2d7 173d c214 0ebb 7075 72bc
00000080: 139d 353d 5347 d8bc 05ab 143d 8fc6 0e3d
00000090: 179e 38bc 8bfa 1e3d 2ca4 273d e8da 99bc
000000a0: 4d9c 1d3d c7ec ff3c 6d0e 833c 15c7 2fbc
000000b0: 6df0 46bd a5ea 17bd ec12 e3bc 727b 50bc
000000c0: ac8f 92bb 3afd 8b3c eefb 013c 9686 75bb
000000d0: cf51 1e3d 2985 fb3c 7d30 173d edff 40bb
000000e0: a1cf 21bd f256 173d 75c8 cdbc 9c80 b9bc
000000f0: bd4a df3c 4d9e 1dbd 7cd3 b33a 1d0e b1bc
00000100: 2b9c 05bd 65ae c0bc dee9 5d37 1d40 07bc
00000110: e5e9 7b3c a840 093d 473f b83b 4b86 77bc
00000120: 06ce 143a d056 b8bc 2226 5f3c 3839 ed3c
00000130: 1a64 403d 1033 203d f4dd 333d 5b89 883c
00000140: 0094 963c ad1c eabc 9aa7 04ba 8e69 c8ba
00000150: 2342 56bd dcf1 2dbc 0069 87bb d373 fdbc
00000160: 377a 113d 304b 10bc 1cf8 b9bc 7601 0c3d
00000170: 0dbb 63bc db8a 01bd 3188 08bd f54e 8fbb
00000180: f2fb 0c3d 7d97 2f3c 8f0c c6bc 99cf 8b3c
00000190: 2388 6bb9 355d 3f3d 11ef 673c e1bf 1f3c
000001a0: 08c5 0abd 6dce 47bd 7f1c db3c 0144 a5bc
000001b0: d7dd 00bc 48f2 1bbd 36f6 e73c b1e6 183d
000001c0: 5d02 103c 0119 a7ba 3128 c83c e090 92bc
000001d0: 0748 6fbc 57b1 543d 322b 483c acae b53c
000001e0: 88d0 a93c 42cc 34bd 0de4 673c a548 1ebb
000001f0: 8741 073c 12ce 9dbc c2d2 013d 661f cd3c
00000200: dd42 553c bab6 363d 7523 adbc 2fde 84bc
00000210: 9159 1cbd e5f5 97bd ce84 9abd 55ff 973a
00000220: 42a7 ccbc 8cef 32bc 15f3 9e3c e35c ebbc
00000230: ce7b ed3a 9492 1e3d 92f0 e43c 320c 793c
00000240: e4a2 ba3c 4033 093d 385e a9bc d954 abbc
00000250: 7778 50bc a529 223d e159 40bc 1b7a bbbb
00000260: d68a 1abc 67dc 01bd 5c38 493d 703e 1bbd
00000270: 8270 fe3c 92e6 0e3c ea65 6cbc 58d1 d4bc
00000280: 6841 51bd e1b1 b6bb e23c 203d 32bc 823c
00000290: 0790 67bc b63c 56bd bfb9 f9bc 6137 56ba
000002a0: e283 efbb 5437 873c f3aa ad3c be30 693d
000002b0: 9daf 3fbb 9d6a 293c c2d2 51bd 2b0c 82bc
000002c0: acc1 373c 7fa0 f03c 5f90 28bc d4fa a13b
000002d0: 027a fcbc fe7d 903c ce17 97bd c152 d83c
000002e0: c654 233c 618c 92bb 7186 1ebd a93d 88bc
000002f0: 3cf4 0b3d 6bb3 0739 1f39 67bd 5551 6fbd
00000300: aafc b03c 057b cabc c777 14bd 8d62 42bd
00000310: 0675 75bd 0b07 92bd 8720 833d e9b9 543d
00000320: 5525 6fbb 51ce 32bc ae9e a2bd ad51 ecbc
00000330: 9250 1f3c bc77 16bd 23a0 34bc 2737 463d
00000340: 257b ebbb 62b0 263c 004f 453d abb0 ee3c
00000350: 1963 533c e4f9 96bb 9da1 6e3c 8c3e bfbc
00000360: 1e68 51bc 634c f13c 9b1b 82bd b679 75bb
00000370: ca63 8f3b 0b25 40bd 8017 cc3b dc16 40bd
00000380: 4669 bd3c c96c 693b 9358 8bbd 71cd 023b
00000390: 58cc edbc 522f 433d b1f0 8a3c 0932 93bc
000003a0: 42e8 ea3c 2e48 243d 47c2 f0bc e84d 3ebb
000003b0: 19c2 a03c 8f63 01bc 9dad 16bb 334d 0a3d
000003c0: dcd2 a939 9132 383d 32b6 ab3c 00da a63b
000003d0: 5814 20bd 5b03 c33c b702 aebd 5026 b03c
000003e0: e33f a23b e7a8 353c 863a 1dbd e382 363d
000003f0: 2f4b 1c3b 6c26 8dbb 6dd3 2c3c 66e8 a9bd
0.031870544 0.021305762 0.015935475 -0.0057166493 -0.004377902 -0.0061792117 -0.027472882 -0.0023942196
-0.017868057 -0.022802727 0.0038905812 0.003758482 0.0175824 0.048251133 0.051034983 0.010903936
-0.024166632 -0.04099553 -0.029993596 -0.013750811 -0.047666524 -0.048632175 -0.009928421 0.024522526
-0.038367562 -0.010116852 0.031461064 -0.031623945 -0.03079023 0.037071116 -0.0021679853 -0.014798507
0.04433925 -0.026401198 0.03629591 0.03485733 -0.01126816 0.038813155 0.04092805 -0.01878114
0.03847914 0.031240834 0.01599809 -0.010728617 -0.04856913 -0.03708901 -0.027718984 -0.012724744
-0.0044726934 0.017088521 0.0079336 -0.0037464253 0.038652238 0.030703144 0.036911476 -0.0029449419
-0.03950465 0.036948152 -0.02512 -0.022644334 0.027257318 -0.038481046 0.0013719643 -0.021613175
-0.032619637 -0.023520658 1.3227078e-05 -0.008255032 0.015375589 0.033508927 0.0056227776 -0.0151077015
0.0005676452 -0.022502333 0.013619931 0.028957948 0.046970464 0.039111197 0.043912843 0.016667059
0.018381119 -0.028578127 -0.0005060375 -0.0015290247 -0.052309167 -0.010616746 -0.00413239 -0.030939018
0.035516944 -0.008806989 -0.022701316 0.03418108 -0.013899577 -0.031626564 -0.033333007 -0.004373426
0.03441996 0.01071727 -0.02417591 0.017066764 -0.00022462061 0.04671975 0.014156119 0.009750337
-0.03387931 -0.048780847 0.026746986 -0.020174028 -0.007865391 -0.038072854 0.028315645 0.03732938
0.008789626 -0.0012748541 0.024433227 -0.017891347 -0.014604575 0.051926937 0.01221733 0.022178017
0.020729318 -0.044140108 0.014153493 -0.0024152186 0.008255369 -0.019263301 0.031695135 0.025039386
0.01301643 0.044607855 -0.021135071 -0.016219227 -0.038171355 -0.074199475 -0.07544862 0.0011596481
-0.024982098 -0.01092137 0.01940302 -0.028730815 0.0018118562 0.038714007 0.027946744 0.0152006615
0.02278275 0.03349614 -0.02067481 -0.020914482 -0.012724034 0.039590497 -0.011740179 -0.005721343
-0.009432515 -0.031704333 0.049126014 -0.037901342 0.031059507 0.008721964 -0.014428595 -0.02597873
-0.051087767 -0.005575404 0.039120562 0.01595888 -0.01413346 -0.052303992 -0.030484078 -0.0008171704
-0.007309423 0.016505875 0.021199679 0.05693125 -0.002924896 0.01034036 -0.051226385 -0.015874943
0.011215609 0.029373406 -0.010288327 0.004943231 -0.030819897 0.017638203 -0.07377587 0.026406648
0.009968942 -0.004472301 -0.038702432 -0.016630964 0.034168467 0.00012941442 -0.05645096 -0.058427174
0.021604855 -0.024716863 -0.03624704 -0.047457267 -0.059926055 -0.071302496 0.064026885 0.05193511
-0.0036490757 -0.0109134475 -0.07940422 -0.02884754 0.009723799 -0.03673528 -0.011024508 0.04839244
-0.007186311 0.010173889 0.048171043 0.029136976 0.012902045 -0.004607426 0.014564899 -0.023345254
-0.012781171 0.02945537 -0.063529216 -0.0037456579 0.0043759095 -0.046910327 0.0062283874 -0.0468968
0.023121487 0.003561782 -0.068040036 0.0019958878 -0.029028103 0.04765255 0.016960474 -0.017968195
0.028675202 0.0401079 -0.029389514 -0.0029038135 0.019623803 -0.007897272 -0.0022991665 0.03376503
0.00032391294 0.0449701 0.020960901 0.0050919056 -0.0390819 0.023805311 -0.084966116 0.021502644
0.0049514635 0.011087633 -0.03838589 0.044558417 0.0023848524 -0.0043075588 0.010548455 -0.082962796

gru.bias_ih_l0 f4 [384]
00000000: ef78 05bb 08c3 663c 1ee1 19bb 87b2 8d3c
00000010: b5a7 493c de97 dfbc 07cd 2abb 465c b63a
00000020: b9b7 d1bc 4995 86bb 42b1 3cbc 09db abbc
00000030: b236 92bc a744 fb3c 8b0d e03b 5440 19b9
00000040: 88de a63b 1216 4bbb 7231 8bbd 0b7a c2b8
00000050: b2bc c03c a4c6 d93a 2341 893b e629 873a
00000060: aead 263d 0814 34bc ffbb 233b 9a78 343d
00000070: 5d16 d03c 0354 06bc f904 033c dbe1 81bc
00000080: 9087 a23c a260 803c d879 0bbc 0277 283d
00000090: 9bf8 1d3c 85b0 af3b 0f35 5fbc c51d 1bbd
000000a0: eb1c 1ab7 af64 523c aaf5 ec3c e044 623c
000000b0: 6e6c 0c3d 3fa6 e13c 8ebb 02bd a926 74bc
000000c0: 095e 873c 1977 bcb9 6ab1 353c 57d4 c73a
000000d0: 8043 b0bb 67ab dc3c 3530 68bc 6e3f 7dbd
000000e0: 7a99 54bb e802 4dbc f5d3 803c bb79 313c
000000f0: f337 b73c b2ac 0a3c f595 dc3c f7f8 d53c
00000100: ba7b fa3b 62a9 83ba c487 9c3b fc86 b23c
00000110: 4231 c63c 506f f4bc bdc6 c1bc a844 f7bb
00000120: 8e5d 023b d179 ef3b c1c5 b63b d0ae 0abd
00000130: 8ce7 c0bc 4082 e9bb 96ff 0e3a 6cb6 a2bc
00000140: 69a2 5abb 203a 1e3b 98f8 6c3c 35a9 a3bc
00000150: 5570 0fbc b1ce 823b d3e8 acbb 8a4c 88ba
00000160: e53f 613c 7ef3 123d 6618 993c 757f 8f3c
00000170: 044c c9ba 0baf 07bc f7a6 13bc 7934 50ba
00000180: be3e 53bc 31db 1b3d 54bc 143d a906 2ebc
00000190: b0e9 0eb9 7bca efbb a0c9 0bba 24dc 09bc
000001a0: b956 d63c bf67 82bb 0507 f7bb 8a62 bf3b
000001b0: c2fa ce3c c2b4 88bb 0235 57b9 c8a2 aa3b
000001c0: 02a8 f83b e52c f43c 1920 853d 15c8 6d39
000001d0: 52d6 e1bc d954 e53c 0e83 2f3d e825 e3ba
000001e0: de10 f53c c152 bf3b d66d eb37 504a adbc
000001f0: 671e bc3c 929b f83c 3285 a93b d1aa 303d
00000200: efc7 863d 3f5d 5bbd f2c6 483e 5079 653d
00000210: e891 713e 045e 0cbe 8431 90bd cc3f 533e
00000220: b62c f8bb 8802 d03d 08ec 9fbd ac47 8ebe
00000230: 52be 34be 1c3f 423e 0488 5abd 97b8 833e
00000240: 4072 163e 0079 c53d bec4 81bd 8bf4 ecbd
00000250: 49db 923d 7bdc 6cbd d20b 18bd 2376 8a3c
00000260: ba1a ddbd ad7d 543e bcd7 82bd da9f 51bc
00000270: 0f6e cebd e078 61be 2700 10be fb40 8e3d
00000280: c85b febc afcf 553d a75a 893d 6770 7dbd
00000290: 79c3 393e 9c76 483e 5ce7 78bd 3992 1dbe
000002a0: 4fba 6a3e 3d15 b7bd f3d5 cc3d caf2 4ebe
000002b0: b60d 86be b8b4 083e fb29 e0bd 2324 97bd
000002c0: 62db a1bd cf62 873e 4329 343d 60c7 033e
000002d0: f4ac 7ebe 85e4 73be ca19 2fbe d0af 43be
000002e0: 96a0 173e c42a f43d 78af e4bd 42c2 cfbd
000002f0: b18f c1bd c764 433e fda6 45be 81a9 0ebe
00000300: e078 e83d f46f 3a3d 16d5 a13d 1acc ab3d
00000310: b899 1bbe b8ee 46be 962b 4fbe 30e8 673e
00000320: 6a8a 6d3e 0775 2c3e dc9f 42be 3a91 09be
00000330: 00a0 5bbe be0d 3f3e 553f 673e 0c99 f23d
00000340: 9b3f c83c 4862 723e f346 c73c f746 30be
00000350: 4bc9 47bd 07d2 febd 60e2 003d 77f4 463e
00000360: d15d 75be 25c9 49be bbd3 993d 3d5b 95bd
00000370: 2d72 ae3d db69 02be 47bc 01be a2b3 4b3e
00000380: d89c 0dbe 2b04 0bbe 207c 90bd c007 1a3e
00000390: 3ecf 513e ac23 313e 43d8 833d 7789 2bbe
000003a0: 7f34 1ebe 349b 303e 4809 483e 81ff 003e
000003b0: b886 07be 01ec 77be 75ca 84bd 156f 44be
000003c0: 85c0 333d e68a 3fbe 2be2 4ebe ab10 1a3e
000003d0: e9cc 38be a26d a53c 7b15 c0bd c9f8 173e
000003e0: cd63 0dbe d5d2 66bd 7f99 eb3c 781e 4c3e
000003f0: 13de 453e c764 073e 0846 3dbb b4f7 a03d
-0.0020366271 0.014084585 -0.0023480128 0.017297043 0.012308051 -0.027294096 -0.0026062147 0.0013912998
-0.025600301 -0.0041071516 -0.011516871 -0.020978468 -0.017848346 0.030672384 0.006837552 -0.00014615181
0.0050924458 -0.0030988497 -0.0679654 -9.273373e-05 0.023527477 0.0016614986 0.004188673 0.0010312169
0.040692978 -0.010991104 0.002498388 0.044060327 0.025401289 -0.008198741 0.007996791 -0.015854767
0.019840032 0.015671078 -0.0085129365 0.04112912 0.009641792 0.005361619 -0.01362349 -0.037870187
-9.185848e-06 0.012841388 0.028925736 0.013810366 0.034283094 0.027545093 -0.031917147 -0.014901795
0.016524332 -0.0003594689 0.011089662 0.0015245777 -0.0053791404 0.0269372 -0.01417165 -0.06182807
-0.0032440112 -0.0125129 0.015726069 0.010832245 0.022365546 0.008464025 0.026926974 0.026119692
0.007644144 -0.0010044987 0.0047769267 0.021792881 0.02419341 -0.029838234 -0.023654336 -0.0075460263
0.0019892189 0.007308223 0.0055777733 -0.03385812 -0.02354791 -0.0071261227 0.00054549554 -0.019862376
-0.0033360964 0.0024143532 0.014463566 -0.019978145 -0.008754809 0.0039919247 -0.0052767782 -0.0010398787
0.013748144 0.035876743 0.018688392 0.017516831 -0.0015357737 -0.00828148 -0.0090119755 -0.00079423893
-0.012893377 0.038050834 0.036312416 -0.010621705 -0.0001362923 -0.0073178387 -0.00053324737 -0.008414302
0.0261644 -0.0039796527 -0.0075386786 0.005840604 0.025266055 -0.0041719386 -0.00020523745 0.0052073933
0.0075883875 0.029806564 0.06500263 0.00022676618 -0.027568016 0.02799456 0.042849593 -0.0017330023
0.02991527 0.0058387225 2.806533e-05 -0.021153599 0.022963716 0.03034762 0.005173349 0.043131653
0.06581103 -0.053555723 0.19607142 0.056023896 0.23590815 -0.13707739 -0.07040694 0.20629805
-0.0075736893 0.10156733 -0.07808691 -0.27789056 -0.17650726 0.18969387 -0.05335237 0.25726768
0.1469202 0.096422195 -0.06336354 -0.1157008 0.071707316 -0.057827454 -0.037120648 0.016902035
-0.10796113 0.20751067 -0.06388804 -0.012794459 -0.10079586 -0.22018766 -0.14062558 0.06945988
-0.031049624 0.052200016 0.06706744 -0.061874773 0.18140973 0.19576496 -0.060767516 -0.15387811
0.22922634 -0.08939598 0.10001745 -0.20209804 -0.26182336 0.13350189 -0.10945507 -0.073799394
-0.07903172 0.26442572 0.043984663 0.12869024 -0.24870664 -0.23817642 -0.17099681 -0.19110036
0.14807352 0.119222194 -0.111662805 -0.101444736 -0.09451235 0.19081412 -0.19301982 -0.13931848
0.1135118 0.045516923 0.07901971 0.08388539 -0.15195358 -0.19427001 -0.2023147 0.22647166
0.23197332 0.16841517 -0.19006294 -0.13434306 -0.21447754 0.18657586 0.22582753 0.118455976
0.024444392 0.23670304 0.024325823 -0.17214571 -0.048775952 -0.12442403 0.031465888 0.19429193
-0.2396157 -0.19705637 0.075110875 -0.07292793 0.08517871 -0.12735693 -0.12669478 0.19892743
-0.13829362 -0.13575809 -0.07054925 0.15042019 0.20489213 0.17298764 0.06437733 -0.16751657
-0.15449713 0.17246705 0.1953479 0.12597467 -0.13234985 -0.24211122 -0.06483928 -0.19183
0.043884773 -0.1870533 -0.20203464 0.15045421 -0.18046917 0.020193879 -0.09379097 0.14840998
-0.13807602 -0.05635341 0.028759716 0.19933498 0.19322996 0.13222037 -0.0028880853 0.078597456

gru.bias_hh_l0 f4 [384]
00000000: ef78 05bb 08c3 663c 1ee1 19bb 87b2 8d3c
00000010: b5a7 493c de97 dfbc 07cd 2abb 465c b63a
00000020: b9b7 d1bc 4995 86bb 42b1 3cbc 09db abbc
00000030: b236 92bc a744 fb3c 8b0d e03b 5440 19b9
00000040: 88de a63b 1216 4bbb 7231 8bbd 0b7a c2b8
00000050: b2bc c03c a4c6 d93a 2341 893b e629 873a
00000060: aead 263d 0814 34bc ffbb 233b 9a78 343d
00000070: 5d16 d03c 0354 06bc f904 033c dbe1 81bc
00000080: 9087 a23c a260 803c d879 0bbc 0277 283d
00000090: 9bf8 1d3c 85b0 af3b 0f35 5fbc c51d 1bbd
000000a0: eb1c 1ab7 af64 523c aaf5 ec3c e044 623c
000000b0: 6e6c 0c3d 3fa6 e13c 8ebb 02bd a926 74bc
000000c0: 095e 873c 1977 bcb9 6ab1 353c 57d4 c73a
000000d0: 8043 b0bb 67ab dc3c 3530 68bc 6e3f 7dbd
000000e0: 7a99 54bb e802 4dbc f5d3 803c bb79 313c
000000f0: f337 b73c b2ac 0a3c f595 dc3c f7f8 d53c
00000100: ba7b fa3b 62a9 83ba c487 9c3b fc86 b23c
00000110: 4231 c63c 506f f4bc bdc6 c1bc a844 f7bb
00000120: 8e5d 023b d179 ef3b c1c5 b63b d0ae 0abd
00000130: 8ce7 c0bc 4082 e9bb 96ff 0e3a 6cb6 a2bc
00000140: 69a2 5abb 203a 1e3b 98f8 6c3c 35a9 a3bc
00000150: 5570 0fbc b1ce 823b d3e8 acbb 8a4c 88ba
00000160: e53f 613c 7ef3 123d 6618 993c 757f 8f3c
00000170: 044c c9ba 0baf 07bc f7a6 13bc 7934 50ba
00000180: be3e 53bc 31db 1b3d 54bc 143d a906 2ebc
00000190: b0e9 0eb9 7bca efbb a0c9 0bba 24dc 09bc
000001a0: b956 d63c bf67 82bb 0507 f7bb 8a62 bf3b
000001b0: c2fa ce3c c2b4 88bb 0235 57b9 c8a2 aa3b
000001c0: 02a8 f83b e52c f43c 1920 853d 15c8 6d39
000001d0: 52d6 e1bc d954 e53c 0e83 2f3d e825 e3ba
000001e0: de10 f53c c152 bf3b d66d eb37 504a adbc
000001f0: 671e bc3c 929b f83c 3285 a93b d1aa 303d
00000200: efc7 863d 3f5d 5bbd f2c6 483e 5079 653d
00000210: e891 713e 045e 0cbe 8431 90bd cc3f 533e
00000220: b62c f8bb 8802 d03d 08ec 9fbd ac47 8ebe
00000230: 52be 34be 1c3f 423e 0488 5abd 97b8 833e
00000240: 4072 163e 0079 c53d bec4 81bd 8bf4 ecbd
00000250: 49db 923d 7bdc 6cbd d20b 18bd 2376 8a3c
00000260: ba1a ddbd ad7d 543e bcd7 82bd da9f 51bc
00000270: 0f6e cebd e078 61be 2700 10be fb40 8e3d
00000280: c85b febc afcf 553d a75a 893d 6770 7dbd
00000290: 79c3 393e 9c76 483e 5ce7 78bd 3992 1dbe
000002a0: 4fba 6a3e 3d15 b7bd f3d5 cc3d caf2 4ebe
000002b0: b60d 86be b8b4 083e fb29 e0bd 2324 97bd
000002c0: 62db a1bd cf62 873e 4329 343d 60c7 033e
000002d0: f4ac 7ebe 85e4 73be ca19 2fbe d0af 43be
000002e0: 96a0 173e c42a f43d 78af e4bd 42c2 cfbd
000002f0: b18f c1bd c764 433e fda6 45be 81a9 0ebe
00000300: e078 e83d f46f 3a3d 16d5 a13d 1acc ab3d
00000310: b899 1bbe b8ee 46be 962b 4fbe 30e8 673e
00000320: 6a8a 6d3e 0775 2c3e dc9f 42be 3a91 09be
00000330: 00a0 5bbe be0d 3f3e 553f 673e 0c99 f23d
00000340: 9b3f c83c 4862 723e f346 c73c f746 30be
00000350: 4bc9 47bd 07d2 febd 60e2 003d 77f4 463e
00000360: d15d 75be 25c9 49be bbd3 993d 3d5b 95bd
00000370: 2d72 ae3d db69 02be 47bc 01be a2b3 4b3e
00000380: d89c 0dbe 2b04 0bbe 207c 90bd c007 1a3e
00000390: 3ecf 513e ac23 313e 43d8 833d 7789 2bbe
000003a0: 7f34 1ebe 349b 303e 4809 483e 81ff 003e
000003b0: b886 07be 01ec 77be 75ca 84bd 156f 44be
000003c0: 85c0 333d e68a 3fbe 2be2 4ebe ab10 1a3e
000003d0: e9cc 38be a26d a53c 7b15 c0bd c9f8 173e
000003e0: cd63 0dbe d5d2 66bd 7f99 eb3c 781e 4c3e
000003f0: 13de 453e c764 073e 0846 3dbb b4f7 a03d
-0.0020366271 0.014084585 -0.0023480128 0.017297043 0.012308051 -0.027294096 -0.0026062147 0.0013912998
-0.025600301 -0.0041071516 -0.011516871 -0.020978468 -0.017848346 0.030672384 0.006837552 -0.00014615181
0.0050924458 -0.0030988497 -0.0679654 -9.273373e-05 0.023527477 0.0016614986 0.004188673 0.0010312169
0.040692978 -0.010991104 0.002498388 0.044060327 0.025401289 -0.008198741 0.007996791 -0.015854767
0.019840032 0.015671078 -0.0085129365 0.04112912 0.009641792 0.005361619 -0.01362349 -0.037870187
-9.185848e-06 0.012841388 0.028925736 0.013810366 0.034283094 0.027545093 -0.031917147 -0.014901795
0.016524332 -0.0003594689 0.011089662 0.0015245777 -0.0053791404 0.0269372 -0.01417165 -0.06182807
-0.0032440112 -0.0125129 0.015726069 0.010832245 0.022365546 0.008464025 0.026926974 0.026119692
0.007644144 -0.0010044987 0.0047769267 0.021792881 0.02419341 -0.029838234 -0.023654336 -0.0075460263
0.0019892189 0.007308223 0.0055777733 -0.03385812 -0.02354791 -0.0071261227 0.00054549554 -0.019862376
-0.0033360964 0.0024143532 0.014463566 -0.019978145 -0.008754809 0.0039919247 -0.0052767782 -0.0010398787
0.013748144 0.035876743 0.018688392 0.017516831 -0.0015357737 -0.00828148 -0.0090119755 -0.00079423893
-0.012893377 0.038050834 0.036312416 -0.010621705 -0.0001362923 -0.0073178387 -0.00053324737 -0.008414302
0.0261644 -0.0039796527 -0.0075386786 0.005840604 0.025266055 -0.0041719386 -0.00020523745 0.0052073933
0.0075883875 0.029806564 0.06500263 0.00022676618 -0.027568016 0.02799456 0.042849593 -0.0017330023
0.02991527 0.0058387225 2.806533e-05 -0.021153599 0.022963716 0.03034762 0.005173349 0.043131653
0.06581103 -0.053555723 0.19607142 0.056023896 0.23590815 -0.13707739 -0.07040694 0.20629805
-0.0075736893 0.10156733 -0.07808691 -0.27789056 -0.17650726 0.18969387 -0.05335237 0.25726768
0.1469202 0.096422195 -0.06336354 -0.1157008 0.071707316 -0.057827454 -0.037120648 0.016902035
-0.10796113 0.20751067 -0.06388804 -0.012794459 -0.10079586 -0.22018766 -0.14062558 0.06945988
-0.031049624 0.052200016 0.06706744 -0.061874773 0.18140973 0.19576496 -0.060767516 -0.15387811
0.22922634 -0.08939598 0.10001745 -0.20209804 -0.26182336 0.13350189 -0.10945507 -0.073799394
-0.07903172 0.26442572 0.043984663 0.12869024 -0.24870664 -0.23817642 -0.17099681 -0.19110036
0.14807352 0.119222194 -0.111662805 -0.101444736 -0.09451235 0.19081412 -0.19301982 -0.13931848
0.1135118 0.045516923 0.07901971 0.08388539 -0.15195358 -0.19427001 -0.2023147 0.22647166
0.23197332 0.16841517 -0.19006294 -0.13434306 -0.21447754 0.18657586 0.22582753 0.118455976
0.024444392 0.23670304 0.024325823 -0.17214571 -0.048775952 -0.12442403 0.031465888 0.19429193
-0.2396157 -0.19705637 0.075110875 -0.07292793 0.08517871 -0.12735693 -0.12669478 0.19892743
-0.13829362 -0.13575809 -0.07054925 0.15042019 0.20489213 0.17298764 0.06437733 -0.16751657
-0.15449713 0.17246705 0.1953479 0.12597467 -0.13234985 -0.24211122 -0.06483928 -0.19183
0.043884773 -0.1870533 -0.20203464 0.15045421 -0.18046917 0.020193879 -0.09379097 0.14840998
-0.13807602 -0.05635341 0.028759716 0.19933498 0.19322996 0.13222037 -0.0028880853 0.078597456

gru.weight_ih_l1 f4 [384, 128]
00000000: 386b 06bd ef94 fe3d e622 a5be 9d66 dc3e
00000010: 8564 66bf 1d63 0b3e bb9d f23b 8e61 5c3e
00000020: 2a2f 73bd 2c3f d8bc da17 f13c 971b 9cbe
00000030: fb6b 65bd d319 b63e 8996 c8bc 6d3a abbe
00000040: 47a4 5cbe 1cc0 c93e 8f48 933d e319 62bd
00000050: 008b 78bd fafa 583d 6484 11bd cd30 7dbe
00000060: 0724 433e 2e20 b03e 833f 9a3e d9cc cfb8
00000070: 66f2 333d 3dcb 48bd 09a1 e83d 6216 be3b
00000080: 0763 f53d 5026 163e 9605 79be 7f6a 87bc
00000090: 000b e6bd 2bd9 3d3f 6c64 4d3d b9a6 9c3d
000000a0: 0ad8 50be 2be7 d5bc 5a7a de3d 7c8c 393e
000000b0: 3a90 99be a921 66be 3b0d 9bbe 09e1 72bd
000000c0: 2e88 b83d 8826 7bbf 3430 d83d 8799 dbbd
000000d0: a8d1 9b3e f1a5 b3bd 3c7e 8fba 3d80 483e
000000e0: 6f9c 0abf a86c 9f3d 393a 043e 167a dfbc
000000f0: 19d4 cc3e 7084 a83e bb16 32bf d5a4 12be
00000100: 2642 853d 09f7 d63e 027f 44be ef43 9bbb
00000110: 2646 e8be 2bc6 463d 6543 163d 2e47 8bbe
00000120: dbfc 8c3e 51b5 8e3e 879f f9be ef62 c53d
00000130: 4924 0a3c 9bb2 5dbd 6a6f 68be 80c8 c73d
00000140: 36ad 3ebe de8f 43be edcc 00bc 354f d73e
00000150: 6531 cabd 4970 3c3e 305a 1bbe 39c8 22bf
00000160: 8ec5 ed3c 6627 da3e 1d57 6dbc a701 78be
00000170: 55a2 7abc b80e 6bbe c06f 083e 18b5 63be
00000180: 99e7 cc3d 9b52 19be ba4d 793d ed40 dfbe
00000190: 61cb 38be 2d7e c03e f244 66be 1ffe 7fbd
000001a0: a8a4 103e ede4 7fbe a65a ecbe bd4e ae3e
000001b0: c879 563c 9c9e e03e 20b1 0f3d 7a9c af3d
000001c0: 354c 0f3f 7e25 d33d 1cff d9bc f80f e33d
000001d0: c33b 74be 5906 99bc 1e16 25be 9cc0 46be
000001e0: 85d8 093c c025 1a3f db14 403d 5628 8cbe
000001f0: 92e6 11be ed6d 163e b338 2b3d d7c2 30be
00000200: 5113 b53d f647 563d b626 19be 474d 25bc
00000210: 9372 4dbe 54a9 cfbc f071 993d 267e af3e
00000220: 67d5 673e 4393 ec3c 02e3 953d 579f 0dbd
00000230: 8e6f 05be 29e8 963e d327 873e 3a75 54bf
00000240: 1f2e 0abe 1430 423d 686e fd3e 1835 bd3a
00000250: bfe3 b3bd ce03 75be ce8d 02be 6a9b cc3e
00000260: 5618 afbc 3691 af3e 2e5e 0bbd 2f17 493e
00000270: 688e 93be 13a3 073e 4669 053e 55d9 863d
00000280: 41c6 08be 8a8b 893c 9477 fdbd c07a 323d
00000290: 26ac 33bf af6f 703d 4c32 963e 7f08 9bbe
000002a0: bc57 53bf c83e 4ebd 41d8 a4bc 68dc fcbe
000002b0: 98c1 e53c 50d8 acbd 67ca 8c3e f7d3 0d3f
000002c0: edc7 033e a73e d0be 78b7 883e ce81 2e3f
000002d0: c9d3 eabc bcbc eebd ad2e d33e 342e 74bc
000002e0: 43a0 5cbd 8a3b 3e3e 1fb9 4a3d 0ef7 d5bd
000002f0: 845f 6fbe 2099 3e3f 5d46 b33e be06 9e3d
00000300: 17b8 1f3e e3c3 07bf fd15 a33e c282 b73d
00000310: 2ddb f6bc dfce f83d 79da 19bc 2c66 2cbf
00000320: 4110 2b3f 7b4e 0c3f 095a 303f 0c54 c8bd
00000330: 6a00 ba3d 8518 0d3e ed86 25bf 1f53 d53d
00000340: 1d66 8c3d 6738 20bf be49 25bb 15b6 33bf
00000350: c3ec 53be 6b38 9fbe a366 a7bd 202a bcbe
00000360: 8816 e4bd 9475 b3bd caab 453c de79 a23e
00000370: 9015 583f a185 233f 2763 c7bd f72d 9b3c
00000380: 39d3 bbbe 7921 f23e 0438 3cbe 1681 3cbd
00000390: f4b8 e1be 5979 873c 8632 3e3e 7f97 9e3e
000003a0: 3b3e 15be bb57 0cbe cf40 90be 619c 483d
000003b0: 32e3 aabe e6e3 58bd 19d5 263e 97ca 253d
000003c0: 231c 12be 8d96 b5bd ef79 c53d 23e6 20bf
000003d0: 09b8 3f3e 6270 943d b9a6 843d 4614 aa3c
000003e0: 668b 243e 22d0 80bd ee27 3d3e 6af9 2dbe
000003f0: 26a0 5cbf db86 bb3d b6d1 293e bab0 1e3f
-0.032817096 0.124307506 -0.32253188 0.43047038 -0.8999713 0.13612027 0.007404057 0.21521589
-0.05937115 -0.02639731 0.029430319 -0.304898 -0.05601118 0.35566577 -0.024485843 -0.33443013
-0.21547042 0.3940438 0.07191574 -0.05520047 -0.060679436 0.052973725 -0.03552665 -0.24725647
0.19056712 0.3439955 0.3012658 -9.908685e-05 0.04393234 -0.049021948 0.1135884 0.005801008
0.119817786 0.14663053 -0.24318537 -0.016530273 -0.11232567 0.741595 0.050144598 0.07648987
-0.20394912 -0.026111206 0.108631805 0.18119997 -0.2999285 -0.22473778 -0.30283532 -0.05929664
0.09010349 -0.9810567 0.10556069 -0.107226424 0.30433393 -0.08771885 -0.0010947655 0.19580169
-0.5414495 0.077843964 0.12912835 -0.027279895 0.40005568 0.32913542 -0.69565934 -0.14320691
0.065067574 0.41985348 -0.19189075 -0.004738323 -0.4536602 0.04852883 0.036685366 -0.27202743
0.27536663 0.27872708 -0.48754522 0.09638011 0.008431503 -0.05412541 -0.22698751 0.09755039
-0.18620762 -0.1909785 -0.007861358 0.42052618 -0.098727025 0.18402208 -0.15171123 -0.63586766
0.029024865 0.42608184 -0.014486101 -0.2421938 -0.015297492 -0.22954834 0.13323879 -0.2223705
0.10005111 -0.14972918 0.06086514 -0.43604222 -0.18046333 0.37596264 -0.22487238 -0.062498208
0.14125311 -0.24989672 -0.4616291 0.34044448 0.013090558 0.4387101 0.03508103 0.085747674
0.5597566 0.103098854 -0.026610903 0.1108703 -0.23850922 -0.018679785 -0.16121718 -0.19409412
0.008413439 0.6021385 0.04689489 -0.27374524 -0.14248112 0.14690371 0.04180212 -0.17261826
0.08841575 0.05231472 -0.14956173 -0.010089225 -0.20063238 -0.025349297 0.07492435 0.3427593
0.2264 0.028878814 0.07318689 -0.034575786 -0.13030836 0.29474 0.2639757 -0.82991374
-0.13494156 0.047409132 0.49498296 0.0014435379 -0.087836735 -0.23927233 -0.12749407 0.39962322
-0.021373909 0.34290475 -0.034025364 0.1963775 -0.28819585 0.13245802 0.1302844 0.065844215
-0.13356878 0.01679017 -0.12376323 0.043574095 -0.7018455 0.05870026 0.29335248 -0.3027992
-0.8255575 -0.05035284 -0.02012265 -0.49386907 0.028046414 -0.08439696 0.2749817 0.5540156
0.12869234 -0.406728 0.26702476 0.68166816 -0.02866544 -0.11657092 0.41246548 -0.014903594
-0.053863775 0.185774 0.04949295 -0.104475126 -0.2337628 0.744524 0.3501462 0.0771613
0.15597568 -0.53033274 0.31852713 0.08960487 -0.030133808 0.121488325 -0.009390467 -0.673434
0.66821676 0.5480725 0.6888738 -0.09781656 0.0908211 0.13778885 -0.64659005 0.10416245
0.06855414 -0.62586063 -0.0025220956 -0.7019971 -0.20695786 -0.3109773 -0.08173873 -0.3675089
-0.1113711 -0.087626606 0.0120648835 0.31733602 0.844079 0.63875777 -0.09735709 0.018942816
-0.36684588 0.47291163 -0.18380743 -0.046021543 -0.4408642 0.016537355 0.1857396 0.30974957
-0.1457452 -0.13705342 -0.28174445 0.04897726 -0.3337646 -0.052951716 0.16292228 0.040476408
-0.14268546 -0.08866606 0.096423976 -0.6285116 0.18722548 0.07247998 0.06477112 0.02076162
0.16068801 -0.06289698 0.18472263 -0.16989675 -0.8618187 0.09156581 0.16583905 0.61988413

gru.weight_hh_l1 f4 [384, 128]
00000000: dda2 9abd 88ed d23d e197 f43d a6c6 a6bd
00000010: cf5f c93d 0365 e33d 43bc 1f3e b0e4 e7bd
00000020: 26e6 53be dac0 dabd 5633 7d3e 1585 76bd
00000030: b63e bdbd 2a66 01bb 0476 3b3d f14c 5fbe
00000040: 9ff4 2bbe d5a2 5b3d 7f2a c63d f798 10be
00000050: 3103 20be 9bdc 81bd 779d 12bd d63a a13c
00000060: 12a0 203e 3e4c dcbd 661c 1fbd 2168 68bd
00000070: e94e 5c3d 0fa9 f03c 5a40 cfbd 0c93 b83d
00000080: 6a6e 63be 990e c53c baf2 07bd 0a34 ab3d
00000090: ff4a 86bb 7cd2 25be cb57 a8bd dcf5 13bd
000000a0: 8c9f 43be cb28 923d 910f a0bc 3f9b f73d
000000b0: 6139 023e 4e44 763d af86 85bd 4944 f33d
000000c0: 1307 b1be 0493 8d3d 0ce3 d2bd 10da b23c
000000d0: c319 d2bd 6fc1 f3bd 8f14 f23c 9f39 8cbb
000000e0: 4d4c dfbd 45f3 52be 2489 afbc 4d42 1e3e
000000f0: f724 a9bd 55ac 3dbe c88a c23d e6c8 0f3e
00000100: 56d1 d33d 9099 b53d 4dcb 49bd a9ca ebbd
00000110: e102 273e 173c 093e 54a0 18be 98ea cebd
00000120: b38e 8c3d 38fc 89be 35b7 0c3e 02ef 69bd
00000130: 0b2e 8c3d 3188 7a3d 3a42 fa3d a2f9 81bd
00000140: 4d08 f2bd 8993 29be 1ef1 343e ff65 94bc
00000150: 1752 f53d 4d34 2bbe cfef 1ebe 34a3 d63b
00000160: ed29 24bc b356 4abd b777 89bd fcd7 d9bd
00000170: 4ec4 3bbe 9c20 46bd 7b30 9f3d e998 423c
00000180: 6437 abbd d585 b1bc 9f85 d43d 723d cd3d
00000190: d425 653c 0ff7 57bd 2e2f 253d a9d8 4e3d
000001a0: dd28 82be 7b46 053d f3c7 403e c082 debd
000001b0: 4b6a b23d 3f07 143d fa7a 89bd d702 09bd
000001c0: d08c 0d3e bfc3 e8bd 601d 0c3d 4139 1d3e
000001d0: f3cb 09be e7b4 e83d 621d 05be 52d5 34be
000001e0: c3ba e6bd fb70 78bd 6e43 a83d 1658 9ebd
000001f0: ba74 b4bd 7fd7 9dbd f222 25bd 8de0 993d
00000200: 152c ef3b 72de cbbe 6ad0 583e 0e3b af3d
00000210: 7841 e4bc 4af5 95ba 25e8 6fbd b049 bb3d
00000220: dfc3 c63d 41b8 a1bd afde 90be 89d7 e73d
00000230: d934 ec3d e4de e8be 6c61 f13d 376d 1a3c
00000240: d6ed 083e a729 37bd 219c 29be 4846 56be
00000250: d48c 3b3e 3d6a a33d 25db a5bd 8723 1fbe
00000260: 9809 a1bd 3023 033e a86d f43b e005 ea3d
00000270: a5e9 f03d 932e 88bd b5d0 583c 4ebe f83d
00000280: 08eb 5b3e 5b44 803e b612 b3bd 7758 1e3e
00000290: e971 1fbe c543 ea3d bc20 843c 00aa e1bd
000002a0: 2189 163e b05d 1fbe f08f 4abd 0d75 8cbe
000002b0: 1a71 ad3d 5104 153d 901b 9d3d 20da 8c3c
000002c0: 04f2 c0bd 3bb0 3a3c f2b4 193e d0ce 6a3d
000002d0: 388a 00be fce5 04be 23f1 a33d 6777 343d
000002e0: bba1 b43d 12fa 073c 7889 073e a123 01be
000002f0: 16be 70bd 7a83 72bb 2eb9 08bc 47af e2bc
00000300: b4af 84bd 766d 08bc c3f6 d03c 5b5e 2bbe
00000310: 186c 903d ffd2 0abd 9780 6c3d 5d8d 43be
00000320: e32d c83c 3e71 113e 0182 a0bc 02a1 413d
00000330: 8c25 8c3c cadb 873b 57e0 a9bc 113e 363d
00000340: ee5e bcbd a738 0cbe 2bc3 ebbd 93e5 cebd
00000350: 698d 9abd d809 513e 4716 a8bd 444f 2ebd
00000360: 4002 033e d5ae 4ebc 4602 233e 3c9f e0bd
00000370: 1407 f5bd 515e 243d bd45 65bd f576 e03d
00000380: 64d0 803d 52b7 9e3d 1d12 cdbd 3bfb 5fbd
00000390: 02ee 0bbe 8932 963e 9ff1 033e 3a72 1bbe
000003a0: 5b97 173e 7f8e 393e c759 363e cc5c a7bd
000003b0: 1389 bb3d 9905 103d 75ec 99bd cf2c 56bc
000003c0: e283 353a 353f 97bd c72a 123e b77c 1a3e
000003d0: 086a afbd 0d31 fa3d e8a6 c53d 6e1f fd3d
000003e0: 125f 9fbd f29c 003e 4350 20bd d80b 133e
000003f0: 7ebe 9bbb 33ad 893c 57a6 b13d cd11 00be
-0.07550595 0.10299212 0.11943031 -0.08143358 0.09832727 0.11103251 0.1559916 -0.113229156
-0.20693263 -0.10681315 0.24726614 -0.06018551 -0.09240477 -0.0019744732 0.045766845 -0.21806695
-0.16792534 0.053622086 0.09676074 -0.14120851 -0.15626217 -0.06340905 -0.0357947 0.019681375
0.15686062 -0.107567295 -0.038845442 -0.05673993 0.053786192 0.029377488 -0.10119696 0.09012422
-0.22210088 0.024054812 -0.033190466 0.08359535 -0.0040982957 -0.16193575 -0.0821987 -0.03612314
-0.19103831 0.07136687 -0.019538673 0.12090158 0.12717201 0.060123734 -0.065198295 0.11878259
-0.3457571 0.06912807 -0.10297212 0.021832496 -0.1025882 -0.11902129 0.029550819 -0.00427933
-0.10903225 -0.20600612 -0.021427698 0.15454979 -0.082590036 -0.1852277 0.09499127 0.1404148
0.10342662 0.0886718 -0.04926615 -0.11513264 0.16309692 0.13401829 -0.1490491 -0.10103339
0.06863155 -0.2695024 0.13741763 -0.0571127 0.068447195 0.06116504 0.12219663 -0.06346442
-0.118179895 -0.16560186 0.17670104 -0.018115042 0.11978548 -0.1671917 -0.15521167 0.006550217
-0.0100197615 -0.04939909 -0.06712287 -0.10636899 -0.18336603 -0.048370942 0.07772919 0.011877277
-0.08360174 -0.021670261 0.10377049 0.100214854 0.01398607 -0.052725848 0.040328197 0.050499592
-0.254218 0.03253792 0.18826275 -0.10864782 0.0871168 0.036139723 -0.06712909 -0.033449974
0.13823247 -0.113654606 0.0342077 0.15353872 -0.13456707 0.113626294 -0.1299949 -0.176595
-0.11266091 -0.06065462 0.08215986 -0.07731645 -0.08811326 -0.07707118 -0.04031653 0.07513533
0.007298956 -0.3981815 0.21173254 0.08556186 -0.02786325 -0.00114409 -0.058571 0.09144914
0.09705328 -0.07896472 -0.28294894 0.11320407 0.115335174 -0.45482552 0.1178616 0.009425453
0.13371977 -0.044717457 -0.16563465 -0.20925248 0.1831544 0.07979248 -0.08098439 -0.15540896
-0.07863158 0.12806392 0.007459361 0.11426902 0.11763314 -0.06649508 0.013233353 0.12145673
0.21476376 0.2505215 -0.08743803 0.15463434 -0.15570797 0.11438707 0.01612889 -0.11018753
0.14700748 -0.15563083 -0.049453676 -0.27433053 0.08468838 0.03638107 0.07671273 0.017193854
-0.09421161 0.011394556 0.15010431 0.057326138 -0.12552726 -0.12978357 0.080049776 0.044059183
0.0881991 0.0082993675 0.13236034 -0.12611248 -0.05877503 -0.0037004636 -0.0083449315 -0.02767147
-0.06478825 -0.008326879 0.02550829 -0.16735213 0.07051867 -0.033892628 0.05773982 -0.19096895
0.024435943 0.14203355 -0.01959324 0.04727269 0.017107747 0.004146074 -0.020736856 0.044492785
-0.09197794 -0.13693486 -0.11511835 -0.101023816 -0.07546503 0.20413911 -0.08207374 -0.042556062
0.12793827 -0.012614925 0.15918836 -0.109678715 -0.11964241 0.04012901 -0.05597471 0.10960189
0.06289747 0.07749809 -0.100132205 -0.05468295 -0.13665012 0.2933543 0.1288514 -0.15180293
0.14803831 0.18120764 0.17807685 -0.081719965 0.09157004 0.03516159 -0.07515804 -0.013072207
0.0006924254 -0.07385103 0.14274131 0.15086637 -0.08565146 0.12216387 0.096509755 0.1235951
-0.07781805 0.1255987 -0.039139044 0.14359987 -0.004752933 0.01680622 0.08674305 -0.1250679

gru.bias_ih_l1 f4 [384]
00000000: 04c9 653b 5430 163d 165c c43d 6af6 23be
00000010: 3b15 1d3d c5c0 bcbd bc67 763d 6ae5 02bc
00000020: c354 2ebe 4d88 8dbc 320c 4bbd 43a4 8d3c
00000030: cbfa b6bd 1fbe f1bc d2a1 16be 3bb9 15bd
00000040: 971d edbb 56c8 25be d4bb 853e d20c 81bd
00000050: 1d50 663b d34d 3ebe 1c72 7f3d d392 ccbd
00000060: 517c 453d 31da e4bd e6f4 42be 0421 43bb
00000070: e997 b43d 581f bebd 95d0 9a3d c992 0bbd
00000080: 4bd8 efbd 78ec 8e3c 6184 823d 8f30 e0bc
00000090: bd44 a93c 398d 02bd 3429 0abe 96aa e3bd
000000a0: dc5e 9f3d 8e00 04bd 3ab1 223d 5c0f a33e
000000b0: 8d8d 6bbe 9520 ac3d fe3f 103c c2eb 893d
000000c0: 68c3 42be 7d9f df3d d5be b8bd d762 713d
000000d0: 8418 c6bd 3934 d4bc 85d6 c7bd 090c 0d3e
000000e0: 9e60 b5bd 572f 08be f9c6 2f3e 565d a53e
000000f0: fbb1 d93d 7931 14bd c1c7 373d 6aac 0cbe
00000100: 4c63 903d 3061 ca3d 3b60 02bb 090f 043c
00000110: 6199 dfbd 64cc a13d 3ce7 813d d549 eebc
00000120: 6926 f6ba ff12 babd 2301 953d 31b5 26bc
00000130: 23e3 af3d 6087 acbd 7e8e 483e 4452 30be
00000140: f752 1c3d 5b57 47bd 95e2 d7bc 2ac5 1ebd
00000150: b08c 89bd 5699 0a3c d13e 82be 8403 063c
00000160: 8574 b93d 3bcc d53d 5885 a0bd 7351 e73c
00000170: 8d65 5a3d cdce 06be ee8c 2dbe 362a 0cbd
00000180: 85fc f8bb 3a8e 723d 2562 31bd 1dfd d33d
00000190: bf95 7cbe 6f44 aebc 6b9c a7bd f490 3f3d
000001a0: accc d63d 3319 373e c16f 64bc e1be 83bd
000001b0: a2e8 c23c 4a4b 103c 916e 9b3d 3e24 c6bd
000001c0: ec30 023d 0204 a3bd 2a99 e8bd febb 403d
000001d0: 539b d63b e6c5 c8bd d9df 53bc 22dd f5bc
000001e0: e8c9 8dbd 83c8 bd3d cb18 0fbc 7b07 47be
000001f0: 680f fd3c 2f34 e3bd ebe4 763d e64b 85ba
00000200: b31a e2be b7f3 73be fdfa 3bbe 70e2 6fbe
00000210: ec61 9bbe 233a f2be 72ab 49be 9239 eebe
00000220: aa76 bfbe df9d d7be 8c0d 57be b75d c7be
00000230: 5bab 7cbe a68a 6ebe 2245 b7be c28f 91be
00000240: ed8e bbbe 1e53 dabe 7dbf 6dbe 24c5 a4be
00000250: 09f2 7ebe 149b 08bf 2c9f 09bf fda6 cfbe
00000260: e56a c4be d427 c7be a17a a5be cba0 bebe
00000270: 4134 9ebe 9485 f5be f2b0 d2be e647 c9be
00000280: 6334 e9be 04c8 c4be f12d cfbe ecb7 69be
00000290: 4f9f 3fbe 8071 d4be 263d 0abf 94b3 efbe
000002a0: e6fd 2fbe bd1c 3fbe 6b41 a3be 0efc 03bf
000002b0: 0730 53be 521f e9be 6702 b0be 0a1c ecbe
000002c0: 9fd6 63be 8177 dfbe e75e b5be 6313 96be
000002d0: f4bd c5be c108 56be df87 23bf 621b 89be
000002e0: 2da0 d9be a90f 65be 24a6 c5be e0f6 b9be
000002f0: d06b 0dbf 0367 84be c001 e6be 5acb 9abe
00000300: 3661 96be 8458 8bbe 6990 bfbe cd4b c5be
00000310: 28f7 ddbe 6f72 d5be 8e8a 97be d5f9 7dbe
00000320: 264e 0fbf aca5 c4be 05bf 89be 9f0a 90be
00000330: 5b9f abbe 7004 ffbe e092 52be 204d 0dbf
00000340: 0d91 dbbe 11c4 e2be 5af8 15bf 6aee c1be
00000350: 038c f5be ddad 79be 508f 71be e612 a6be
00000360: b1bb 74be e3ca 3cbe 21b7 45be 0e4d 30be
00000370: 1636 2fbe 0cc3 f0be 9858 10bf 92de ebbd
00000380: 4135 67be 8739 57be 7e96 edbe c8ed 83be
00000390: 2e3e c3be 496b 80be 152c 8abe b4fb cabe
000003a0: 4663 a2be 1513 c7be b143 23be 9b04 08be
000003b0: 9479 4ebe 5e1e d8be cf98 e0be 98d0 b7be
000003c0: ecdb 88be e18b 1ebf 1461 ffbe dff5 d7be
000003d0: 2ea8 e2be 4641 eebd 76a0 d2be db7f 9fbe
000003e0: 3d37 8cbe c40a 90be 8b8e 9bbe 5c9c e2be
000003f0: e66a f1be 786d f1be dc39 febe e14c e2be
0.0035062442 0.036667183 0.095878765 -0.16011968 0.038350325 -0.09216455 0.060157523 -0.007989267
-0.17024522 -0.017276907 -0.049572177 0.01729024 -0.08934554 -0.029509602 -0.14710167 -0.036553603
-0.0072361934 -0.16189703 0.26119864 -0.063012734 0.0035142966 -0.18584375 0.062364683 -0.09988942
0.04821426 -0.11174429 -0.19038734 -0.0029774318 0.08818037 -0.09283322 0.07559315 -0.034075532
-0.117111765 0.017446741 0.063729055 -0.027366905 0.02066266 -0.03187296 -0.1349228 -0.11116521
0.07781765 -0.03222709 0.039719798 0.31847656 -0.23003216 0.08404652 0.008804319 0.0673442
-0.19019854 0.10919092 -0.09020773 0.05893215 -0.09672645 -0.025903808 -0.09757713 0.13774122
-0.08856319 -0.13299309 0.17165746 0.32297772 0.1062965 -0.036179993 0.044868235 -0.13737646
0.070501894 0.09881818 -0.0019893784 0.008060225 -0.109179266 0.079003125 0.063429326 -0.02908794
-0.0018779758 -0.090856545 0.072756074 -0.010175035 0.08588245 -0.08424258 0.19585606 -0.17218882
0.03816506 -0.048667293 -0.02635316 -0.03876225 -0.06716287 0.00845941 -0.2543855 0.008179549
0.090554275 0.104393445 -0.07837933 0.02823708 0.053319503 -0.13164826 -0.16948292 -0.034219943
-0.007598462 0.05921767 -0.04330649 0.10351012 -0.24666499 -0.021272866 -0.08184131 0.046769097
0.10488257 0.17880706 -0.01394266 -0.06432892 0.023792569 0.008807013 0.07589448 -0.096748814
0.031784937 -0.07959749 -0.11357339 0.047054283 0.006549278 -0.09803371 -0.012931787 -0.03001267
-0.06923276 0.0926676 -0.008733938 -0.19436447 0.030891135 -0.110939376 0.060276907 -0.0010169714
-0.44160995 -0.23823439 -0.18357463 -0.23426223 -0.30348146 -0.4730998 -0.19694307 -0.46528298
-0.3739522 -0.42112634 -0.21001261 -0.38938686 -0.24674742 -0.23295078 -0.35794932 -0.2842999
-0.3663248 -0.42641538 -0.23217578 -0.32181656 -0.24897017 -0.5336163 -0.537585 -0.4055709
-0.38362804 -0.38897574 -0.3232012 -0.3723205 -0.30899242 -0.47953475 -0.41150624 -0.39312667
-0.4554778 -0.3843385 -0.40464738 -0.22824067 -0.18713115 -0.41492844 -0.53999555 -0.46816695
-0.17186698 -0.18663307 -0.31885847 -0.5155648 -0.2062379 -0.45531708 -0.34376833 -0.46115142
-0.2224984 -0.43645862 -0.35423967 -0.29311666 -0.38621485 -0.20901777 -0.638792 -0.26778704
-0.42505017 -0.22369255 -0.38603318 -0.36321163 -0.55242634 -0.25859842 -0.4492321 -0.3023327
-0.2937104 -0.2721597 -0.37414864 -0.38534394 -0.43352628 -0.41688868 -0.29597896 -0.24802335
-0.5597862 -0.38407648 -0.2690355 -0.28133103 -0.33520016 -0.49808073 -0.20563841 -0.5519581
-0.42884102 -0.44290212 -0.5858208 -0.37877208 -0.47958383 -0.2438273 -0.23589826 -0.32436293
-0.23899724 -0.1843677 -0.1930814 -0.17216894 -0.17110476 -0.4702381 -0.56385183 -0.11517061
-0.22578909 -0.21018039 -0.4640388 -0.2576735 -0.38133377 -0.25081852 -0.26986757 -0.3964516
-0.31716365 -0.38881746 -0.15943791 -0.13283007 -0.20163566 -0.42210668 -0.43866584 -0.35901332
-0.26730287 -0.6193219 -0.49878752 -0.42179772 -0.44268936 -0.11633544 -0.41138047 -0.31152233
-0.27385893 -0.28133214 -0.3038219 -0.44259918 -0.4715187 -0.4715383 -0.49653518 -0.4419928
