model/gru_physics_epoch_10.pth (torch, 687480 bytes, 18 tensors)

gru.weight_ih_l0 f4 [384, 10]
-0.054267526 0.041155245 0.0021108435 0.107749656 0.067163266 0.012182753 0.09921049 0.032969125
-0.066161916 0.05212338 0.00015061765 -0.097786345 -0.03756329 -0.0052791396 -0.012705973 -0.043385364
-0.055732835 0.037127413 0.1197031 -0.026635148 -0.068967484 0.13452362 -0.039438084 -0.0017479598
-0.09403096 0.07427703 0.10475785 0.034488544 -0.031785678 0.080021374 0.012607099 -0.10239315
-0.103548385 0.08069099 -0.018332783 -0.13817571 -0.017680023 -0.10490794 0.0943134 0.12540445
0.08739062 -0.09025263 0.1108445 -0.023089198 -0.01743396 -0.11276442 -0.13028093 0.022406466
0.086254366 0.03699255 0.09296814 -0.021369793 -0.0656295 -0.023516864 -0.07800549 0.105808094
-0.03249154 0.06922419 0.026953842 0.043473803 -0.006643927 -0.10743594 0.05172279 0.06536482
-0.06798067 -0.10777993 -0.07090733 0.026702205 0.03207695 0.12146219 -0.15533783 -0.082342766
-0.06041687 0.010242151 -0.043007243 -0.06453003 0.019913793 0.039642956 0.024013696 0.004218771
0.09369471 0.0557062 -0.068314075 -0.0063416176 -0.02212722 0.10725569 0.1140937 -0.038866654
-0.07393138 0.04886328 -0.025897969 -0.116551094 0.07428026 -0.053371802 -0.009592015 0.065684766
-0.011810031 0.017122429 0.108146265 -0.027827337 -0.17811626 -0.034919474 -0.09082944 0.007884421
-0.0920133 -0.0016724805 0.107675895 -0.07190436 -0.025958663 -0.00940511 -0.03149623 -0.08601178
0.0882875 0.057136286 -0.083410405 0.035554327 0.020690158 -0.12711594 -0.068375915 0.09798707
0.067290194 0.17450906 -0.020464666 -0.06993181 0.009177585 0.027898293 0.13266009 -0.010960293
-0.12761115 0.029846217 0.06061894 0.067786425 -0.10852889 -0.047013395 -0.032558788 -0.16560416
0.023313373 -0.027654454 0.04831791 0.16793779 0.0684451 -0.04797729 0.06323789 -0.01234998
0.057410844 -0.034278784 0.029895287 0.012374648 0.05558274 0.11541537 0.066752024 0.09110151
0.02849796 -0.054256797 0.06309725 -0.10454946 -0.028611945 -0.036539882 0.043381825 0.0077619352
0.07548573 -0.017784227 0.10620486 0.057312917 0.08286565 0.020616855 -0.07347071 -0.0980399
-0.009042427 -0.091121584 0.053702142 0.057363987 -0.083445854 -0.07538746 0.038981143 -0.08058084
0.07850352 0.018050827 0.06577523 -0.050727393 0.07909186 0.036591355 -0.13236594 0.015561618
0.08668862 -0.07090995 -0.031625595 -0.068972036 -0.08947553 0.09018105 0.21260302 0.030977704
0.086876914 0.0827613 0.08505787 -0.07713617 0.068476 -0.007913729 0.05414013 -0.008045105
0.116967894 -0.014477067 -0.099200845 -0.051266953 0.033912748 -0.101213634 -0.08920736 -0.11776058
-0.013933278 0.0928224 0.023849387 0.1501824 0.04621257 -0.023658946 0.09623153 -0.15321536
-0.078685336 -0.15792236 0.005334216 0.0563622 0.041959558 -0.13185506 -0.03323833 -0.000531782
-0.085563265 -0.02310863 0.01900639 -0.13026798 0.12322191 -0.012326941 -0.017277116 0.13377057
-0.13323566 0.041690588 0.08775326 -0.06536831 0.07767389 0.04491531 -0.007882553 0.007573508
0.100852884 -0.012451534 0.306747 -0.088735394 -0.07282568 -0.090725556 -0.059189327 -0.09337855
0.07804439 -0.0036921331 -0.01901767 0.0794744 0.03222913 0.05529207 -0.10149269 0.13152091
00000000: a047 5ebd 6792 283d 1456 0a3b daab dc3d
00000010: e58c 893d 2b9a 473c df2e cb3d a20a 073d
00000020: e67f 87bd 537f 553d 1eef 1d39 3544 c8bd
00000030: f7db 19bd a2fc acbb b72c 50bc dab4 31bd
00000040: 1d48 64bd ea12 183d e626 f53d f431 dabc
00000050: d33e 8dbd 8fc0 093e d489 21bd cc1b e5ba
00000060: 4e93 c0bd 8e1e 983d 498b d63d dc43 0d3d
00000070: b331 02bd 3fe2 a33d 018e 4e3c 80b3 d1bd
00000080: 2d11 d4bd 5141 a53d a22e 96bc ef7d 0dbe
00000090: b2d5 90bc f9d9 d6bd 6227 c13d 066a 003e
000000a0: daf9 b23d 5fd6 b8bd 7102 e33d 8f25 bdbc
000000b0: aad1 8ebc 08f1 e6bd 5d68 05be c48d b73c
000000c0: 21a6 b03d 8085 173d 1566 be3d b40f afbc
000000d0: c268 86bd 70a6 c0bc 58c1 9fbd eab1 d83d
000000e0: d915 05bd 6ac5 8d3d 4ece dc3c 9611 323d
000000f0: 4db5 d9bb 6007 dcbd 47db 533d fedd 853d
00000100: 7339 8bbd b9bb dcbd dd37 91bd 95be da3c
00000110: 1f63 033d 2bc1 f83d e110 1fbe 53a3 a8bd
00000120: ae77 77bd b2ce 273c 5d28 30bd 5228 84bd
00000130: 4022 a33c a760 223d 5fb8 c43c 9e3d 8a3b
00000140: 03e3 bf3d 2f2c 643d 40e8 8bbd 58cd cfbb
00000150: 2544 b5bc dfa8 db3d f5a9 e93d a432 1fbd
00000160: 5669 97bd dd24 483d fa27 d4bc 57b2 eebd
00000170: 4020 983d 649c 5abd d427 1dbc bc85 863d
00000180: dc7e 41bc 5644 8c3c ca7b dd3d 28f6 e3bc
00000190: 1c64 36be b907 0fbd c904 babd a92d 013c
000001a0: 7871 bcbd 2237 dbba 2e85 dc3d 9842 93bd
000001b0: 43a7 d4bc e417 1abc 3102 01bd f226 b0bd
000001c0: 14d0 b43d bd07 6a3d 13d3 aabd 6aa1 113d
000001d0: 687e a93c ae2a 02be ac08 8cbd 72ad c83d
000001e0: 71cf 893d 81b2 323e 84a5 a7bc 6938 8fbd
000001f0: 955d 163c f68a e43c 0cd8 073e cd92 33bc
00000200: 7fac 02be 0e80 f43c 914b 783d 9cd3 8a3d
00000210: 6544 debd 1e91 40bd 5d5c 05bd 2394 29be
00000220: b0fb be3c 988b e2bc 00e9 453d e2f7 2b3e
00000230: f22c 8c3d d683 44bd de82 813d 9257 4abc
00000240: a227 6b3d e967 0cbd f6e6 f43c 09bf 4a3c
00000250: baaa 633d e55e ec3d 49b5 883d 6e93 ba3d
00000260: 8e74 e93c 603c 5ebd 2239 813d 071e d6bd
00000270: 9963 eabc d8aa 15bd 24b1 313d d557 fe3b
00000280: 4398 9a3d 3ab0 91bc ef81 d93d f3c0 6a3d
00000290: 77b5 a93d aee4 a83c d077 96bd 25c9 c8bd
000002a0: b026 14bc f49d babd c7f6 5b3d 80f6 6a3d
000002b0: a9e5 aabd be64 9abd b1aa 1f3d 9107 a5bd
000002c0: 74c6 a03d 54df 933c 2ab5 863d 87c7 4fbd
000002d0: eafa a13d d1e0 153d f08a 07be 28f6 7e3c
000002e0: ce89 b13d 3c39 91bd d789 01bd 3641 8dbd
000002f0: f23e b7bd d8b0 b83d 9bb4 593e f4c4 fd3c
00000300: 86ec b13d c27e a93d d232 ae3d 91f9 9dbd
00000310: 253d 8c3d 96a8 01bc 0ac2 5d3d 9ecf 03bc
00000320: dd8c ef3d 3831 6dbc d029 cbbd 4cfd 51bd
00000330: 18e8 0a3d 1849 cfbd 59b2 b6bd 752c f1bd
00000340: 6748 64bc ac19 be3d ca5f c33c 6ac9 193e
00000350: 6449 3d3d 68d0 c1bc 0915 c53d 7de4 1cbe
00000360: c725 a1bd 66b6 21be a6ca ae3b 0ddc 663d
00000370: c9dd 2b3d 0305 07be ea24 08bd 4967 0bba
00000380: cb3b afbd 4f4e bdbc 4ab3 9b3c f864 05be
00000390: c55b fc3d f0f6 49bc bd88 8dbc 27fb 083e
000003a0: ee6e 08be c0c3 2a3d fbb7 b33d d2df 85bd
000003b0: 7d13 9f3d 1ef9 373d d325 01bc 312b f83b
000003c0: f58b ce3d 8501 4cbc f10d 9d3e e7ba b5bd
000003d0: a125 95bd 52ce b9bd 8270 72bd 413d bfbd
000003e0: bdd5 9f3d b7f7 71bb f2ca 9bbc 79c3 a23d
000003f0: b102 043d f079 623d 66db cfbd 6bad 063e

gru.weight_hh_l0 f4 [384, 128]
0.06640622 0.044372607 0.033203524 -0.011908246 -0.009120431 -0.012872654 -0.057232723 -0.0049871444
-0.037215307 -0.04748958 0.008110071 0.00782666 0.03662311 0.100465275 0.10626 0.022717671
-0.05032213 -0.08540153 -0.06245692 -0.028646376 -0.09926487 -0.10130329 -0.020678699 0.051099148
-0.07991833 -0.021078832 0.06556783 -0.06589985 -0.064157255 0.07725792 -0.0045175096 -0.030821864
0.0923449 -0.05499743 0.0755589 0.07262517 -0.023461163 0.08082896 0.085262954 -0.039136518
0.08014945 0.06512788 0.03333056 -0.022352926 -0.101163834 -0.077298 -0.057734154 -0.026494365
-0.009315265 0.03561692 0.016531691 -0.007801274 0.08050597 0.06396936 0.07689832 -0.0061342428
-0.08225275 0.07698109 -0.052323878 -0.047148224 0.05677676 -0.08015341 0.0028580984 -0.045039624
-0.06793572 -0.04899265 2.7545646e-05 -0.017188672 0.032036386 0.069747314 0.011707618 -0.031461902
0.0011816759 -0.046853267 0.02836917 0.06031976 0.09783724 0.08142348 0.0914796 0.03469573
0.03827907 -0.059517052 -0.0010540718 -0.00318592 -0.10898306 -0.022106085 -0.008604291 -0.064478554
0.07397302 -0.018343227 -0.047269978 0.07124313 -0.028951487 -0.06590519 -0.069389224 -0.009111348
0.07174116 0.022328142 -0.050342355 0.03556682 -0.00046783654 0.09732717 0.029478356 0.020301351
-0.070564084 -0.101630926 0.055699117 -0.04203911 -0.016392196 -0.07930656 0.058963675 0.07780276
0.018308422 -0.0026559907 0.050907984 -0.037262216 -0.030423412 0.10818763 0.025455529 0.046189867
0.043177802 -0.09194196 0.029472986 -0.0050305375 0.017189361 -0.04012401 0.066045634 0.052157827
0.0087174885 0.0777566 -0.04399985 -0.05505241 -0.07759136 -0.13429703 -0.1403242 0.0002866008
-0.05068585 -0.02412634 0.019133843 -0.03856507 -0.014905224 0.08189027 0.07858574 0.03166333
0.048971817 0.07109194 -0.024092156 -0.06345044 -0.025162917 0.06100376 -0.02311387 -0.01076197
-0.04092427 -0.08730944 0.10024143 -0.059893515 0.086515784 0.0001118004 -0.05132695 -0.055494484
-0.10853312 -0.0328834 0.060176067 0.054524098 -0.027223615 -0.110152274 -0.044826947 -0.02224724
-0.015226597 0.017053856 0.04274349 0.09956772 -0.027366323 0.0025981753 -0.0876948 -0.035079647
0.044460922 0.06359852 -0.00023983701 0.012552342 -0.04294774 0.058009237 -0.13469929 0.037796635
0.042031668 0.011936468 -0.07530926 -0.013348055 0.052273806 0.00026945 -0.11973808 -0.12030594
0.066287026 -0.07274982 -0.07742633 -0.120112464 -0.10354468 -0.12852184 0.11376317 0.11048151
-0.007356532 -0.025014017 -0.14639498 -0.07852642 -0.0010454352 -0.08040024 -0.022964131 0.07949798
-0.03623036 0.021197533 0.12152423 0.041715052 0.024821574 -0.010983992 0.011359195 -0.050885275
-0.0053404723 0.06156033 -0.13239571 0.011188029 0.0071863453 -0.078729264 -0.0042723673 -0.09556559
0.029197784 -0.013856234 -0.14309269 0.025431408 -0.060471203 0.09947019 0.03533081 -0.01843503
0.04073952 0.10365253 -0.06121968 -0.0036477037 0.02188483 -0.037730973 -0.0036368086 0.07244878
-0.01829758 0.07597567 0.04498432 0.012538495 -0.06220073 0.04376541 -0.1556443 0.04450745
0.008933583 0.0018186246 -0.10122071 0.09261201 0.004967692 -0.006733062 0.04334097 -0.15416409
00000000: fcff 873d 0dc0 353d 6b00 083d ce1a 43bc
00000010: dc6d 15bc d3e7 52bc dc6c 6abd 336b a3bb
00000020: 146f 18bd 6f84 42bd 1ae0 043c 643b 003c
00000030: 1d02 163d bdc0 cd3d d89e d93d 691a ba3c
00000040: 941e 4ebd ffe6 aebd d4d2 7fbd ceab eabc
00000050: 614b cbbd 1978 cfbd 6066 a9bc 574d 513d
00000060: 39ac a3bd 84ad acbc 6d48 863d 80f6 86bd
00000070: e164 83bd 6639 9e3d 9e07 94bb 227e fcbc
00000080: 531f bd3d fc44 61bd a0be 9a3d 81bc 943d
00000090: a031 c0bc a789 a53d 589e ae3d 9d4d 20bd
000000a0: 6525 a43d c461 853d a085 083d 7c1d b7bc
000000b0: fc2e cfbd 6a4e 9ebd a67a 6cbd b60a d9bc
000000c0: 0e9f 18bc 0ce3 113d 786d 873c d4a1 ffbb
000000d0: 50e0 a43d 5e02 833d de7c 9d3d c201 c9bb
000000e0: 2174 a8bd 43a8 9d3d 9051 56bd 7f1e 41bd
000000f0: bf8e 683d 7927 a4bd ef4e 3b3b 787b 38bd
00000100: e221 8bbd 84ac 48bd d311 e737 42cf 8cbc
00000110: 9638 033d aed7 8e3d 4fd1 3f3c 32de 00bd
00000120: 77e2 9a3a 36e9 3fbd 7666 e83c da11 773d
00000130: e45e c83d 5ac1 a63d a859 bb3d 1c1d 0e3d
00000140: 84ca 1c3d 27c8 73bd c828 8aba deca 50bb
00000150: 8332 dfbd d217 b5bc 03f9 0cbc 550d 84bd
00000160: 2b7f 973d 8944 96bc 2a9e 41bd ebe7 913d
00000170: ab2b edbc 4df9 86bd f01b 8ebd c347 15bc
00000180: 07ed 923d 82e9 b63c c933 4ebd 84ae 113d
00000190: f547 f5b9 7853 c73d 987c f13c 054f a63c
000001a0: e783 90bd e023 d0bd c224 643d 3431 2cbd
000001b0: ed48 86bc 7a6b a2bd e583 713d 0e57 9f3d
000001c0: 8bfb 953c 2110 2ebb e484 503d 44a0 18bd
000001d0: 853a f9bc 7a91 dd3d 1d88 d03c 9631 3d3d
000001e0: 35db 303d 114c bcbd 5571 f13c 35d7 a4bb
000001f0: b4d0 8c3c 1359 24bd ef42 873d 72a3 553d
00000200: ccd3 0e3c da3e 9f3d 3039 34bd a37e 61bd
00000210: 38e8 9ebd 2985 09be 26b1 0fbe e942 9639
00000220: f79b 4fbd 9aa4 c5bc 94be 9c3c 68f6 1dbd
00000230: 0a35 74bc 16b6 a73d 8ff1 a03d 68b1 013d
00000240: ac96 483d a798 913d ea5c c5bc 4ef2 81bd
00000250: 7622 cebc 14df 793d 4c59 bdbc f952 30bc
00000260: 35a0 27bd 4bcf b2bd 614b cd3d e752 75bd
00000270: 302f b13d 6276 ea38 353c 52bd 2f4e 63bd
00000280: 9d46 debd beb0 06bd 2e7b 763d a954 5f3d
00000290: 0f04 dfbc 8497 e1bd 769c 37bd d83f b6bc
000002a0: fa78 79bc 87b4 8b3c cc13 2f3d 29ea cb3d
000002b0: 572f e0bc 2646 2a3b 5599 b3bd adaf 0fbd
000002c0: a81c 363d f13f 823d c27c 7bb9 57a8 4d3c
000002d0: f8e9 2fbd 189b 6d3d 9cee 09be a5d0 1a3d
000002e0: 6629 2c3d 2d91 433c be3b 9abd cdb1 5abc
000002f0: 0f1d 563d f844 8d39 3d39 f5bd f662 f6bd
00000300: 7ec1 873d dcfd 94bd b291 9ebd 86fd f5bd
00000310: 3c0f d4bd 3b9b 03be aafc e83d 2144 e23d
00000320: 100f f1bb 32ea ccbc 91e8 15be 76d2 a0bd
00000330: fc06 89ba e2a8 a4bd 461f bcbc d6cf a23d
00000340: 4966 14bd 73a6 ad3c b2e1 f83d 67dd 2a3d
00000350: 9d56 cb3c 34f6 33bc eb1b 3a3c 146d 50bd
00000360: 21ff aebb af26 7c3d be92 07be ff4d 373c
00000370: 6f7b eb3b cf3c a1bd 37ff 8bbb e4b7 c3bd
00000380: 3130 ef3c 4205 63bc e486 12be 8755 d03c
00000390: a7b0 77bd 07b7 cb3d 0ab7 103d 0f05 97bc
000003a0: 7cde 263d c747 d43d 7dc1 7abd 500e 6fbb
000003b0: d147 b33c cb8b 1abd 8657 6ebb 0760 943d
000003c0: cee4 95bc 2299 9b3d 7a41 383d 426e 4d3c
000003d0: 31c6 7ebd 5c43 333d 3861 1fbe 724d 363d
000003e0: 2a5e 123c ea5e ee3a ce4c cfbd 5eab bd3d
000003f0: 05c8 a23b 05a1 dcbb 4d86 313d 31dd 1dbe

gru.bias_ih_l0 f4 [384]
-0.004241742 0.006838872 -0.0048928135 0.034329336 0.025645426 -0.018180301 -0.0069728573 0.002897541
-0.053318694 -0.0059825364 -0.023999738 0.035955444 -0.037176434 0.06390393 0.014244317 -0.00030459126
0.01060948 -0.004964297 0.008523018 -0.00019313351 0.0490069 0.0034607467 0.00871687 -0.02385263
0.0022734406 -0.02289633 0.005206001 0.09178034 0.046382062 -0.039979924 -0.015072057 -0.03303754
0.03486692 0.032667417 -0.017736485 0.08567536 0.02008307 0.011170587 -0.02837699 -0.07287177
-1.9140067e-05 0.0031105895 0.060249604 0.0002782737 0.07146436 -0.038978893 -0.013710948 -0.030864058
0.03440645 -0.00074906 -0.08513631 0.0031763546 -0.031528227 0.056089554 -0.005187728 -0.12354921
-0.006758733 -0.02606493 0.03275829 0.022571726 -0.029481642 0.017628206 0.034749795 0.05442059
0.01592539 -0.0020925805 0.009950395 0.07561202 0.014702213 -0.06213278 -0.061184578 -0.015714176
0.004144936 0.015224115 0.0116161695 -0.016810484 -0.048975702 -0.014996653 0.0011365033 -0.042997707
-0.0108397845 0.005028817 0.03012632 -0.033182085 -0.018238865 0.008478085 -0.010840285 -0.002164792
-0.0100888135 0.07471347 0.03894924 0.030042287 -0.00057950866 -0.013880172 0.011333578 -0.0016537252
-0.00079316605 0.049854036 0.07332653 -0.022097278 -0.00028395932 -0.015243997 -0.0011112584 0.013409662
0.014728761 -0.008292351 -0.01569884 0.012167182 0.112033814 -0.022275412 -0.04368327 -0.023682492
0.015806645 -0.0019894575 0.11436159 0.0004724016 0.01946557 0.058411244 0.1057829 -0.0036095553
0.062292162 -0.0019820218 5.8453326e-05 -0.044038966 0.047848925 0.063213706 0.0107759135 0.09903924
0.09213509 -0.111521825 0.19952494 -0.14109576 0.19918211 -0.13698767 -0.09835685 0.1454878
0.0077271974 0.11413969 -0.16257802 -0.2868061 0.015598092 0.115182005 -0.017269585 0.24557726
0.06121202 0.027334929 -0.13183661 -0.097185455 -0.022880819 -0.12044683 0.013424621 0.0036825829
-0.22480153 0.035382934 0.08416124 -0.10785339 -0.12109782 -0.20375302 -0.10932384 0.13037935
0.04997395 -0.0994347 0.030173786 -0.12895006 0.14536533 0.14014526 -0.12658434 -0.13975765
0.22065245 -0.11593495 0.09731838 -0.21134308 -0.24619478 -0.1545473 -0.22802164 0.050776534
-0.16455597 0.21472475 -0.13283871 0.19042306 -0.18618399 -0.19364893 -0.05677179 -0.13171026
0.023233583 0.032715593 -0.12288512 -0.08825521 -0.1300098 0.12418836 0.009908127 -0.1456578
0.07966907 0.026877435 0.026980074 -0.060511354 -0.2828155 -0.14329545 -0.20602241 0.24806264
0.20954962 0.29852745 -0.23745298 -0.15840416 -0.07870632 0.16469148 0.198422 -0.008497332
-0.18461774 0.25835624 -0.17583264 -0.20211607 0.14764445 -0.04019816 -0.013777211 0.06833277
-0.1769125 -0.0804475 0.078344 -0.14579096 0.0785061 -0.17081751 -0.15325773 0.17903718
-0.22103563 -0.24231304 0.012806443 -0.054259866 0.16140695 0.12998587 -0.019013891 -0.15611425
-0.13664441 0.060974482 0.25314915 0.04037601 -0.17917445 -0.14667009 -0.08970737 0.12985985
-0.08009718 -0.18985197 0.020366844 0.1341437 -0.1789035 -0.012293785 -0.204298 0.16055374
0.09062907 -0.11736342 -0.113652654 0.24835925 0.12417655 0.15823306 -0.09218552 -0.02320879
00000000: 50fe 8abb 9e18 e03b e553 a0bb eb9c 0c3d
00000010: 5b16 d23c dbee 94bc 917c e4bb ace4 3d3b
00000020: b464 5abd 2709 c4bb 199b c4bc 0446 133d
00000030: 5146 18bd 10e0 823d ff60 693c 8cb1 9fb9
00000040: 62d3 2d3c 8bab a2bb 21a4 0b3c e283 4ab9
00000050: 76bb 483d b2cd 623b 34d1 0e3c 9766 c3bc
00000060: 01fe 143b 1691 bbbc 1a97 aa3b 55f7 bb3d
00000070: 1efb 3d3d fdc1 23bd caf0 76bc 5f52 07bd
00000080: 9ed0 0e3d 45ce 053d 1b4c 91bc 9076 af3d
00000090: 4085 a43c d604 373c dd76 e8bc cb3d 95bd
000000a0: fb8e a0b7 08db 4b3b 4ac8 763d 44e5 9139
000000b0: e85b 923d 55a8 1fbd e2a3 60bc 9fd6 fcbc
000000c0: c7ed 0c3d 915c 44ba f25b aebd 632a 503b
000000d0: be23 01bd 29be 653d d1fd a9bb 5e07 fdbd
000000e0: 5d78 ddbb 1f86 d5bc 8f2d 063d 57e8 b83c
000000f0: 7c83 f1bc 0769 903c cd55 0e3d 20e8 5e3d
00000100: f775 823c ad23 09bb fb06 233c 7ada 9a3d
00000110: 8de1 703c f17e 7ebd ae9c 7abd 04bb 80bc
00000120: 3ed2 873b 916e 793c bf51 3e3c 24b6 89bc
00000130: bf9a 48bd 86b4 75bc b9f6 943a 5d1e 30bd
00000140: 5a99 31bc c6c8 a43b 79cb f63c f0e9 07bd
00000150: ac69 95bc aae7 0a3c 739b 31bc 2fdf 0dbb
00000160: 8d4b 25bc 6003 993d 3d89 1f3d 3e1b f63c
00000170: 2bea 17ba a969 63bc 79b0 393c cfc1 d8ba
00000180: 79ec 4fba bf33 4c3d 382c 963d 5a05 b5bc
00000190: 60e0 94b9 f5c1 79bc a5a7 91ba 33b4 5b3c
000001a0: e750 713c a4dc 07bc db9a 80bc dc58 473c
000001b0: fc71 e53d ed7a b6bc 3bed 32bd c901 c2bc
000001c0: f07c 813c 8f61 02bb 6936 ea3d abac f739
000001d0: 4276 9f3c a140 6f3d b4a4 d83d 4a8e 6cbb
000001e0: 1126 7f3d cfe4 01bb c82b 7538 3462 34bd
000001f0: 3cfd 433d 3076 813d 758d 303c 16d5 ca3d
00000200: 52b1 bc3d 8e65 e4bd 4450 4c3e 687b 10be
00000210: 65f6 4b3e 7f46 0cbe 516f c9bd c1fa 143e
00000220: 6e34 fd3b 12c2 e93d da7a 26be 40d8 92be
00000230: 248f 7f3c 8be4 eb3d f278 8dbc 9b78 7b3e
00000240: 75b9 7a3d 80ed df3c 2d00 07be 2b09 c7bd
00000250: 8e70 bbbc d4ac f6bd f1f2 5b3c 7d57 713b
00000260: 5f32 66be b2ed 103d ba5c ac3d 3de2 dcbd
00000270: 2202 f8bd a2a4 50be 2de5 dfbd 2a82 053e
00000280: 7cb1 4c3d 6ca4 cbbd 042f f73c 7c0b 04be
00000290: a6da 143e 3d82 0f3e 539f 01be a11c 0fbe
000002a0: b7f2 613e 4e6f edbd dc4e c73d 526a 58be
000002b0: 7c1a 7cbe a641 1ebe 817e 69be 0efb 4f3d
000002c0: 5c81 28be cee0 5b3e df06 08be 43fe 423e
000002d0: 04a7 3ebe e84b 46be 8989 68bd 0edf 06be
000002e0: 5b54 be3c c900 063d 32ab fbbd 26bf b4bd
000002f0: 4a21 05be 7856 fe3d b255 223c 5127 15be
00000300: 8a29 a33d 112e dc3c 5105 dd3c c1da 77bd
00000310: 31cd 90be 0bbc 12be 8af7 52be 2204 7e3e
00000320: 2d94 563e 97d8 983e e026 73be b334 22be
00000330: c730 a1bd e2a4 283e 232f 4b3e 6538 0bbc
00000340: 6f0c 3dbe 4547 843e 790d 34be 84f7 4ebe
00000350: 1b30 173e d3a6 24bd d0b9 61bc 0df2 8b3d
00000360: 8d28 35be a9c1 a4bd d272 a03d 3a4a 15be
00000370: cec7 a03d c9ea 2ebe 98ef 1cbe 8655 373e
00000380: 2a57 62be e920 78be 1dd2 513c 983f 5ebd
00000390: dd47 253e 041b 053e 05c3 9bbc 6adc 1fbe
000003a0: 83ec 0bbe 61c0 793d c49c 813e 5161 253d
000003b0: 8279 37be af30 16be 7fb8 b7bd fbf9 043e
000003c0: fe09 a4bd 8e68 42be 5ed8 a63c f75c 093e
000003d0: 7b32 37be df6b 49bc 7f33 51be 3368 243e
000003e0: bc9b b93d 3c5c f0bd b9c2 e8bd e351 7e3e
000003f0: 4650 fe3d d907 223e c3cb bcbd 5c20 bebc

gru.bias_hh_l0 f4 [384]
-0.004241742 0.006838872 -0.0048928135 0.034329336 0.025645426 -0.018180301 -0.0069728573 0.002897541
-0.053318694 -0.0059825364 -0.023999738 0.035955444 -0.037176434 0.06390393 0.014244317 -0.00030459126
0.01060948 -0.004964297 0.008523018 -0.00019313351 0.0490069 0.0034607467 0.00871687 -0.02385263
0.0022734406 -0.02289633 0.005206001 0.09178034 0.046382062 -0.039979924 -0.015072057 -0.03303754
0.03486692 0.032667417 -0.017736485 0.08567536 0.02008307 0.011170587 -0.02837699 -0.07287177
-1.9140067e-05 0.0031105895 0.060249604 0.0002782737 0.07146436 -0.038978893 -0.013710948 -0.030864058
0.03440645 -0.00074906 -0.08513631 0.0031763546 -0.031528227 0.056089554 -0.005187728 -0.12354921
-0.006758733 -0.02606493 0.03275829 0.022571726 -0.029481642 0.017628206 0.034749795 0.05442059
0.01592539 -0.0020925805 0.009950395 0.07561202 0.014702213 -0.06213278 -0.061184578 -0.015714176
0.004144936 0.015224115 0.0116161695 -0.016810484 -0.048975702 -0.014996653 0.0011365033 -0.042997707
-0.0108397845 0.005028817 0.03012632 -0.033182085 -0.018238865 0.008478085 -0.010840285 -0.002164792
-0.0100888135 0.07471347 0.03894924 0.030042287 -0.00057950866 -0.013880172 0.011333578 -0.0016537252
-0.00079316605 0.049854036 0.07332653 -0.022097278 -0.00028395932 -0.015243997 -0.0011112584 0.013409662
0.014728761 -0.008292351 -0.01569884 0.012167182 0.112033814 -0.022275412 -0.04368327 -0.023682492
0.015806645 -0.0019894575 0.11436159 0.0004724016 0.01946557 0.058411244 0.1057829 -0.0036095553
0.062292162 -0.0019820218 5.8453326e-05 -0.044038966 0.047848925 0.063213706 0.0107759135 0.09903924
0.09213509 -0.111521825 0.19952494 -0.14109576 0.19918211 -0.13698767 -0.09835685 0.1454878
0.0077271974 0.11413969 -0.16257802 -0.2868061 0.015598092 0.115182005 -0.017269585 0.24557726
0.06121202 0.027334929 -0.13183661 -0.097185455 -0.022880819 -0.12044683 0.013424621 0.0036825829
-0.22480153 0.035382934 0.08416124 -0.10785339 -0.12109782 -0.20375302 -0.10932384 0.13037935
0.04997395 -0.0994347 0.030173786 -0.12895006 0.14536533 0.14014526 -0.12658434 -0.13975765
0.22065245 -0.11593495 0.09731838 -0.21134308 -0.24619478 -0.1545473 -0.22802164 0.050776534
-0.16455597 0.21472475 -0.13283871 0.19042306 -0.18618399 -0.19364893 -0.05677179 -0.13171026
0.023233583 0.032715593 -0.12288512 -0.08825521 -0.1300098 0.12418836 0.009908127 -0.1456578
0.07966907 0.026877435 0.026980074 -0.060511354 -0.2828155 -0.14329545 -0.20602241 0.24806264
0.20954962 0.29852745 -0.23745298 -0.15840416 -0.07870632 0.16469148 0.198422 -0.008497332
-0.18461774 0.25835624 -0.17583264 -0.20211607 0.14764445 -0.04019816 -0.013777211 0.06833277
-0.1769125 -0.0804475 0.078344 -0.14579096 0.0785061 -0.17081751 -0.15325773 0.17903718
-0.22103563 -0.24231304 0.012806443 -0.054259866 0.16140695 0.12998587 -0.019013891 -0.15611425
-0.13664441 0.060974482 0.25314915 0.04037601 -0.17917445 -0.14667009 -0.08970737 0.12985985
-0.08009718 -0.18985197 0.020366844 0.1341437 -0.1789035 -0.012293785 -0.204298 0.16055374
0.09062907 -0.11736342 -0.113652654 0.24835925 0.12417655 0.15823306 -0.09218552 -0.02320879
00000000: 50fe 8abb 9e18 e03b e553 a0bb eb9c 0c3d
00000010: 5b16 d23c dbee 94bc 917c e4bb ace4 3d3b
00000020: b464 5abd 2709 c4bb 199b c4bc 0446 133d
00000030: 5146 18bd 10e0 823d ff60 693c 8cb1 9fb9
00000040: 62d3 2d3c 8bab a2bb 21a4 0b3c e283 4ab9
00000050: 76bb 483d b2cd 623b 34d1 0e3c 9766 c3bc
00000060: 01fe 143b 1691 bbbc 1a97 aa3b 55f7 bb3d
00000070: 1efb 3d3d fdc1 23bd caf0 76bc 5f52 07bd
00000080: 9ed0 0e3d 45ce 053d 1b4c 91bc 9076 af3d
00000090: 4085 a43c d604 373c dd76 e8bc cb3d 95bd
000000a0: fb8e a0b7 08db 4b3b 4ac8 763d 44e5 9139
000000b0: e85b 923d 55a8 1fbd e2a3 60bc 9fd6 fcbc
000000c0: c7ed 0c3d 915c 44ba f25b aebd 632a 503b
000000d0: be23 01bd 29be 653d d1fd a9bb 5e07 fdbd
000000e0: 5d78 ddbb 1f86 d5bc 8f2d 063d 57e8 b83c
000000f0: 7c83 f1bc 0769 903c cd55 0e3d 20e8 5e3d
00000100: f775 823c ad23 09bb fb06 233c 7ada 9a3d
00000110: 8de1 703c f17e 7ebd ae9c 7abd 04bb 80bc
00000120: 3ed2 873b 916e 793c bf51 3e3c 24b6 89bc
00000130: bf9a 48bd 86b4 75bc b9f6 943a 5d1e 30bd
00000140: 5a99 31bc c6c8 a43b 79cb f63c f0e9 07bd
00000150: ac69 95bc aae7 0a3c 739b 31bc 2fdf 0dbb
00000160: 8d4b 25bc 6003 993d 3d89 1f3d 3e1b f63c
00000170: 2bea 17ba a969 63bc 79b0 393c cfc1 d8ba
00000180: 79ec 4fba bf33 4c3d 382c 963d 5a05 b5bc
00000190: 60e0 94b9 f5c1 79bc a5a7 91ba 33b4 5b3c
000001a0: e750 713c a4dc 07bc db9a 80bc dc58 473c
000001b0: fc71 e53d ed7a b6bc 3bed 32bd c901 c2bc
000001c0: f07c 813c 8f61 02bb 6936 ea3d abac f739
000001d0: 4276 9f3c a140 6f3d b4a4 d83d 4a8e 6cbb
000001e0: 1126 7f3d cfe4 01bb c82b 7538 3462 34bd
000001f0: 3cfd 433d 3076 813d 758d 303c 16d5 ca3d
00000200: 52b1 bc3d 8e65 e4bd 4450 4c3e 687b 10be
00000210: 65f6 4b3e 7f46 0cbe 516f c9bd c1fa 143e
00000220: 6e34 fd3b 12c2 e93d da7a 26be 40d8 92be
00000230: 248f 7f3c 8be4 eb3d f278 8dbc 9b78 7b3e
00000240: 75b9 7a3d 80ed df3c 2d00 07be 2b09 c7bd
00000250: 8e70 bbbc d4ac f6bd f1f2 5b3c 7d57 713b
00000260: 5f32 66be b2ed 103d ba5c ac3d 3de2 dcbd
00000270: 2202 f8bd a2a4 50be 2de5 dfbd 2a82 053e
00000280: 7cb1 4c3d 6ca4 cbbd 042f f73c 7c0b 04be
00000290: a6da 143e 3d82 0f3e 539f 01be a11c 0fbe
000002a0: b7f2 613e 4e6f edbd dc4e c73d 526a 58be
000002b0: 7c1a 7cbe a641 1ebe 817e 69be 0efb 4f3d
000002c0: 5c81 28be cee0 5b3e df06 08be 43fe 423e
000002d0: 04a7 3ebe e84b 46be 8989 68bd 0edf 06be
000002e0: 5b54 be3c c900 063d 32ab fbbd 26bf b4bd
000002f0: 4a21 05be 7856 fe3d b255 223c 5127 15be
00000300: 8a29 a33d 112e dc3c 5105 dd3c c1da 77bd
00000310: 31cd 90be 0bbc 12be 8af7 52be 2204 7e3e
00000320: 2d94 563e 97d8 983e e026 73be b334 22be
00000330: c730 a1bd e2a4 283e 232f 4b3e 6538 0bbc
00000340: 6f0c 3dbe 4547 843e 790d 34be 84f7 4ebe
00000350: 1b30 173e d3a6 24bd d0b9 61bc 0df2 8b3d
00000360: 8d28 35be a9c1 a4bd d272 a03d 3a4a 15be
00000370: cec7 a03d c9ea 2ebe 98ef 1cbe 8655 373e
00000380: 2a57 62be e920 78be 1dd2 513c 983f 5ebd
00000390: dd47 253e 041b 053e 05c3 9bbc 6adc 1fbe
000003a0: 83ec 0bbe 61c0 793d c49c 813e 5161 253d
000003b0: 8279 37be af30 16be 7fb8 b7bd fbf9 043e
000003c0: fe09 a4bd 8e68 42be 5ed8 a63c f75c 093e
000003d0: 7b32 37be df6b 49bc 7f33 51be 3368 243e
000003e0: bc9b b93d 3c5c f0bd b9c2 e8bd e351 7e3e
000003f0: 4650 fe3d d907 223e c3cb bcbd 5c20 bebc

gru.weight_ih_l1 f4 [384, 128]
-0.06337116 -0.14268743 -0.19449432 -0.073638536 -0.27852356 0.053581286 -0.017208576 0.106666826
-0.04223335 -0.4639577 -0.182612 0.2764372 -0.2143035 0.16301306 0.06473365 -0.32396615
-0.09421715 0.22290786 -0.16038625 -0.017905703 0.021486934 0.029853866 0.12310387 -0.10392621
-0.056269914 0.16793671 0.49541125 -0.104791716 0.15938061 0.16102646 0.010872528 -0.3729622
0.14300697 0.12718633 -0.14412008 0.21471024 -0.14321913 0.32124117 0.07271647 -0.0020982444
-0.32525146 -0.00829999 0.17017035 0.11569198 -0.34649327 0.05011026 0.030429455 0.29043302
0.032844365 -0.4112303 -0.0073011094 -0.038459867 -0.013657279 -0.023554603 -0.10642512 0.22089289
-0.06420263 0.43961218 -0.14487277 -0.030348659 0.23753774 0.29921415 -0.177851 -0.09228096
0.06887434 -0.18027976 0.011041226 -0.07216352 -0.07726732 -0.14099906 0.5386896 -0.012470125
0.27246186 0.44954363 -0.2197792 0.10543398 -0.021241652 -0.15758398 -0.27520183 -0.07234658
-0.15829374 -0.28748327 0.055091422 0.48909646 -0.085980564 0.2580811 -0.04566681 0.2638573
0.14868437 0.12250831 -0.027139733 -0.12540427 0.048638284 -0.23200518 0.3503748 -0.059978805
0.16215421 -0.4458842 -0.41607097 0.0478822 -0.27589458 0.11114224 -0.285512 -0.18770912
0.076708145 -0.11032078 -0.30289868 0.6352096 -0.1512918 0.107760474 -0.049553815 -0.12252325
-0.099800766 0.064378604 0.0475455 -0.04339335 -0.20985158 -0.16996966 -0.035246134 -0.036260396
-0.05504354 0.17616001 0.059271652 -0.20199944 -0.2911844 0.04661746 0.178354 -0.15710348
0.11903357 0.09162956 0.10130032 -0.21414658 0.06542053 0.08198654 0.09823322 -0.10751802
-0.042357717 -0.028682077 0.020713259 0.03180601 -0.51223105 -0.016310522 0.395267 -0.13818292
-0.024834452 0.074527696 0.010466409 -0.11724054 -0.08173645 -0.12810078 -0.06626641 0.13334139
0.07821486 -0.09468928 0.020577839 0.15675905 -0.106671266 0.15571798 0.03819006 0.054155707
-0.12226748 -0.27121666 0.044439264 0.08698953 -0.14211614 -0.042631023 0.073009826 -0.06723174
-0.07526211 0.025031013 -0.17557853 -0.117660865 0.06325412 -0.2530988 0.08944808 0.26401213
0.13021854 -0.06769583 0.25158623 0.40081885 0.08466065 -0.25745413 0.27456516 -0.05670586
0.13056031 0.017642336 0.19284791 -0.25273442 -0.26363662 -0.08599725 -0.08664684 0.06552178
-0.0076293377 -0.48384467 0.017170714 0.21760894 0.13635014 0.13226862 0.18266517 -0.28031698
0.011310484 0.7458268 0.15493043 -0.11898268 0.258358 0.15059002 0.10126633 0.0897784
0.26057407 -0.8224378 0.06754991 -0.023670435 -0.32909948 -0.041600388 -0.20894894 -0.43065262
-0.07035809 -0.10996282 0.007831224 0.08749497 0.029390058 0.43376732 -0.045812283 0.054755524
-0.23503174 0.066535585 -0.019535365 0.19087449 0.006819524 -0.18229288 0.3628778 0.048161324
-0.28383264 0.034477722 -0.80895215 0.0667914 -0.055750914 -0.19551723 -0.003675389 0.25269765
-0.12513933 -0.07786151 -0.019320082 -0.13749324 0.08112769 -0.0031472708 -0.037440754 0.1705218
0.12129417 -0.024827456 0.1463763 -0.13158056 0.29519483 -0.079430066 -0.012867313 -0.013353915
00000000: bdc8 81bd a71c 12be 8529 47be cdcf 96bd
00000010: a49a 8ebe 0d78 5b3d 00f9 8cbc 2374 da3d
00000020: e1fc 2cbd dd8b edbe a4fe 3abe 2d89 8d3e
00000030: 6072 5bbe e5ec 263e 1393 843d e4de a5be
00000040: ecf4 c0bd f541 643e 4b3c 24be fbae 92bc
00000050: 5e05 b03c 1890 f43c e21d fc3d 44d7 d4bd
00000060: 487b 66bd 9af7 2b3e 8ba6 fd3e 0a9d d6bd
00000070: ac34 233e 1fe4 243e b022 323c e7f4 bebe
00000080: 6b70 123e 223d 023e 3794 13be 00dd 5b3e
00000090: 09a8 12be b979 a43e 5fec 943d b382 09bb
000000a0: 5c87 a6be aefc 07bc 2341 2e3e ebef ec3d
000000b0: 9167 b1be 6a40 4d3d 3147 f93c a3b3 943e
000000c0: d087 063d c78c d2be 253e efbb 1888 1dbd
000000d0: c8c2 5fbc 95f5 c0bc 6af5 d9bd bf31 623e
000000e0: ab7c 83bd d914 e13e 8759 14be c09d f8bc
000000f0: 183d 733e 9932 993e 931e 36be cdfd bcbd
00000100: fd0d 8d3d 429b 38be 42e6 343c 78ca 93bd
00000110: 543e 9ebd 0f62 10be 90e7 093f 7f4f 4cbc
00000120: 1f80 8b3e 952a e63e cc0d 61be c5ed d73d
00000130: f902 aebc b25d 21be 41e7 8cbe 722a 94bd
00000140: c117 22be 0231 93be 8ba7 613d da6a fa3e
00000150: 9416 b0bd 3523 843e 1f0d 3bbd 4e18 873e
00000160: b740 183e a3e5 fa3d 2554 debc fa69 00be
00000170: f038 473d c492 6dbe 5364 b33e 56ac 75bd
00000180: c10b 263e ef4a e4be 4107 d5be 2020 443d
00000190: 0e42 8dbe 8b9e e33d a12e 92be d236 40be
000001a0: 2919 9d3d dcef e1bd 8915 9bbe 199d 223f
000001b0: 3dec 1abe 86b1 dc3d f1f8 4abd 78ed fabd
000001c0: 5864 ccbd eed8 833d 12bf 423d 3abd 31bd
000001d0: 55e3 56be 870c 2ebe 405e 10bd c885 14bd
000001e0: 5675 61bd 4a63 343e d5c6 723d f1d8 4ebe
000001f0: 1f16 95be f3f1 3e3d 6ea2 363e bcdf 20be
00000200: dfc7 f33d 47a8 bb3d 8b76 cf3d 3e49 5bbe
00000210: 33fb 853d 8fe8 a73d 802e c93d 6832 dcbd
00000220: 497f 2dbd adf6 eabc daae a93c 0547 023d
00000230: 9321 03bf a59d 85bc 7060 ca3e d37f 0dbe
00000240: 9f71 cbbc faa1 983d 4d7b 2b3c cf1b f0bd
00000250: 7165 a7bd da2c 03be afb6 87bd a58a 083e
00000260: 1d2f a03d 74ec c1bd db92 a83c 7285 203e
00000270: 7776 dabd 8974 1f3e 2e6d 1c3d 60d2 5d3d
00000280: 5f67 fabd e9dc 8abe f205 363d 9127 b23d
00000290: e586 11be de9d 2ebd 2d86 953d cbb0 89bd
000002a0: 0523 9abd d70d cd3c dcca 33be 2ef8 f0bd
000002b0: 608b 813d 2a96 81be 8e30 b73d 992c 873e
000002c0: 0258 053e 1ca4 8abd e9cf 803e 2138 cd3e
000002d0: 9062 ad3d 07d1 83be ce93 8c3e 6744 68bd
000002e0: 9ab1 053e a986 903c ec79 453e 6866 81be
000002f0: 61fb 86be 541f b0bd e673 b1bd 4830 863d
00000300: 86ff f9bb 7dba f7be 99a9 8c3c e1d4 5e3e
00000310: 5f9f 0b3e 6d71 073e 940c 3b3e b585 8fbe
00000320: 9c4f 393c 81ee 3e3f 15a6 1e3e 31ad f3bd
00000330: 8047 843e 4534 1a3e b964 cf3d bddd b73d
00000340: f769 853e 498b 52bf 9b57 8a3d 80e8 c1bc
00000350: ba7f a8be 2b65 2abd b6f6 55be 807e dcbe
00000360: e717 90bd 3034 e1bd 894e 003c 9030 b33d
00000370: 6bc3 f03c c016 de3e a9a5 3bbd 5447 603d
00000380: 29ac 70be cf43 883d a108 a0bc 9a74 433e
00000390: 5076 df3b fcaa 3abe 1ecb b93e cf44 453d
000003a0: 8352 91be 8338 0d3d 7d17 4fbf eec9 883d
000003b0: 125b 64bd ab35 48be ccde 70bb 9661 813e
000003c0: 8624 00be db75 9fbd 2645 9ebc 07cb 0cbe
000003d0: 4626 a63d 7142 4ebb 7a5b 19bd 449d 2e3e
000003e0: 1469 f83d f362 cbbc abe3 153e 0ebd 06be
000003f0: c723 973e 3bac a2bd 6cd1 52bc 61ca 5abc

gru.weight_hh_l1 f4 [384, 128]
-0.02108805 -0.09429438 -0.092404395 0.11100784 -0.05718151 0.0053664558 -0.014302029 0.040993
-0.056892883 -0.14025241 -0.0420433 0.12364246 0.12656851 -0.1930689 0.02551313 0.005852758
-0.013875831 0.036757324 -0.06804233 -0.0809091 -0.0046297037 0.07245358 -0.15917572 -0.13745774
-0.013280723 0.023985421 0.18457638 0.06974383 0.13736223 -0.11329749 -0.00905804 0.19296432
-0.21246405 0.008885842 -0.079494365 0.11544512 0.06459504 -0.035057075 0.0770364 0.020343041
-0.102877565 -0.046106003 0.04519556 -0.064040996 -0.044206824 -0.10967209 -0.02299571 -0.07178375
-0.13585079 -0.056328624 0.12433457 -0.016750973 -0.15579751 -0.16014986 -0.05189374 0.031870805
-0.0243481 -0.06811399 0.14931066 0.0028394144 0.055528723 0.014099904 -0.100601554 0.06525611
-0.04517257 0.027943932 -0.14818469 -0.012453426 -0.013374902 -0.041267406 -0.03169092 -0.080839716
-0.058280773 -0.016744442 0.05310875 0.11625433 0.05759766 -0.040342707 -0.16358948 0.059677042
-0.025470417 -0.10131033 -0.019410884 -0.19197224 -0.13307472 0.0076286127 -0.03993882 -0.023041243
0.16125174 0.11244288 0.12169894 -0.07858456 -0.09905693 0.096711874 -0.13684644 0.15014954
0.08145565 0.13932604 -0.04531137 -0.06569587 0.12510884 0.1772776 0.023912938 0.035549145
0.062523365 0.00076734205 0.07246493 -0.012673045 -0.1168781 0.13127062 -0.15659131 0.107364744
-0.0539927 -0.019635703 -0.040538054 0.14206073 -0.055046342 0.004708234 -0.0015703794 0.063039735
-0.04475335 0.10281677 0.0057362746 0.039203368 0.16485274 0.06467512 -0.08562228 -0.05195442
-0.002808119 -0.13086241 0.03490926 -0.0012308881 -0.015829377 0.03166256 -0.06605244 -0.027159613
0.053888578 0.031760823 -0.08262875 -0.045534853 0.058938645 -0.17661141 -0.043670222 -0.15889104
0.018375099 -0.108118676 -0.15016682 -0.02243297 0.009580727 0.06105153 -0.025784079 -0.056468662
0.09350499 0.023307845 -0.0972976 -0.0062115584 -0.039757967 0.1281855 -0.16109769 -0.00049280183
-0.006117603 0.13805684 0.062298544 0.05197398 0.01004545 -0.020447351 -0.16190873 -0.03669617
0.024820067 -0.06409563 -0.11054966 -0.058461294 0.061773356 0.06727942 -0.09079696 -0.01305376
0.039468892 -0.185517 0.020389702 0.0011685304 -0.036570016 -0.046329852 0.018513788 -0.019628022
-0.06353863 -0.058072317 0.115567654 0.015125134 -0.024908127 0.014159717 -0.0020360937 -0.09159339
0.0077515035 -0.031097364 0.1166568 -0.015186308 -0.04074084 0.082720876 -0.043720957 -0.044687167
-0.058716156 0.051851682 0.2293593 -0.15811084 -0.12882991 -0.00972492 -0.07999739 0.21191128
0.00031841136 -0.021117484 -0.05481292 -0.039408255 0.033301543 0.12549338 -0.040329304 0.06536697
0.056009594 0.03867351 0.008759367 0.08223348 -0.16799708 -0.09943468 0.009437498 0.032369312
0.0055792634 -0.048824105 -0.0037835983 -0.031134041 -0.029123101 0.043520074 0.09747124 -0.04476267
0.11301957 0.02360305 0.06261629 0.045843203 0.13201083 -0.17281468 0.07834916 -0.086444356
0.06539251 -0.0024344702 -0.100554936 0.11840824 -0.016843248 0.060007516 -0.1199169 -0.028785663
0.0126478905 -0.065784596 0.100040816 0.1088629 0.0529569 -0.10833371 -0.21475941 -0.01024454
00000000: d9c0 acbc 691d c1bd 843e bdbd 1458 e33d
00000010: 2937 6abd 18d9 af3b 0f53 6abc 47e8 273d
00000020: 8308 69bd 549e 0fbe 9835 2cbd 4238 fd3d
00000030: 2d9b 013e dbb3 45be e900 d13c 7ec8 bf3b
00000040: 7457 63bc d98e 163d c759 8bbd acb3 a5bd
00000050: c5b4 97bb 8b62 943d f6fe 22be b9c1 0cbe
00000060: 6497 59bc 137d c43c 9701 3d3e dad5 8e3d
00000070: afa8 0c3e 8408 e8bd 2c68 14bc 7098 453e
00000080: 2d90 59be ec95 113c f1cd a2bd 7e6e ec3d
00000090: 684a 843d 0298 0fbd 43c5 9d3d 73a6 a63c
000000a0: 79b1 d2bd a6d9 3cbd fb1e 393d ed27 83bd
000000b0: 3712 35bd c39b e0bd 8061 bcbc 5c03 93bd
000000c0: 781c 0bbe d8b8 66bd 1fa3 fe3d 5639 89bc
000000d0: 6289 1fbe 53fe 23be 888e 54bd f68a 023d
000000e0: ab75 c7bc 597f 8bbd e5e4 183e 7815 3a3b
000000f0: 1672 633d 4903 673c 3008 cebd ffa4 853d
00000100: df06 39bd acea e43c babd 17be 7409 4cbc
00000110: 6822 5bbc 0308 29bd 57ce 01bd 4b8f a5bd
00000120: d2b7 6ebd a42b 89bc 9088 593d c016 ee3d
00000130: 86eb 6b3d 653e 25bd 0084 27be ea6f 743d
00000140: 56a7 d0bc ca7b cfbd 9303 9fbc 5f94 44be
00000150: bd44 08be 71f9 f93b e396 23bd fdc0 bcbc
00000160: 2d1f 253e 7448 e63d 4b3d f93d f1f0 a0bd
00000170: 5cde cabd e010 c63d 7921 0cbe cdc0 193e
00000180: 38d2 a63d 7cab 0e3e 6a98 39bd 8e8b 86bd
00000190: 881c 003e 4288 353e 11e5 c33c fb9b 113d
000001a0: 400c 803d 7427 493a 7e68 943d 9aa2 4fbc
000001b0: c95d efbd ce6b 063e 7959 20be 0ce2 db3d
000001c0: 7327 5dbd 0edb a0bc 3b0b 26bd 5e78 113e
000001d0: 4678 61bd 8847 9a3b 30d5 cdba fa1a 813d
000001e0: 4a4f 37bd 9991 d23d 5cf7 bb3b b693 203d
000001f0: 28cf 283e 6474 843d bc5a afbd 28ce 54bd
00000200: 6b08 38bb cc00 06be 03fd 0e3d c055 a1ba
00000210: 9cac 81bc 9ab0 013d 8046 87bd d67d debc
00000220: 45ba 5c3d a317 023d 4339 a9bd c182 3abd
00000230: a669 713d 9fd9 34be 8cdf 32bd 55b4 22be
00000240: 6087 963c 536d ddbd 55c5 19be 59c5 b7bc
00000250: 7bf8 1c3c 2b11 7a3d 2239 d3bc af4b 67bd
00000260: 8b7f bf3d 18f0 be3c f743 c7bd 548a cbbb
00000270: 40d9 22bd 0f43 033e cbf6 24be 5f2f 01ba
00000280: 2c76 c8bb c65e 0d3e c22c 7f3d abe2 543d
00000290: ac95 243c 3481 a7bc 67cb 25be b94e 16bd
000002a0: 7453 cb3c 9244 83bd dc67 e2bd 1c75 6fbd
000002b0: 0f06 7d3d cbc9 893d c2f3 b9bd 70df 55bc
000002c0: 22aa 213d 2bf8 3dbe 4e08 a73c 6029 993a
000002d0: 71ca 15bd 5fc4 3dbd 3aaa 973c f2ca a0bc
000002e0: 8b20 82bd 3ddd 6dbd bcae ec3d 69cf 773c
000002f0: 210c ccbc 28fe 673c fc6f 05bb 5195 bbbd
00000300: 5300 fe3b e6bf febc c3e9 ee3d fecf 78bc
00000310: dedf 26bd 9069 a93d bf14 33bd e409 37bd
00000320: 5a80 70bd 6e62 543d 2add 6a3e cfe7 21be
00000330: fdeb 03be 4555 1fbc acd5 a3bd 45ff 583e
00000340: 73f0 a639 93fe acbc 8383 60bd 8d6a 21bd
00000350: 3367 083d 5681 003e 5730 25bd 1edf 853d
00000360: 516a 653d 1d68 1e3d 7383 0f3c 076a a83d
00000370: 6d07 2cbe 69a4 cbbd bc9f 1a3c af95 043d
00000380: 41d2 b63b c9fb 47bd 3ff6 77bb d10c ffbc
00000390: 9293 eebc 1b42 323d 009f c73d 1059 37bd
000003a0: ce76 e73d 2f5b c13c f83c 803d 15c6 3b3d
000003b0: d92d 073e 55f6 30be 8675 a03d bd09 b1bd
000003c0: 82ec 853d a28b 1fbb bfef cdbd 0580 f23d
000003d0: dafa 89bc 71ca 753d fe96 f5bd e9cf ebbc
000003e0: 1939 4f3c 13ba 86bd 33e2 cc3d 83f3 de3d
000003f0: 56e9 583d 10de ddbd e4e9 5bbe b7d8 27bc

gru.bias_ih_l1 f4 [384]
0.058044944 -0.0032203316 0.122540295 -0.10944112 -0.14461862 -0.08125338 -0.14007097 -0.13840488
-0.0906361 0.14674917 -0.17348005 0.011452267 -0.019668167 -0.1420896 -0.18084677 -0.092252165
-0.06649666 -0.043786045 -0.031719632 -0.086124465 0.0751492 -0.09733732 -0.1643781 0.018018818
-0.07587708 -0.088356905 -0.035259128 -0.09829975 -0.057518907 -0.01383293 0.08747713 0.096914686
-0.17393309 -0.1307958 -0.0939609 0.014699239 -0.08332571 0.02816089 -0.001524665 -0.07976432
0.06333808 0.054310672 0.027873356 -0.065988995 -0.15122306 -0.21093675 -0.05192694 0.011788819
-0.1203082 0.04528714 0.07384024 -0.09975337 0.06667903 -0.19733651 0.09293715 -0.12242883
-0.20237207 0.00015887298 0.18737087 0.066446275 -0.15156998 0.073402524 0.03324285 -3.3038603e-05
0.09368946 -0.0034173902 -0.08845309 0.06257 -0.11287008 0.07889952 0.001129502 -0.11982492
-0.17488998 -0.023061506 -0.024084285 -0.10459698 0.15654917 -0.014663402 -0.080511026 0.15409866
0.007977705 -0.07244408 0.04945607 -0.009515304 -0.037180625 -0.13347362 -0.14547423 0.10401217
-0.084116064 0.06562923 -0.03718473 0.086222194 -0.014776119 -0.008820292 0.008946795 0.08245359
-0.06707414 0.10544289 0.015619641 -0.033742145 -0.3083299 -0.07129526 -0.053714808 -0.026200129
-0.13095629 0.021712054 -0.10348062 -0.1192411 0.10270691 -0.0076512215 0.09526776 -0.121076815
-0.006621608 0.03896868 -0.03232465 0.053193472 0.07990222 -0.17950904 -0.021317799 -0.009203229
-0.120656595 -0.004816878 -0.054752793 0.037784908 -0.027785935 0.05737462 0.08549818 0.01366176
-0.4059705 -0.35535917 -0.34237325 -0.29985657 -0.40572304 -0.44694793 -0.14396091 -0.38690728
-0.35021713 -0.5744946 -0.3331721 -0.2359251 -0.37244028 -0.35466957 -0.37073156 -0.43694144
-0.3324146 -0.39674217 -0.50813335 -0.3196872 -0.3691501 -0.5702904 -0.6180197 -0.3873844
-0.2295968 -0.34979564 -0.46264663 -0.3218239 -0.40228012 -0.30838293 -0.4730743 -0.66924524
-0.2815622 -0.34222955 -0.38077796 -0.18101522 -0.3259494 -0.14761442 -0.31815118 -0.30898973
-0.105472475 -0.4430915 -0.26888123 -0.43992254 -0.44298267 -0.26201817 -0.017430963 -0.31158602
-0.2457044 -0.29593113 -0.27084798 -0.5276903 -0.42592493 -0.26704758 -0.35594854 -0.24329965
-0.3795355 -0.28427252 -0.3583327 -0.4600634 -0.31437868 -0.15081427 -0.3516347 -0.3324856
-0.456572 -0.1974096 -0.26611793 -0.35658598 -0.3348837 -0.4234868 -0.53390884 -0.22416493
-0.27975538 -0.34676844 0.015510196 -0.23464034 -0.5890594 -0.2704408 -0.30718994 -0.38687432
-0.40534574 -0.25636688 -0.28808668 -0.32532683 -0.71786976 -0.31306985 -0.49746343 -0.54128003
-0.31572992 -0.23117207 -0.3205757 -0.3215258 -0.017131796 -0.32212025 -0.4060555 -0.41550004
-0.41470447 -0.34753314 -0.32954493 -0.44405794 -0.5712358 -0.46358287 -0.4511954 -0.057652563
-0.3896254 -0.29202655 -0.48360494 -0.19748123 -0.07089953 -0.32313222 -0.30400702 -0.29717496
-0.30050597 -0.35518745 -0.2898952 -0.4621222 -0.24029174 -0.30018705 -0.40205193 -0.33336952
-0.46545917 -0.25997198 -0.43266106 -0.33228543 -0.31428796 -0.26929954 -0.35472676 -0.29317996
00000000: 89c0 6d3d 330c 53bb 68f6 fa3d aa22 e0bd
00000010: e716 14be 2c68 a6bd c46e 0fbe 02ba 0dbe
00000020: 6b9f b9bd 6a45 163e c1a4 31be 4aa2 3b3c
00000030: 231f a1bc f07f 11be e52f 39be b4ee bcbd
00000040: 672f 88bd ff58 33bd 72ec 01bd 0662 b0bd
00000050: d3e7 993d ca58 c7bd bc52 28be 339c 933c
00000060: 7165 9bbd 77f4 b4bd e06b 10bd 6151 c9bd
00000070: f298 6bbd 83a3 62bc 3627 b33d 357b c63d
00000080: 841b 32be 56ef 05be 936e c0bd 14d5 703c
00000090: aba6 aabd abb1 e63c 45d7 c7ba 7a5b a3bd
000000a0: 65b7 813d de74 5e3d aa56 e43c 3d25 87bd
000000b0: 38da 1abe ceff 57be 58b1 54bd e425 413c
000000c0: 2564 f6bd 027f 393d 8d39 973d 7f4b ccbd
000000d0: 048f 883d 9512 4abe d555 be3d f7bb fabd
000000e0: a03a 4fbe 2497 2639 26de 3f3e fc14 883d
000000f0: 2935 1bbe 1054 963d a829 083d ee92 0ab8
00000100: 42e0 bf3d 4bf6 5fbb e526 b5bd b324 803d
00000110: 6e28 e7bd 1296 a13d cc0b 943a c566 f5bd
00000120: 5c16 33be 7ceb bcbc 684c c5bc f136 d6bd
00000130: 6d4e 203e c43e 70bc f7e2 a4bd 0acc 1d3e
00000140: ecb4 023c 905d 94bd 7392 4a3d 14e6 1bbc
00000150: b64a 18bd 4fad 08be 32f7 14be 5504 d53d
00000160: 0b45 acbd 9e68 863d 044f 18bd 4395 b03d
00000170: 8917 72bc fc82 10bc 9495 123c 6edd a83d
00000180: 2b5e 89bd 71f2 d73d 86e9 7f3c 3435 0abd
00000190: 6bdd 9dbe 4003 92bd 0f04 5cbd a7a1 d6bc
000001a0: 6819 06be 7add b13c a6ed d3bd ae34 f4bd
000001b0: 0058 d23d 19b7 fabb be1b c33d 1ff7 f7bd
000001c0: 13fa d8bb 9f9d 1f3d da66 04bd 66e1 593d
000001d0: c6a3 a33d 38d1 37be aaa2 aebc 24c9 16bc
000001e0: ce1a f7bd e7d6 9dbb 7744 60bd 59c4 1a3d
000001f0: 549f e3bc a601 6b3d ab19 af3d 93d5 5f3c
00000200: 5edb cfbe a3f1 b5be 8c4b afbe cd86 99be
00000210: eeba cfbe 5cd6 e4be 7d6a 13be b618 c6be
00000220: a94f b3be 1412 13bf 8995 aabe 5996 71be
00000230: 7eb0 bebe 4097 b5be 87d0 bdbe cab6 dfbe
00000240: 3f32 aabe ca21 cbbe 0715 02bf 0aae a3be
00000250: 3e01 bdbe 8dfe 11bf 8a36 1ebf 4057 c6be
00000260: 6c1b 6bbe 6a18 b3be 05e0 ecbe 1ac6 a4be
00000270: a9f7 cdbe 5ee4 9dbe cb36 f2be a853 2bbf
00000280: ec28 90be b638 afbe 54f5 c2be 0e5c 39be
00000290: d7e2 a6be 3c28 17be b6e4 a2be e733 9ebe
000002a0: f401 d8bd e4dc e2be cdaa 89be 873d e1be
000002b0: a0ce e2be 3f27 86be 61cb 8ebc 3488 9fbe
000002c0: ef99 7bbe 4984 97be 96ac 8abe b616 07bf
000002d0: d512 dabe 76ba 88be e33e b6be 8b23 79be
000002e0: 7a52 c2be 2b8c 91be 6277 b7be 6e8d ebbe
000002f0: 3ef6 a0be 0e6f 1abe 7709 b4be 8d3b aabe
00000300: cec3 e9be be25 4abe 9c40 88be 7092 b6be
00000310: e075 abbe 43d3 d8be 40ae 08bf 7e8b 65be
00000320: 193c 8fbe a28b b1be 7a1e 7e3c 8f45 70be
00000330: 99cc 16bf 3777 8abe 0048 9dbe 6414 c6be
00000340: 7a89 cfbe 8542 83be 1980 93be 3d91 a6be
00000350: 50c6 37bf b14a a0be 87b3 febe 5491 0abf
00000360: 5aa7 a1be 5fb8 6cbe 8022 a4be 089f a4be
00000370: fb57 8cbc f2ec a4be 82e6 cfbe 6cbc d4be
00000380: 2554 d4be ddef b1be 1dba a8be 905b e3be
00000390: 823c 12bf bc5a edbe 1503 e7be 1825 6cbd
000003a0: fb7c c7be 8184 95be 119b f7be 8538 4abe
000003b0: c633 91bd 9671 a5be cfa6 9bbe 5127 98be
000003c0: ebdb 99be 21db b5be 256d 94be 489b ecbe
000003d0: 0a0f 76be 1eb2 99be c0d9 cdbe 69af aabe
000003e0: aa50 eebe 0c1b 85be c085 ddbe 5121 aabe
000003f0: 5aea a0be a1e1 89be bf9e b5be af1b 96be
