model/gru_physics_epoch_90.pth (torch, 687480 bytes, 18 tensors)

gru.weight_ih_l0 f4 [384, 10]
000000 db f5 d9 bc 4e 4a a5 3c 1d a3 87 3a b8 5a 58 3d
       -0.02660649 0.020177033 0.0010348294 0.05282089
000010 71 e0 06 3d 21 ba c3 3b d8 38 47 3d 81 6b 84 3c
       0.032928888 0.005973116 0.048638195 0.016164543
000020 60 dd 04 bd 9b 54 d1 3c 1e ec 67 3c 6e 3f 98 bc
       -0.032437682 0.025553038 0.014155416 -0.018584933
000030 63 24 19 bd d1 fc 1d bc 08 de b3 bb 9f 55 08 bd
       -0.037388217 -0.009642796 -0.0054891147 -0.03328478
000040 30 fc 1e bd 74 ae e0 3b dc 92 8f 3d b1 9d b2 ba
       -0.038814723 0.006856734 0.07010433 -0.0013627318
000050 05 7d 0a bd 91 12 87 3d 0d 6a 9e bc 9c a5 60 ba
       -0.033810634 0.06595338 -0.019337678 -0.00085695996
000060 a7 d3 3c bd 6d 22 15 3d 7c 59 52 3d 09 82 8a 3c
       -0.046100285 0.036409784 0.05135487 0.016907709
000070 e0 53 7f bc 37 ae 20 3d 96 0b 7b bd 14 5d 62 bd
       -0.015583962 0.039228644 -0.061290346 -0.055264547
000080 e1 fd 32 bd 52 e9 31 3d 68 91 08 bc 94 44 89 bd
       -0.04369915 0.043435402 -0.008335449 -0.06702533
000090 c7 03 04 bc 19 08 50 bd 65 b3 3a 3d 50 f7 77 3d
       -0.008057541 -0.050788973 0.04558124 0.06053859
0000a0 16 7f 2f 3d 6b 3d 35 bd c9 94 5e 3d 8b 78 39 bc
       0.042845808 -0.044248026 0.05434111 -0.011320244
0000b0 7d 0a 0c bc c4 71 62 bd 0a cc 82 bd 2d fa 33 3c
       -0.0085474225 -0.055284277 -0.063865736 0.0109849395
0000c0 04 31 2d 3d 68 91 94 3c 6b 3f 39 3c de 68 32 bd
       0.042283073 0.018135741 0.011306624 -0.04355704
0000d0 70 b2 05 bc 8a 5b 0d 3c 2b 08 f8 bc f0 b3 a9 3d
       -0.008160219 0.008627782 -0.030277332 0.082862735
0000e0 80 43 80 3c d1 6c 86 3d b7 9d 97 bc c2 b9 23 bc
       0.015657187 0.06563724 -0.018507821 -0.009993019
0000f0 fa 3f b8 3c c3 b9 eb bc b0 7d b1 3c cf 43 ab 3c
       0.022491444 -0.028775102 0.021666378 0.020906357
000100 f3 82 1f bd 9d 8a 80 bd 35 0a 3a bd 53 9e 0e 3b
       -0.038943242 -0.062764384 -0.04541989 0.002176185
000110 d9 dc d9 3c 36 f9 8e 3d c0 f3 9b bd c6 5a 25 bd
       0.026594566 0.06981127 -0.07614851 -0.04036977
000120 95 b1 f2 bc ad 8d a4 3b e5 b7 ac bc 26 94 01 bd
       -0.029625693 0.005021772 -0.021083781 -0.031635426
000130 77 f4 1f 3c 85 3a 9f 3c bb e0 40 3c 78 8b 07 3b
       0.009762875 0.019437084 0.01177233 0.0020682495
000140 ad 1d 3c 3d 2b d1 df 3c 4f 38 09 bd 79 c6 4b bb
       0.04592674 0.027321419 -0.033500966 -0.003109364
000150 aa be 31 bc 83 31 57 3d 02 e6 64 3d cb 82 9c bc
       -0.0108486805 0.052537452 0.055883415 -0.019105336
000160 97 41 14 bd 40 aa c4 3c f2 f6 01 bc 74 3a 6f bd
       -0.036195364 0.024006963 -0.0079324115 -0.058405355
000170 97 00 17 3d 37 94 1d bd f2 43 8b bb b4 33 0a 3d
       0.036865797 -0.038471427 -0.004250043 0.033740714
000180 90 ab 8a bb 3f 96 21 3c 8a 18 53 3d 2e 48 79 bc
       -0.0042318776 0.009862482 0.051537074 -0.015214963
000190 a7 d4 b2 bd 67 3f 8c bc ce 66 36 bd cc 5d 7d 3b
       -0.087319665 -0.017120076 -0.044531636 0.0038660644
0001a0 6f c6 38 bd ec f2 56 ba 6b 35 58 3d 1b 62 10 bd
       -0.045111116 -0.00081996503 0.05278532 -0.03524981
0001b0 b5 82 50 bc f5 16 97 bb 4b 0e a1 3c 34 da 23 bd
       -0.0127264755 -0.004610891 0.019660136 -0.040003017
0001c0 e7 a4 3c 3d f3 23 5e 3c af 66 2a bd e7 d0 81 3d
       0.0460557 0.013558376 -0.041601833 0.06338673
0001d0 ba 3c 62 3d ff da 8d bc a7 5d a0 bd d2 e1 24 3b
       0.055233695 -0.01731634 -0.07830363 0.0025159013
0001e0 99 65 09 3d 96 25 af 3d 64 66 24 bc 40 6e 0c bd
       0.033544157 0.08552091 -0.010034177 -0.03428483
0001f0 aa 71 93 3b 84 15 5f 3c 5d 0a 85 3d 00 c0 b2 bb
       0.004499634 0.01361597 0.06496117 -0.005455017
000200 5e ee 7f bd df ea 70 3c 51 7d f3 3c 8a 1e 08 3d
       -0.062483184 0.014704435 0.029722841 0.03323225
000210 b6 f2 59 bd 85 d1 bc bc 71 c0 82 bc a6 45 a6 bd
       -0.053209983 -0.023049125 -0.015960904 -0.08118753
000220 fb 41 3b 3c b5 1f 5e bc 02 10 c2 3c 7b 9e a8 3d
       0.011429305 -0.013557364 0.023689274 0.08233353
000230 a5 70 09 3d 9d ac c0 bc 86 01 fe 3c bd 64 c6 bb
       0.03355469 -0.023519808 0.031006586 -0.0060544894
000240 1a a0 e6 3c 78 aa 89 bc 42 27 70 3c ff ca c6 3b
       0.028152514 -0.016804919 0.014657797 0.0060666795
000250 66 3e df 3c 3f d3 67 3d c0 0c 06 3d d4 f1 36 3d
       0.027251434 0.056597944 0.032727003 0.04466422
000260 ae e7 64 3c e2 ea d9 bc d2 73 fd 3c bb ee 51 bd
       0.013971252 -0.026601259 0.030939016 -0.05125306
000270 01 da 65 bc 85 c2 92 bc ec 3a ae 3c d1 65 79 3b
       -0.014029027 -0.01791502 0.02126833 0.0038055072
000280 a1 96 17 3d 89 d9 0e bc 30 47 55 3d 54 38 e6 3c
       0.037008885 -0.008718857 0.052069843 0.028103031
000290 e3 65 26 3d 58 9a 25 3c a3 8e 13 bd a3 e0 44 bd
       0.04062451 0.010107599 -0.0360247 -0.048065793
0002a0 c2 44 91 bb 31 fc 36 bd ed 3c f5 3c 93 9a d3 3c
       -0.0044332454 -0.044674102 0.029936278 0.025830543
0002b0 aa 9c d6 bc aa 46 2c bd ad ed 8d 3c b5 cc f0 bc
       -0.02619775 -0.042059578 0.017325247 -0.029394487
0002c0 e1 09 47 3d f1 5c 9a 3c 12 e9 b5 3c 03 6e 0f bd
       0.048593406 0.018843146 0.022205863 -0.035017025
0002d0 18 2b b9 3b 92 a3 6e 3d 00 6b 8e bd ee e7 09 3d
       0.005650889 0.05826146 -0.069540024 0.03366845
0002e0 7d bc 36 3b 86 b3 88 3d f7 21 b4 3d 84 cf 8e 3d
       0.0027883344 0.066748664 0.08795541 0.06973174
0002f0 a8 04 17 be 86 39 70 bd 2b 78 d5 3d c7 d6 78 3c
       -0.1474787 -0.05864861 0.10423311 0.015187926
000300 15 77 2e 3d fd 30 26 3d e1 ce 2a 3d a1 e1 1a bd
       0.042594034 0.040574063 0.0417012 -0.037812833
000310 87 80 09 3d 7c 4a 7e bb 2c 72 d9 3c 81 3e 81 bb
       0.03356984 -0.003880172 0.0265437 -0.0039442186
000320 23 df 6a 3d 72 9b e8 bb e0 33 47 bd bb e6 cd bc
       0.057341706 -0.0070986087 -0.048633456 -0.025134435
000330 c2 32 88 3c 90 3e 4b bd 69 21 33 bd d4 7b 6c bd
       0.016625766 -0.04962021 -0.043733034 -0.05773528
000340 a6 d8 df bb fb 64 3a 3d b3 8f 3f 3c 10 c9 96 3d
       -0.0068312464 0.04550646 0.011691975 0.073625684
000350 1b 9b b9 3c 5e 0e 3e bc b1 3c 41 3d bd d8 99 bd
       0.022656968 -0.011600105 0.04717702 -0.07512043
000360 af 06 1e bd 7b 96 9e bd 59 63 2b 3b 50 5d e2 3c
       -0.038580593 -0.077435456 0.0026151745 0.027632385
000370 5c f1 a8 3c 7d 0c 84 bd 55 92 85 bc 38 02 89 b9
       0.020622902 -0.064476945 -0.016305128 -0.0002613233
000380 8a d1 2b bd 07 3b 3a bc 35 ca 17 3c 97 e7 82 bd
       -0.04194788 -0.011366612 0.0092645185 -0.063918285
000390 f8 ac 77 3d 90 8f c4 bb 2b ef 27 bd 0e 52 a6 3d
       0.06046769 -0.0059985593 -0.040999573 0.081211194
0003a0 fb 28 96 bd d1 66 0f 3d 3e 26 5e 3d 8c b9 6c bd
       -0.07332035 0.035010163 0.05423569 -0.05779414
0003b0 bb cb 1a 3c cc c4 f3 bb e7 59 d3 3c 84 a7 fd 3c
       0.009447987 -0.0074392315 0.025799705 0.030963667
0003c0 4e 18 cc b9 2c cc 5e bc 2c 2c 2c 3e 09 84 2f bc
       -0.0003892802 -0.013598483 0.16813725 -0.010712632
0003d0 8b b8 f2 bc ae 77 c2 bd 70 37 a2 bd e6 44 c5 bd
       -0.029629013 -0.09495483 -0.0792073 -0.09632282
0003e0 05 30 b6 3d 81 8e 45 3d e2 c6 18 bc 65 99 1f 3d
       0.08895878 0.048231605 -0.009324761 0.038964648
0003f0 d2 6f 81 3c 6e 0e de 3c 46 cb 4b bd 33 10 84 3d
       0.01580039 0.02710649 -0.049754404 0.06448402

gru.weight_hh_l0 f4 [384, 128]
000000 6a 5a 05 3d 2e 36 b2 3c d7 5a 85 3c cd 4d bf bb
       0.03255693 0.02175435 0.016278667 -0.005838132
000010 a9 85 92 bb 4a d3 ce bb 59 e3 e5 bc ed 3a 20 bb
       -0.0044715 -0.0063118087 -0.02806251 -0.0024449185
000020 30 71 95 bc ed be be bc 07 46 82 3b f3 80 7b 3b
       -0.018242449 -0.0232844 0.003975633 0.003837642
000030 1f 1a 93 3c 30 c3 49 3d 22 63 55 3d de 7b 36 3c
       0.017956791 0.04925841 0.052096494 0.011137931
000040 b1 1e ca bc f2 7e 2b bd 6e dd fa bc f8 22 66 bc
       -0.024672838 -0.04186911 -0.030623164 -0.014046423
000050 d9 54 47 bd b6 6b 4b bd 56 19 26 bc b4 37 cd 3c
       -0.0486649 -0.049663268 -0.0101378765 0.025050975
000060 e4 79 20 bd 2b 55 29 bc 0b ad 03 3d d6 57 04 bd
       -0.039178744 -0.010335247 0.03214745 -0.03231033
000070 aa d6 00 bd 00 1f 1b 3d ea 25 11 bb 08 92 77 bc
       -0.03145472 0.03787136 -0.0022147843 -0.0151105
000080 85 72 39 3d 0f e1 dc bc 2d bc 17 3d b7 d7 11 3d
       0.04527523 -0.026962785 0.037044693 0.035606112
000090 89 73 3c bc 21 4d 22 3d 30 38 2b 3d 7e 2d 9d bc
       -0.011502155 0.039624337 0.04180163 -0.019186731
0000a0 e3 ee 20 3d a8 c5 02 3d 27 de 85 3c 88 8a 33 bc
       0.03929032 0.03192678 0.016341282 -0.010958321
0000b0 79 25 4b bd 53 33 1b bd 16 ee e7 bc c0 d3 54 bc
       -0.049596284 -0.037890743 -0.02831177 -0.012989938
0000c0 d4 a0 95 bb b3 09 8f 3c a8 cb 04 3c 8f ac 7a bb
       -0.0045662913 0.01746068 0.008105196 -0.0038249826
0000d0 65 a4 21 3d 00 77 00 3d a8 69 1a 3d cd 16 45 bb
       0.03946342 0.031363487 0.037698418 -0.0030073405
0000e0 4a 2d 25 bd 51 93 1a 3d c3 20 d2 bc 9b 5c bd bc
       -0.040326394 0.037738148 -0.025650388 -0.023115447
0000f0 2a 06 e4 3c e3 f0 20 bd ee a8 b7 3a 8f e3 b4 bc
       0.02783497 -0.039292227 0.0014012137 -0.022081165
000100 e5 6b 08 bd 45 c5 c4 bc b0 91 62 37 d7 0f 0a bc
       -0.03330602 -0.024019847 1.350457e-05 -0.008426628
000110 c4 ab 80 3c 62 10 0c 3d b9 14 bc 3b da c5 7c bc
       0.015706904 0.03419531 0.005739775 -0.015428031
000120 2e df 17 3a 42 2c bc bc 86 df 63 3c 34 4f f2 3c
       0.0005793449 -0.022970323 0.013908273 0.029578783
000130 fa 7a 44 3d a6 85 23 3d 66 b3 37 3d 15 59 8b 3c
       0.047968842 0.03992238 0.044848822 0.017010251
000140 21 c0 99 3c bc 08 ef bc 54 77 07 ba 2c b6 cc ba
       0.018768372 -0.02917897 -0.00051676226 -0.0015618256
000150 df db 5a bd cb 93 31 bc ba 38 8a bb 1c 7a 01 bd
       -0.05343234 -0.010838459 -0.004218188 -0.031610593
000160 5f 8b 14 3d 58 5c 13 bc 13 dc bd bc 52 0e 0f 3d
       0.036265727 -0.008994184 -0.023176229 0.034925766
000170 37 96 68 bc 95 5a 04 bd eb 57 0b bd 1d 60 92 bb
       -0.01419597 -0.03231295 -0.034019392 -0.004467024
000180 1a 0d 10 3d 8a 57 33 3c 5d 33 ca bc ec d7 8e 3c
       0.035168745 0.010946164 -0.024682695 0.017436944
000190 54 87 70 b9 15 74 43 3d 3b ca 6c 3c 77 12 23 3c
       -0.00022938597 0.047718126 0.014452512 0.009953133
0001a0 1f b5 0d bd 59 11 4c bd 3b b6 df 3c 05 d8 a8 bc
       -0.03459656 -0.04982123 0.027308574 -0.020610819
0001b0 91 ad 03 bc de 44 1f bd 60 d1 ec 3c 47 39 1c 3d
       -0.008036987 -0.038884036 0.028908432 0.03814056
0001c0 85 13 13 3c 05 ad aa ba b9 70 cc 3c 08 a2 95 bc
       0.008976822 -0.0013021535 0.024956094 -0.01826574
0001d0 9f 64 74 bc 6e 41 59 3d ea 73 4c 3c 1e 84 b9 3c
       -0.014916568 0.053040914 0.012478808 0.022646006
0001e0 8c 64 ad 3c b4 a1 38 bd 37 bf 6c 3c 3b 9b 21 bb
       0.021166109 -0.045076087 0.014449886 -0.0024659175
0001f0 41 11 0a 3c a8 20 a1 bc 7c a2 04 3d b4 77 d1 3c
       0.008426965 -0.019668892 0.03238152 0.025569774
000200 83 db 59 3c 2c 8c 3a 3d 79 b7 b0 bc e9 ad 87 bc
       0.013296965 0.045543835 -0.021571862 -0.016562419
000210 27 ac 1f bd 83 3f 9b bd 64 d7 9d bd bd 49 9b 3a
       -0.038982537 -0.07580473 -0.07707098 0.0011847537
000220 90 ff d0 bc fe c4 36 bc ab 45 a2 3c cd 59 f0 bc
       -0.025512487 -0.011155365 0.01980861 -0.029339695
000230 4b 95 f2 3a 2a e5 21 3d bc cb e9 3c 40 5f 7e 3c
       0.0018507628 0.03952519 0.028539531 0.015525639
000240 3d 92 be 3c fa 02 0c 3d 3c f2 ac bc dd e8 ae bc
       0.023263091 0.034182526 -0.0211116 -0.021351272
000250 c5 d0 54 bc 3a 8e 25 3d c1 70 44 bc cd 77 bf bb
       -0.012989228 0.04041884 -0.011989773 -0.005843139
000260 6c dd 1d bc 21 ac 04 bd aa 90 4d 3d 06 91 1e bd
       -0.009635311 -0.032390717 0.05018679 -0.038712524
000270 78 fe 01 3d ba f7 11 3c c7 70 71 bc 51 63 d9 bc
       0.03173682 0.00890916 -0.014736361 -0.026536616
000280 bc 9d 55 bd 53 87 ba bb 78 8f 23 3d ec 8b 85 3c
       -0.05215238 -0.0056924014 0.039931744 0.016302072
000290 31 6b 6c bc 72 d6 5a bd 7a 15 ff bc 1d d1 5a ba
       -0.014429853 -0.053427167 -0.03113817 -0.00083472003
0002a0 7a a0 f4 bb 0e 07 8a 3c d1 47 b1 3c 62 10 6e 3d
       -0.0074654194 0.016849067 0.02164069 0.058121093
0002b0 7d c6 43 bb a1 fe 2c 3c a3 37 56 bd e5 db 84 bc
       -0.0029872947 0.010558755 -0.052299153 -0.016218135
0002c0 1e 97 3b 3c 17 bd f5 3c 63 24 2c bc cf 5b a5 3b
       0.011449603 0.029997392 -0.010506722 0.005046345
0002d0 41 f7 00 bd 26 8f 93 3c eb 4e 9a bd 7d ec dc 3c
       -0.0314858 0.018012594 -0.07534584 0.026968235
0002e0 5e d0 26 3c 89 9d 95 bb 07 d9 21 bd 63 0d 8b bc
       0.010181515 -0.004565899 -0.039513614 -0.016974157
0002f0 e4 ff 0e 3d 25 83 0a 39 49 14 6c bd ed 6d 74 bd
       0.034912005 0.0001320956 -0.057636533 -0.059675146
000300 1c d2 b4 3c 53 d3 ce bc ef 88 17 bd 6d 79 46 bd
       0.022072844 -0.025247252 -0.036995824 -0.048455644
000310 1e 9a 7a bd 33 18 95 bd 41 f0 85 3d 81 4a 59 3d
       -0.061182134 -0.07280006 0.065399654 0.053049568
000320 ed 41 74 bb c3 a3 36 bc 44 0c a6 bd 79 5b f1 bc
       -0.003727074 -0.011147442 -0.08107808 -0.029462563
000330 28 a3 22 3c 82 a1 19 bd 95 75 38 bc 9f 60 4a 3d
       0.009926595 -0.03750754 -0.0112585025 0.04940855
000340 a6 79 f0 bb 66 44 2a 3c f5 69 49 3d 43 cd f3 3c
       -0.0073387204 0.010392284 0.049173314 0.029760962
000350 87 df 57 3c 82 2e 9a bb 35 be 73 3c 6c 55 c3 bc
       0.013175852 -0.004705251 0.014876892 -0.023844443
000360 b9 c6 55 bc fb 68 f6 3c 55 eb 84 bd 0a 9f 7a bb
       -0.013047867 0.030079355 -0.064901985 -0.0038241767
000370 f2 74 92 3b eb 3b 44 bd ce 6f d0 3b bc 2d 44 bd
       0.0044695074 -0.047908705 0.0063609844 -0.04789518
000380 26 80 c1 3c 96 4f 6e 3b 14 56 8e bd 2b 9d 05 3b
       0.023620676 0.0036363355 -0.06950012 0.002038787
000390 f0 e8 f2 bc 32 46 47 3d c1 e4 8d 3c 31 43 96 bc
       -0.029652089 0.048650928 0.017320992 -0.018342586
0003a0 08 df ef 3c 7f d6 27 3d df de f5 bc c8 64 42 bb
       0.029281154 0.040976044 -0.0300135 -0.002966212
0003b0 af 14 a4 3c 49 33 04 bc e0 db 19 bb 66 32 0d 3d
       0.020029394 -0.008068868 -0.0023477003 0.03447189
0003c0 e0 66 ad 39 03 08 3c 3d 36 4a af 3c 04 6e aa 3b
       0.0003307378 0.045906078 0.021397691 0.005201103
0003d0 ee 66 23 bd 3b 1a c7 3c da a5 b1 bd 90 f0 b3 3c
       -0.039893083 0.0243045 -0.08674212 0.021965295
0003e0 2e a6 a5 3b 59 7e 39 3c 1c 8d 20 bd 55 58 3a 3d
       0.0050552106 0.011321628 -0.039197072 0.045494396
0003f0 c5 9d 1f 3b 94 37 90 bb 71 67 30 3c 6a 7c ad bd
       0.0024355513 -0.0044011567 0.01076685 -0.08470996

gru.bias_ih_l0 f4 [384]
000000 a9 48 08 bb 32 9e 6b 3c b4 33 1d bb af c3 90 3c
       -0.0020795262 0.014380978 -0.0023987116 0.017671434
000010 03 00 4e 3c 93 57 e4 bc 0b 61 2e bb b8 31 ba 3a
       0.012573245 -0.02787379 -0.0026608135 0.0014205491
000020 03 1b d6 bc 03 65 89 bb b3 c3 40 bc 28 b8 ae bc
       -0.026135927 -0.0041929497 -0.011765408 -0.021328047
000030 da 47 95 bc 36 55 00 3d ca d3 e4 3b ea 92 1c b9
       -0.018222738 0.031331263 0.006983255 -0.00014932049
000040 8c 72 aa 3b 60 6e 4f bb 65 2b 8e bd eb 90 c6 b8
       0.0052016433 -0.0031651482 -0.069418706 -9.468369e-05
000050 92 d3 c4 3c 60 60 de 3a dd 10 8c 3b b2 6b c9 3a
       0.024026666 0.0016965978 0.004274471 0.0015367179
000060 b2 41 2a 3d 7a e9 37 bc 88 3f 27 3b 0c 4e 38 3d
       0.04156656 -0.011225099 0.0025520045 0.044996306
000070 ab 6e d4 3c bd 23 09 bc b3 d4 05 3c 95 b1 84 bc
       0.025931677 -0.008370337 0.008168387 -0.016197959
000080 5f f3 a5 3c 5c 30 83 3c 60 7a 0e bc 06 0b 2c 3d
       0.02025765 0.01601427 -0.008696169 0.0420027
000090 31 4b 21 3c 5c 72 b3 3b 47 ef 63 bc 5b 70 1e bd
       0.009844587 0.005476279 -0.013912029 -0.03868137
0000a0 81 6f 1d b7 25 d2 56 3c 18 08 f2 3c 0a 20 67 3c
       -9.383891e-06 0.013111626 0.029544875 0.01410676
0000b0 96 7d 0f 3d 69 81 e6 3c 48 8b 05 bd 41 43 79 bc
       0.035031877 0.02813788 -0.032603532 -0.0152137885
0000c0 c3 2d 8a 3c a9 85 c0 b9 dc 86 39 3c a2 17 cc 3a
       0.016867524 -0.00036720678 0.011323657 0.0015571008
0000d0 d6 0f b4 bb 23 45 e1 3c 5f 0b 6d bc aa 5e 81 bd
       -0.005495052 0.027498787 -0.014468043 -0.06316884
0000e0 2a 28 59 bb 36 5b 51 bc af a3 83 3c 2d 4f 35 3c
       -0.0033135512 -0.012778094 0.016069261 0.01106624
0000f0 65 0d bb 3c 93 9a 0d 3c 3d 2a b6 3c b3 92 da 3c
       0.022833535 0.00864281 0.022236938 0.02668128
000100 c0 d9 ff 3b 1c 79 86 ba 5a da 9f 3b 6e 5c b6 3c
       0.0078079402 -0.0010259482 0.0048783245 0.02226087
000110 5b 5a ca 3c e8 8b f9 bc d5 e0 c5 bc ef 80 fc bb
       0.024701288 -0.03046222 -0.02415506 -0.0077058
000120 48 2d 05 3b 69 96 f4 3b 33 9b ba 3b e2 9c 0d bd
       0.002032118 0.0074642194 0.0056947707 -0.034573443
000130 6c fe c4 bc 2f 66 ee bb be 10 12 3a d6 25 a6 bc
       -0.024047099 -0.007275365 0.0005571953 -0.020281713
000140 25 3c 5f bb b6 8c 21 3b 2d 0b 72 3c 4c 2b a7 bc
       -0.0034062949 0.002465052 0.014773172 -0.020406388
000150 7d 81 12 bc 45 aa 85 3b d7 7c b0 bb 44 1c 8b ba
       -0.008942005 0.0040791356 -0.005385976 -0.0010613282
000160 29 17 66 3c a6 04 16 3d fc 6a 9c 3c 9d 90 92 3c
       0.014043608 0.036625527 0.019093983 0.017891223
000170 52 a4 cd ba c5 7e 0a bc 1f b8 16 bc c7 8c 54 ba
       -0.001568923 -0.008453076 -0.009199171 -0.00081081357
000180 08 b9 57 bc c7 2d 1f 3d 7c cd 17 3d 14 aa 31 bc
       -0.0131666735 0.038862016 0.0370612 -0.010843772
000190 d8 fa 11 b9 13 e7 f4 bb 68 d1 0e ba 10 b7 0c bc
       -0.00013921724 -0.0074738353 -0.0005448074 -0.008588567
0001a0 75 f0 da 3c 79 37 85 bb 37 40 fc bb 6a 79 c3 3b
       0.026725987 -0.0040654507 -0.0076980847 0.0059654014
0001b0 10 53 d3 3c 63 87 8b bb f3 f9 22 bc cc 36 ae 3b
       0.025796443 -0.0042580827 -0.009947288 0.005316591
0001c0 0e f6 fd 3b 66 56 f9 3c d3 ef 87 3d ad e4 72 39
       0.0077502793 0.030436706 0.0663754 0.00023164107
0001d0 7c b1 e6 bc 03 30 ea 3c a5 41 33 3d 12 01 e8 ba
       -0.028160803 0.028587347 0.043763775 -0.0017700514
0001e0 f5 30 fa 3c a1 69 c3 3b a4 6b f0 37 47 e0 b0 bc
       0.030540923 0.0059635197 2.8660354e-05 -0.021591319
0001f0 0d 27 c0 3c fe e8 fd 3c 36 19 ad 3b 88 7e 34 3d
       0.02345612 0.030994888 0.0052825464 0.044065982
000200 6d 34 76 3d fb f6 5f bd 67 19 4d 3e 59 95 58 3d
       0.06010859 -0.0546789 0.20029221 0.052876804
000210 13 43 77 3e a3 11 0a be ac 42 93 bd c4 fc 58 3e
       0.2414668 -0.1348329 -0.07190451 0.21190172
000220 bb 00 6e 3b 2e 9e d6 3d 9e 3e a3 bd 3f 39 92 be
       0.0036316353 0.10479389 -0.07970928 -0.285593
000230 c4 93 38 be 4f f7 42 3e f2 65 56 bd e1 7b 87 3e
       -0.18025118 0.19039653 -0.052343316 0.264617
000240 8f 86 17 3e 95 96 c9 3d 78 94 84 bd b7 ff ef bd
       0.14797424 0.09843174 -0.06473631 -0.117186956
000250 56 00 a0 3d 95 ed 71 bd dd de 2f bd 01 65 f3 3b
       0.07812564 -0.059064467 -0.04293715 0.007427812
000260 0a b7 e1 bd 50 38 54 3e b1 b3 62 bd 75 33 9f bc
       -0.1102124 0.20724607 -0.05534715 -0.019433716
000270 5d c6 d2 bd 93 b4 68 be 4f 11 13 be 89 93 8f 3d
       -0.10291741 -0.22725134 -0.14362071 0.07010562
000280 8e 51 0e bd 10 f7 0c 3d c4 26 7e 3d 51 78 81 bd
       -0.034745745 0.034415305 0.06204869 -0.06321777
000290 e2 0e 2f 3e b2 f4 4e 3e 92 38 7e bd 12 44 20 be
       0.17095521 0.20210531 -0.06206567 -0.15650967
0002a0 29 76 68 3e c4 14 c0 bd 36 d1 c7 3d a8 de 4f be
       0.22701325 -0.09378961 0.09756701 -0.2029978
0002b0 b6 3c 85 be 19 65 0b 3e cf f1 e4 bd 1b 3f 75 bd
       -0.2602288 0.13612784 -0.11178934 -0.059874635
0002c0 f2 39 a5 bd 00 9d 88 3e 73 67 1c 3d f9 4f 04 3e
       -0.08067693 0.26682281 0.038184594 0.12921132
0002d0 c4 e4 82 be 9b 23 76 be 18 76 42 be b5 be 47 be
       -0.2556516 -0.2403702 -0.18990362 -0.19506343
0002e0 5c b7 15 3e 6a ef e4 3d 72 f9 e4 bd 90 1a d4 bd
       0.14620727 0.11178477 -0.111803904 -0.10356629
0002f0 91 a6 c5 bd 8f f2 47 3e 7f 7d 4e be a9 ba 11 be
       -0.09650911 0.19526123 -0.2016506 -0.14231361
000300 fe 57 d4 3d b5 c8 41 3d 13 d9 9f 3d f7 67 90 3d
       0.10368346 0.04731055 0.078050755 0.0705108
000310 4e ec 1e be 8b 47 41 be ac bf 4d be 29 87 69 3e
       -0.1551983 -0.18874948 -0.20092648 0.22805466
000320 5e 83 78 3e 0b 09 30 3e 8e b5 47 be 56 65 0c be
       0.24268863 0.1719095 -0.19502851 -0.13710532
000330 04 59 60 be 0d 63 3f 3e dc b0 69 3e a4 b5 f7 3d
       -0.21908957 0.18690129 0.22821373 0.12095192
000340 8d 11 25 3c e0 7e 77 3e d7 46 b5 3c 8d 13 34 be
       0.010074985 0.24169493 0.022128506 -0.17585583
000350 97 d6 5f bd 0d a7 f8 bd 04 e0 03 3d e7 d2 49 3e
       -0.05464801 -0.121412374 0.03219606 0.19709359
000360 9c 67 7c be 70 76 4b be 51 26 9d 3d 4d 6d 98 bd
       -0.24648899 -0.19869399 0.07673324 -0.074427225
000370 84 f0 96 3d 95 39 05 be 01 8c 04 be 90 d7 4a 3e
       0.073700935 -0.13010247 -0.12944032 0.19808793
000380 00 ae 10 be 00 fa 0d be de a9 a0 bd a6 d0 27 3e
       -0.14128876 -0.13864899 -0.078448996 0.16388187
000390 c7 43 48 3e 5b 0c 2f 3e fd a7 86 3d 7b 1d 2f be
       0.19557105 0.17094557 0.0657501 -0.1710109
0003a0 f0 86 21 be 6d 29 27 3e 7c 55 4d 3e 2e 17 01 3e
       -0.15774131 0.16324396 0.20052141 0.12606499
0003b0 72 56 0a be 09 92 7d be 76 01 6e bd bb dd 4b be
       -0.13509539 -0.24762739 -0.058106862 -0.19908802
0003c0 4a 6c 7d 3d 1c 6b 4d be 54 5d 4c be 0b 9f 11 3e
       0.06187085 -0.2006039 -0.19957477 0.14220826
0003d0 5b a2 3c be 55 79 16 3d cf 1e d2 bd a5 42 1b 3e
       -0.18421309 0.036736805 -0.102597825 0.15162142
0003e0 0b f0 07 be ff ad 6b bd 42 f8 02 3d c6 76 50 3e
       -0.13275163 -0.057538982 0.03197504 0.20357808
0003f0 82 ba 44 3e 81 34 0a 3e 7d 5d de ba 2f aa b7 3d
       0.19211772 0.13496591 -0.0016965118 0.08968007

gru.bias_hh_l0 f4 [384]
000000 a9 48 08 bb 32 9e 6b 3c b4 33 1d bb af c3 90 3c
       -0.0020795262 0.014380978 -0.0023987116 0.017671434
000010 03 00 4e 3c 93 57 e4 bc 0b 61 2e bb b8 31 ba 3a
       0.012573245 -0.02787379 -0.0026608135 0.0014205491
000020 03 1b d6 bc 03 65 89 bb b3 c3 40 bc 28 b8 ae bc
       -0.026135927 -0.0041929497 -0.011765408 -0.021328047
000030 da 47 95 bc 36 55 00 3d ca d3 e4 3b ea 92 1c b9
       -0.018222738 0.031331263 0.006983255 -0.00014932049
000040 8c 72 aa 3b 60 6e 4f bb 65 2b 8e bd eb 90 c6 b8
       0.0052016433 -0.0031651482 -0.069418706 -9.468369e-05
000050 92 d3 c4 3c 60 60 de 3a dd 10 8c 3b b2 6b c9 3a
       0.024026666 0.0016965978 0.004274471 0.0015367179
000060 b2 41 2a 3d 7a e9 37 bc 88 3f 27 3b 0c 4e 38 3d
       0.04156656 -0.011225099 0.0025520045 0.044996306
000070 ab 6e d4 3c bd 23 09 bc b3 d4 05 3c 95 b1 84 bc
       0.025931677 -0.008370337 0.008168387 -0.016197959
000080 5f f3 a5 3c 5c 30 83 3c 60 7a 0e bc 06 0b 2c 3d
       0.02025765 0.01601427 -0.008696169 0.0420027
000090 31 4b 21 3c 5c 72 b3 3b 47 ef 63 bc 5b 70 1e bd
       0.009844587 0.005476279 -0.013912029 -0.03868137
0000a0 81 6f 1d b7 25 d2 56 3c 18 08 f2 3c 0a 20 67 3c
       -9.383891e-06 0.013111626 0.029544875 0.01410676
0000b0 96 7d 0f 3d 69 81 e6 3c 48 8b 05 bd 41 43 79 bc
       0.035031877 0.02813788 -0.032603532 -0.0152137885
0000c0 c3 2d 8a 3c a9 85 c0 b9 dc 86 39 3c a2 17 cc 3a
       0.016867524 -0.00036720678 0.011323657 0.0015571008
0000d0 d6 0f b4 bb 23 45 e1 3c 5f 0b 6d bc aa 5e 81 bd
       -0.005495052 0.027498787 -0.014468043 -0.06316884
0000e0 2a 28 59 bb 36 5b 51 bc af a3 83 3c 2d 4f 35 3c
       -0.0033135512 -0.012778094 0.016069261 0.01106624
0000f0 65 0d bb 3c 93 9a 0d 3c 3d 2a b6 3c b3 92 da 3c
       0.022833535 0.00864281 0.022236938 0.02668128
000100 c0 d9 ff 3b 1c 79 86 ba 5a da 9f 3b 6e 5c b6 3c
       0.0078079402 -0.0010259482 0.0048783245 0.02226087
000110 5b 5a ca 3c e8 8b f9 bc d5 e0 c5 bc ef 80 fc bb
       0.024701288 -0.03046222 -0.02415506 -0.0077058
000120 48 2d 05 3b 69 96 f4 3b 33 9b ba 3b e2 9c 0d bd
       0.002032118 0.0074642194 0.0056947707 -0.034573443
000130 6c fe c4 bc 2f 66 ee bb be 10 12 3a d6 25 a6 bc
       -0.024047099 -0.007275365 0.0005571953 -0.020281713
000140 25 3c 5f bb b6 8c 21 3b 2d 0b 72 3c 4c 2b a7 bc
       -0.0034062949 0.002465052 0.014773172 -0.020406388
000150 7d 81 12 bc 45 aa 85 3b d7 7c b0 bb 44 1c 8b ba
       -0.008942005 0.0040791356 -0.005385976 -0.0010613282
000160 29 17 66 3c a6 04 16 3d fc 6a 9c 3c 9d 90 92 3c
       0.014043608 0.036625527 0.019093983 0.017891223
000170 52 a4 cd ba c5 7e 0a bc 1f b8 16 bc c7 8c 54 ba
       -0.001568923 -0.008453076 -0.009199171 -0.00081081357
000180 08 b9 57 bc c7 2d 1f 3d 7c cd 17 3d 14 aa 31 bc
       -0.0131666735 0.038862016 0.0370612 -0.010843772
000190 d8 fa 11 b9 13 e7 f4 bb 68 d1 0e ba 10 b7 0c bc
       -0.00013921724 -0.0074738353 -0.0005448074 -0.008588567
0001a0 75 f0 da 3c 79 37 85 bb 37 40 fc bb 6a 79 c3 3b
       0.026725987 -0.0040654507 -0.0076980847 0.0059654014
0001b0 10 53 d3 3c 63 87 8b bb f3 f9 22 bc cc 36 ae 3b
       0.025796443 -0.0042580827 -0.009947288 0.005316591
0001c0 0e f6 fd 3b 66 56 f9 3c d3 ef 87 3d ad e4 72 39
       0.0077502793 0.030436706 0.0663754 0.00023164107
0001d0 7c b1 e6 bc 03 30 ea 3c a5 41 33 3d 12 01 e8 ba
       -0.028160803 0.028587347 0.043763775 -0.0017700514
0001e0 f5 30 fa 3c a1 69 c3 3b a4 6b f0 37 47 e0 b0 bc
       0.030540923 0.0059635197 2.8660354e-05 -0.021591319
0001f0 0d 27 c0 3c fe e8 fd 3c 36 19 ad 3b 88 7e 34 3d
       0.02345612 0.030994888 0.0052825464 0.044065982
000200 6d 34 76 3d fb f6 5f bd 67 19 4d 3e 59 95 58 3d
       0.06010859 -0.0546789 0.20029221 0.052876804
000210 13 43 77 3e a3 11 0a be ac 42 93 bd c4 fc 58 3e
       0.2414668 -0.1348329 -0.07190451 0.21190172
000220 bb 00 6e 3b 2e 9e d6 3d 9e 3e a3 bd 3f 39 92 be
       0.0036316353 0.10479389 -0.07970928 -0.285593
000230 c4 93 38 be 4f f7 42 3e f2 65 56 bd e1 7b 87 3e
       -0.18025118 0.19039653 -0.052343316 0.264617
000240 8f 86 17 3e 95 96 c9 3d 78 94 84 bd b7 ff ef bd
       0.14797424 0.09843174 -0.06473631 -0.117186956
000250 56 00 a0 3d 95 ed 71 bd dd de 2f bd 01 65 f3 3b
       0.07812564 -0.059064467 -0.04293715 0.007427812
000260 0a b7 e1 bd 50 38 54 3e b1 b3 62 bd 75 33 9f bc
       -0.1102124 0.20724607 -0.05534715 -0.019433716
000270 5d c6 d2 bd 93 b4 68 be 4f 11 13 be 89 93 8f 3d
       -0.10291741 -0.22725134 -0.14362071 0.07010562
000280 8e 51 0e bd 10 f7 0c 3d c4 26 7e 3d 51 78 81 bd
       -0.034745745 0.034415305 0.06204869 -0.06321777
000290 e2 0e 2f 3e b2 f4 4e 3e 92 38 7e bd 12 44 20 be
       0.17095521 0.20210531 -0.06206567 -0.15650967
0002a0 29 76 68 3e c4 14 c0 bd 36 d1 c7 3d a8 de 4f be
       0.22701325 -0.09378961 0.09756701 -0.2029978
0002b0 b6 3c 85 be 19 65 0b 3e cf f1 e4 bd 1b 3f 75 bd
       -0.2602288 0.13612784 -0.11178934 -0.059874635
0002c0 f2 39 a5 bd 00 9d 88 3e 73 67 1c 3d f9 4f 04 3e
       -0.08067693 0.26682281 0.038184594 0.12921132
0002d0 c4 e4 82 be 9b 23 76 be 18 76 42 be b5 be 47 be
       -0.2556516 -0.2403702 -0.18990362 -0.19506343
0002e0 5c b7 15 3e 6a ef e4 3d 72 f9 e4 bd 90 1a d4 bd
       0.14620727 0.11178477 -0.111803904 -0.10356629
0002f0 91 a6 c5 bd 8f f2 47 3e 7f 7d 4e be a9 ba 11 be
       -0.09650911 0.19526123 -0.2016506 -0.14231361
000300 fe 57 d4 3d b5 c8 41 3d 13 d9 9f 3d f7 67 90 3d
       0.10368346 0.04731055 0.078050755 0.0705108
000310 4e ec 1e be 8b 47 41 be ac bf 4d be 29 87 69 3e
       -0.1551983 -0.18874948 -0.20092648 0.22805466
000320 5e 83 78 3e 0b 09 30 3e 8e b5 47 be 56 65 0c be
       0.24268863 0.1719095 -0.19502851 -0.13710532
000330 04 59 60 be 0d 63 3f 3e dc b0 69 3e a4 b5 f7 3d
       -0.21908957 0.18690129 0.22821373 0.12095192
000340 8d 11 25 3c e0 7e 77 3e d7 46 b5 3c 8d 13 34 be
       0.010074985 0.24169493 0.022128506 -0.17585583
000350 97 d6 5f bd 0d a7 f8 bd 04 e0 03 3d e7 d2 49 3e
       -0.05464801 -0.121412374 0.03219606 0.19709359
000360 9c 67 7c be 70 76 4b be 51 26 9d 3d 4d 6d 98 bd
       -0.24648899 -0.19869399 0.07673324 -0.074427225
000370 84 f0 96 3d 95 39 05 be 01 8c 04 be 90 d7 4a 3e
       0.073700935 -0.13010247 -0.12944032 0.19808793
000380 00 ae 10 be 00 fa 0d be de a9 a0 bd a6 d0 27 3e
       -0.14128876 -0.13864899 -0.078448996 0.16388187
000390 c7 43 48 3e 5b 0c 2f 3e fd a7 86 3d 7b 1d 2f be
       0.19557105 0.17094557 0.0657501 -0.1710109
0003a0 f0 86 21 be 6d 29 27 3e 7c 55 4d 3e 2e 17 01 3e
       -0.15774131 0.16324396 0.20052141 0.12606499
0003b0 72 56 0a be 09 92 7d be 76 01 6e bd bb dd 4b be
       -0.13509539 -0.24762739 -0.058106862 -0.19908802
0003c0 4a 6c 7d 3d 1c 6b 4d be 54 5d 4c be 0b 9f 11 3e
       0.06187085 -0.2006039 -0.19957477 0.14220826
0003d0 5b a2 3c be 55 79 16 3d cf 1e d2 bd a5 42 1b 3e
       -0.18421309 0.036736805 -0.102597825 0.15162142
0003e0 0b f0 07 be ff ad 6b bd 42 f8 02 3d c6 76 50 3e
       -0.13275163 -0.057538982 0.03197504 0.20357808
0003f0 82 ba 44 3e 81 34 0a 3e 7d 5d de ba 2f aa b7 3d
       0.19211772 0.13496591 -0.0016965118 0.08968007

gru.weight_ih_l1 f4 [384, 128]
000000 be 50 09 bd f9 ea 0f 3e ea b6 a8 be 0d 7d d8 3e
       -0.033524267 0.14054479 -0.32952052 0.42282906
000010 05 27 68 bf 92 71 15 3e 2f 6a 23 bc 37 fb 60 3e
       -0.9068454 0.14594105 -0.009974047 0.21970831
000020 80 50 9a bd ee e9 3c bc 91 3e 4b 3d 6b 69 9c be
       -0.075348854 -0.011530383 0.049620215 -0.30549178
000030 e2 1c 95 bd fb 1c ce 3e f0 cc 0d bd 5d ce ae be
       -0.072808996 0.40256485 -0.03461927 -0.34141818
000040 a6 f4 60 be 6a 18 ce 3e d7 1c 37 3e 39 98 a1 bd
       -0.21968326 0.40253 0.17882095 -0.07890362
000050 53 84 9e bd 70 08 20 3d 1d c9 55 bd b9 e5 7c be
       -0.077400826 0.039070547 -0.05219375 -0.24697007
000060 9a 37 1d 3e fe e9 b3 3e 11 f8 b4 3e a8 43 ac bb
       0.15353242 0.3513946 0.3534551 -0.0052570887
000070 42 3d df 3c 25 8f 8f bd 98 53 cb 3d 97 36 ac 3c
       0.02725089 -0.070097245 0.099280536 0.021022124
000080 90 38 c1 3d 86 0e 20 3e 65 c8 81 be 6c 74 84 3b
       0.094346166 0.1563054 -0.253482 0.004042199
000090 0c e6 ea bd 2e d9 26 3f 17 47 8f 3d b2 cb bc 3d
       -0.11469659 0.6517514 0.06995981 0.09218539
0000a0 37 30 55 be 83 3b 67 3c ad 8c 07 3e 46 ba 3b 3e
       -0.20819174 0.01411331 0.13237257 0.18332776
0000b0 e5 a7 99 be 7a d8 1f be d1 63 a0 be 56 8d 95 bd
       -0.30010906 -0.15609923 -0.31326154 -0.07302348
0000c0 5b 06 e5 3d bf 3a 80 bf 16 5f ef 3d 6c 1c b7 bd
       0.11182853 -1.0017928 0.11688058 -0.08940968
0000d0 96 34 9e 3e 8e 2f a2 bd 93 95 c9 3c 9b 84 49 3e
       0.30899495 -0.079192266 0.024607455 0.19679491
0000e0 c2 6d 06 bf 83 da ab 3d b6 0a 13 3e b0 8a 06 bc
       -0.5251123 0.08391287 0.14359555 -0.008211777
0000f0 47 68 d3 3e 62 18 ac 3e 55 05 11 bf 5f 2c 34 be
       0.41290495 0.33612353 -0.5664876 -0.17595051
000100 ff a3 8c 3d 48 35 ba 3e 39 ed 37 be a7 67 ac bb
       0.06867217 0.36368775 -0.17961587 -0.0052613798
000110 89 fa ed be cb a6 8b 3d c6 3a 91 3d f6 d1 96 be
       -0.46480206 0.068189226 0.07091288 -0.29457062
000120 ee 0d 90 3e 79 c6 91 3e ae b6 c8 be 2f 98 fb 3d
       0.28135628 0.28471735 -0.39201874 0.12284886
000130 f4 a7 63 bb 2d 17 af bc 6e 4a 6d be 0d 0b cc 3d
       -0.003473756 -0.021373356 -0.23172924 0.09963045
000140 3b ec 40 be be a6 47 be d8 4b 47 bc 8a fc dd 3e
       -0.18840115 -0.19497201 -0.012164079 0.43356735
000150 1e 76 f1 bd 59 d6 37 3e 7f b3 1f be b0 5d 19 bf
       -0.11790107 0.17952861 -0.15595816 -0.5990858
000160 b2 76 ad 3c 44 fb db 3e ab 6e 72 bc 66 d6 7a be
       0.021174762 0.42965138 -0.014796893 -0.24495849
000170 a7 a1 57 bc 49 36 69 be af be 08 3e ad e2 64 be
       -0.0131610995 -0.22774614 0.1335399 -0.22352095
000180 80 b4 f7 3d 45 97 0b be aa 4d 2d 3d ed b4 d8 be
       0.120949745 -0.13631923 0.042310394 -0.42325535
000190 e0 a0 3c be f8 94 c4 3e 1c 20 6b be 5a 4d 7c bd
       -0.18420744 0.38394904 -0.22961468 -0.061597206
0001a0 d1 78 2a 3e 55 88 82 be 38 e9 e8 be 7e f1 b8 3e
       0.1664765 -0.25494638 -0.45490432 0.36121744
0001b0 64 77 fc 3b 4c 39 ed 3e 5f 69 3c 3d 95 90 e4 3d
       0.007704662 0.46332777 0.045998927 0.11160389
0001c0 2a b4 07 3f 1b 92 ed 3d f6 f7 91 bc 40 e1 e9 3d
       0.53009284 0.11600133 -0.017818432 0.11419916
0001d0 cd f6 76 be 25 a0 11 bc 1c 89 2a be ab f2 4a be
       -0.24117585 -0.008888279 -0.16653866 -0.19819133
0001e0 09 46 eb 3c e3 9c 28 3f 0c 23 eb 3c ba 38 8f be
       0.028719919 0.6586439 0.028703235 -0.27972966
0001f0 9f 73 16 be e1 96 19 3e 8a 07 55 3d 82 3f 3a be
       -0.14692543 0.14998962 0.052009143 -0.18188289
000200 38 da a2 3d c0 81 0a 3d 4c 79 1c be bc b9 d4 bc
       0.07951778 0.033815145 -0.15280646 -0.025967471
000210 9e 69 42 be fc 20 02 bd 7c 52 a7 3d c9 99 ac 3e
       -0.18985602 -0.031769738 0.081700295 0.3371108
000220 3d e7 7d 3e 8e ab 2e 3c 0a 18 74 3d 8a 1f 89 bc
       0.24795242 0.010661019 0.059593238 -0.016738672
000230 b5 4c e6 bd ab 83 92 3e 5c ff 87 3e 65 44 51 bf
       -0.112450995 0.2861608 0.2656201 -0.81744987
000240 6a 85 09 be f4 46 46 3d 82 2b 04 3f dc ba 93 3c
       -0.134298 0.04840751 0.5162889 0.018033437
000250 22 0a 92 bd 85 b5 6a be e5 f1 e6 bd 18 83 c8 3e
       -0.07130839 -0.22920807 -0.112766065 0.39162517
000260 28 2e f9 bc 7f c5 b1 3e 17 51 61 bd ee 60 64 3e
       -0.030417517 0.3472099 -0.055008974 0.223026
000270 66 d7 85 be b1 d9 1f 3e 32 9d 0d 3e 68 41 60 3d
       -0.26140898 0.15610386 0.13829497 0.054749876
000280 fe 6d fe bd 9e 63 26 3b 50 23 0d be db 6c 12 3d
       -0.12423323 0.0025388966 -0.13783002 0.035748344
000290 88 eb 35 bf 49 96 36 3d 89 f2 89 3e f7 c5 a6 be
       -0.7106252 0.044576917 0.26942852 -0.3257291
0002a0 4f c3 56 bf 09 39 91 bd 36 56 0a bd dc 41 fe be
       -0.8389177 -0.07090957 -0.033773623 -0.49659622
0002b0 aa 74 b6 3c 13 13 9d bd 51 74 83 3e 81 be 14 3f
       0.022272427 -0.07669654 0.2567468 0.58103186
0002c0 f3 af f2 3d b3 16 ce be 26 f2 6b 3e 53 28 2f 3f
       0.11849966 -0.40251693 0.23041591 0.68420905
0002d0 fa 60 dc bb c3 a1 04 be 82 79 d0 3e 4e 53 4b bb
       -0.0067254277 -0.12952332 0.40717703 -0.0031024995
0002e0 66 35 0f bd 0c 56 47 3e 77 57 2e 3d 85 d1 f3 bd
       -0.034963034 0.19466418 0.04256388 -0.11905197
0002f0 26 08 7a be e1 54 41 3f 3e 04 bf 3e 3c 3b c7 3d
       -0.24417171 0.7552014 0.37307924 0.09728095
000300 be 1b 33 3e 7c bd 02 bf c6 07 af 3e ef a9 8d 3d
       0.17491052 -0.5107038 0.34185618 0.06917178
000310 61 48 49 bc 27 78 c9 3d 56 b3 e2 bc 68 b9 26 bf
       -0.012285323 0.0983737 -0.027673405 -0.6512666
000320 e0 f5 2a 3f a3 5f 0f 3f f2 54 38 3f ef 9f fb bd
       0.66781425 0.56005305 0.72004616 -0.12286364
000330 4f 4e d6 3d 73 02 05 3e f3 fb 27 bf ba ec d9 3d
       0.10464155 0.12989216 -0.6561882 0.10640855
000340 df b4 6b 3d fd 8a 23 bf 3f 8a 3f 3c ab fd 37 bf
       0.05754554 -0.63883954 0.011690675 -0.7187144
000350 f9 d8 48 be c3 c8 97 be 96 3c 89 bd 19 00 bc be
       -0.19614018 -0.29645357 -0.06701009 -0.36718825
000360 89 6b be bd d0 c2 c2 bd 8c cc 49 3c b9 c5 b2 3e
       -0.092978545 -0.09509814 0.012316834 0.34916475
000370 dd 66 60 3f 8b b2 2d 3f 6e 55 a9 bd 96 3e a2 3c
       0.87656957 0.6785056 -0.082682475 0.019805234
000380 e7 a9 c7 be e4 65 00 3f 12 c8 2e be 5e ef df bc
       -0.38996813 0.5015547 -0.17068508 -0.027335819
000390 69 2e e0 be a0 cd fb bb 66 49 42 3e 00 ac 9b 3e
       -0.43785408 -0.0076844245 0.18973312 0.30404663
0003a0 d3 01 29 be b8 d2 cd bd 9c 9b 8f be ff 24 85 3d
       -0.16504602 -0.10049957 -0.28048408 0.06501197
0003b0 ef 19 ac be c3 5a 9b bd b1 36 20 3e cf d1 a8 3c
       -0.33613536 -0.07585671 0.15645863 0.020607857
0003c0 7e 1d 33 be 27 d8 c5 bd 4e a0 a5 3d fb 5f 28 bf
       -0.17491719 -0.096603684 0.08087216 -0.65771455
0003d0 87 33 5b 3e 4b ad 53 3d b4 bc a2 3d 4a a8 ad 3c
       0.21406375 0.051678937 0.079461485 0.02119841
0003e0 11 7d 1c 3e 4f e1 b0 bd 2a c1 37 3e e3 9b 31 be
       0.15282084 -0.08636724 0.1794478 -0.17344622
0003f0 aa b4 61 bf 67 85 bf 3d 0d 21 00 3e 42 d8 17 3f
       -0.88166296 0.09351616 0.12512608 0.5931436

gru.weight_hh_l1 f4 [384, 128]
000000 87 80 65 bd 6f 31 d3 3d 16 e6 f9 3d bb 1a a6 bd
       -0.056030776 0.10312163 0.122020885 -0.08110567
000010 a0 8d cb 3d 78 f4 da 3d 95 92 22 3e fd a3 fe bd
       0.09939122 0.1069116 0.15876229 -0.12433622
000020 d3 1a 51 be f7 93 df bd ae fc 71 3e db 3f 75 bd
       -0.20420389 -0.10916894 0.23631546 -0.05987535
000030 63 9a be bd 8d ba 87 bb 85 2c 42 3d ce 8c 62 be
       -0.09306791 -0.0041421116 0.04740574 -0.22124025
000040 6a b0 2e be cf 00 65 3d 36 bd c7 3d 76 62 14 be
       -0.17059484 0.055908974 0.09752886 -0.14490685
000050 6a 03 22 be 11 71 84 bd 0e 9f 19 bd de f6 91 3c
       -0.15821615 -0.06466878 -0.037505202 0.01781791
000060 73 5a 22 3e 25 6c de bd 24 48 1d bd c8 49 68 bd
       0.15854816 -0.10860471 -0.038398877 -0.05671099
000070 d5 79 66 3d c6 9d eb 3c 91 0e d1 bd 26 1b ad 3d
       0.05626853 0.028761756 -0.102078564 0.08452444
000080 0c 04 67 be 39 7c b7 3c 30 9d 0f bd 15 55 ad 3d
       -0.22560138 0.022398101 -0.035062015 0.08463494
000090 9a b5 1b bc 47 9a 1f be 97 80 a9 bd e3 0e 19 bd
       -0.009503746 -0.15586196 -0.0827648 -0.037367713
0000a0 5a 45 2d be b8 ac 92 3d a2 c7 99 bc ac 35 fa 3d
       -0.16920987 0.0716185 -0.01877195 0.12217268
0000b0 c4 6b 05 3e 08 01 79 3d 95 a6 85 bd dd c7 f5 3d
       0.1302939 0.060792 -0.065259136 0.120010115
0000c0 a2 a6 af be 8d f6 9e 3d 54 06 d4 bd 59 d6 87 3c
       -0.34306818 0.077618696 -0.103527695 0.016581701
0000d0 4c 84 d5 bd 90 44 fc bd 60 c1 fc 3c 4a 15 54 bb
       -0.10425624 -0.12317765 0.030853927 -0.0032361322
0000e0 f9 4a e2 bd b7 f5 59 be c4 69 a8 bc aa 3d 20 3e
       -0.11049456 -0.21285139 -0.020558245 0.15648523
0000f0 a0 1b ab bd ef 69 40 be 3c 10 c4 3d 4d 8c 13 3e
       -0.083548784 -0.1879041 0.09573409 0.14408989
000100 7d b4 d5 3d 4f ce ba 3d 90 dc 52 bd 2c 1e f2 bd
       0.10434816 0.091213815 -0.051479876 -0.11822161
000110 3d 62 29 3e a8 de 0a 3e 64 81 1a be 74 a3 d8 bd
       0.16541381 0.13561499 -0.15088421 -0.10578051
000120 45 7a 90 3d da ce 8b be 8b b4 0a 3e b8 0e 66 bd
       0.07054571 -0.27306253 0.13545434 -0.05616638
000130 1a 6a 91 3d 28 32 7b 3d 96 01 fd 3d 7d 18 86 bd
       0.071003154 0.06132713 0.12353818 -0.065476395
000140 c2 85 01 be 71 89 2d be c1 98 37 3e a7 cd a4 bc
       -0.12648681 -0.16946961 0.17929365 -0.020117594
000150 1f 87 f6 3d 33 d7 2c be 7e f1 23 be d4 30 b2 3b
       0.12037491 -0.16878967 -0.1601009 0.0054379497
000160 2b ec 12 bc 2d 11 51 bd aa d1 89 bd 72 7c df bd
       -0.00896744 -0.05104177 -0.06729443 -0.10912408
000170 4d ce 3d be 68 34 45 bd b3 dd 9f 3d 62 6f 5b 3c
       -0.18535729 -0.04814568 0.07805958 0.013393255
000180 e8 45 ac bd eb cf aa bc 15 70 d6 3d ce db ce 3d
       -0.08411771 -0.020851096 0.10470597 0.10100518
000190 b9 31 5f 3c 4f 7f 57 bd 8d b7 2d 3d bb 95 4e 3d
       0.013622695 -0.052611645 0.042411376 0.050435763
0001a0 7b ce 67 be a9 0e 08 3d 56 c8 42 3e 6d ec e6 bd
       -0.2263736 0.033217106 0.19021735 -0.112755634
0001b0 31 be b3 3d ab 45 1c 3d 0e 49 8e bd 0d 3d 05 bd
       0.087765105 0.038152378 -0.06947528 -0.032528926
0001c0 ff 0c 0e 3e 68 0d ef bd 67 21 0d 3d ac c8 20 3e
       0.13872145 -0.11672479 0.034455683 0.1570155
0001d0 5f 5d 0d be fd dd ee 3d 60 d5 04 be ed 14 37 be
       -0.1380515 0.11663435 -0.12972021 -0.17879076
0001e0 8d 14 e2 bd 2b 9d 78 bd 65 ce cd 3d c7 21 9f bd
       -0.11039076 -0.060696762 0.10049132 -0.077701144
0001f0 dd 97 b5 bd b1 9e 9e bd 6d 76 19 bd d8 90 9a 3d
       -0.08866856 -0.07745112 -0.037466455 0.07547158
000200 49 8c cc 3c 3e e5 c2 be 0e c9 6f 3e c7 4c 8d 3d
       0.024969237 -0.38065523 0.2341654 0.0689941
000210 7f 84 2d bc 40 3c 9f bc 3a 44 2c bd cf d9 99 3d
       -0.010590672 -0.01943791 -0.042057253 0.07512247
000220 f2 5b f0 3d cd 57 ca bd f9 c8 91 be 5b e8 c7 3d
       0.11736287 -0.09880028 -0.28473642 0.09761115
000230 04 a5 cc 3d 1e ef f5 be a9 93 0a 3e a0 a3 0f bc
       0.09992412 -0.48033994 0.1353289 -0.008767039
000240 cd cb f2 3d 9c 6a 82 bd e1 8c 1a be 02 27 6d be
       0.11855278 -0.063679904 -0.15092804 -0.23159412
000250 c0 20 2d 3e 6b fb 81 3d 21 87 84 bd bb 0b 1b be
       0.16907024 0.06346782 -0.06471086 -0.15141194
000260 94 2c 7f bd b2 00 e7 3d e7 e4 29 bc ba 1a ca 3d
       -0.062298372 0.112794295 -0.010369516 0.09868379
000270 f8 2b d1 3d 8b 6f 4c bd a9 16 95 bb 06 39 d9 3d
       0.102134645 -0.049911063 -0.0045498204 0.106065795
000280 21 8e 57 3e 73 5c 8c 3e 29 fc 91 bd 33 8a 36 3e
       0.21050312 0.27414283 -0.07128174 0.17826156
000290 62 c0 35 be a8 58 01 3e d5 50 f1 3a d9 88 c1 bd
       -0.1774917 0.12631476 0.0018410931 -0.0944993
0002a0 e6 88 29 3e 99 9a 10 be 37 51 8c bd 1d 31 86 be
       0.16556129 -0.14121474 -0.06851428 -0.26209345
0002b0 dd 76 d5 3d c9 f9 61 3d 56 d3 76 3d 77 b3 11 3d
       0.10423062 0.055169854 0.06026014 0.03557154
0002c0 ad 0a 98 bd 56 ea f4 3c b4 8b 0a 3e ba 0c 25 3d
       -0.07423911 0.029896896 0.13529855 0.04029534
0002d0 f1 08 e1 bd a3 60 ea bd 6e 4e cc 3d b3 26 de 3c
       -0.109880336 -0.11444213 0.09975897 0.027118063
0002e0 f9 71 93 3d 25 8e 1a bc a4 9e f6 3d 12 bf e2 bd
       0.07199473 -0.009433304 0.12041977 -0.110716
0002f0 1e d4 9f bd 4a 4f b1 bc 70 d2 1a 3c 9c 3d 2c bc
       -0.0780413 -0.021644253 0.009449586 -0.010512736
000300 02 4d 45 bd 31 44 18 3c dc 78 34 3d 04 2d 41 be
       -0.048169143 0.009293602 0.044060573 -0.18864828
000310 18 70 b8 3d 50 72 81 bc 57 ed 27 3d 89 3e 35 be
       0.09005755 -0.015801579 0.04099783 -0.17699637
000320 25 e3 2e 3d 88 1f 02 3e 93 4c 5a bc e4 c3 f7 3c
       0.04269709 0.1270734 -0.013323921 0.030244775
000330 f4 c0 04 3d f3 41 b6 3c 64 c4 58 bb b9 a5 e0 3c
       0.032410577 0.022248244 -0.0033076042 0.027422773
000340 ff a5 e5 bd 2f a8 21 be b6 e0 cb bd 3e 71 ae bd
       -0.11213302 -0.15786813 -0.099549696 -0.08517693
000350 7c 0a 72 bd af 66 4c 3e 5d cb d0 bd bc 85 d0 bc
       -0.05909203 0.19961046 -0.101950385 -0.025454395
000360 ff 05 e7 3d 79 dc fa bc 72 1b 13 3e d5 e2 fe bd
       0.112804405 -0.030622708 0.14365938 -0.124456085
000370 83 6b 0f be 10 44 bc 3c 2c a0 1f bd 86 a0 c0 3d
       -0.14005856 0.022981673 -0.03897111 0.094056174
000380 d6 ee 3d 3d 37 10 7b 3d 3e 92 ac bd e1 ec 19 bd
       0.04637035 0.06129476 -0.08426331 -0.03757942
000390 69 5c 21 be ec 37 90 3e b9 f1 e8 3d 4b 52 0c be
       -0.15757908 0.28167665 0.1137423 -0.13703267
0003a0 7b c8 2b 3e f9 c8 28 3e b3 1f 47 3e a7 7d cf bd
       0.16775696 0.16482915 0.19445686 -0.10131388
0003b0 ab 14 e4 3d fc ba 92 3c 89 76 c9 bd 5b a9 00 bd
       0.111367546 0.017911427 -0.09837062 -0.03141151
0003c0 f4 38 98 3c 79 55 bf bd ff ff 19 3e a5 3f 30 3e
       0.018581845 -0.093424745 0.15039061 0.17211778
0003d0 ef 02 d8 bd 3e 05 12 3e c3 99 a4 3d f0 a3 dd 3d
       -0.105474345 0.14259812 0.0803714 0.10822284
0003e0 ef ba 7a bd 14 21 e2 3d 39 9b c2 bc 27 c0 03 3e
       -0.06121343 0.110414654 -0.023755657 0.12866269
0003f0 2c b2 bb bc 0f 04 5c ba 41 4a da 3d b2 b9 e0 bd
       -0.022912107 -0.0008392939 0.10658694 -0.109729186

gru.bias_ih_l1 f4 [384]
000000 78 44 51 bc ce a6 4a 3d 41 f7 e6 3d a5 4b 2b be
       -0.012772672 0.049475484 0.11277629 -0.16728075
000010 2d 78 e4 3c f4 3d b5 bd de f0 0f 3d 41 54 f8 3b
       0.027889336 -0.08849707 0.03514182 0.007578403
000020 0f a0 3e be e6 13 26 bd 4a a5 24 bd 8c ef 42 3c
       -0.18615745 -0.04054632 -0.040196694 0.011897933
000030 3f eb a2 bd a4 03 cd bc 13 4c 0a be 48 0b 4a bd
       -0.07955026 -0.02502615 -0.13505583 -0.049327165
000040 26 24 62 bc f1 8e 18 be 4b 92 82 3e 39 39 9f bd
       -0.013802564 -0.14898278 0.25502238 -0.07774586
000050 e0 2b d5 bb 59 13 42 be 54 64 a4 3d 5f 3c e1 bd
       -0.0065054744 -0.18952693 0.080269486 -0.10997843
000060 17 ff 3c 3d c5 27 c4 bd 9e c7 3e be 13 4d 94 b9
       0.04614171 -0.09577898 -0.18630835 -0.00028286185
000070 ac e8 b6 3d 89 25 da bd 65 85 a6 3d dc 85 f5 bc
       0.089310974 -0.106516905 0.08130912 -0.029971056
000080 95 26 f0 bd a0 8c 75 3b 1c b2 12 3d ac 82 12 bd
       -0.11726109 0.0037467852 0.03581439 -0.03576915
000090 75 8c 03 3c 32 91 0a bd 3c 90 0a be fa b9 ed bd
       0.008029093 -0.033829875 -0.13531584 -0.11607738
0000a0 7d 9c ac 3d 69 a9 30 bd 4e cd bd 3c d9 03 a0 3e
       0.08428285 -0.043130312 0.023169186 0.31252936
0000b0 36 fe 52 be 6c 4f ac 3d 68 36 e9 3b 96 ff 81 3d
       -0.20604786 0.08413586 0.0071170814 0.06347577
0000c0 84 21 3c be 9e a2 ef 3d 97 61 e3 bd 99 c5 6b 3d
       -0.1837216 0.11700939 -0.11102598 0.05756149
0000d0 49 07 de bd 4d 25 53 bc f1 aa cb bd a1 7c 0e 3e
       -0.10841233 -0.012887311 -0.09944714 0.1391473
0000e0 fb d8 cf bd d9 ea 06 be b3 e0 33 3e fd c1 a4 3e
       -0.101488076 -0.13175525 0.17566185 0.3217925
0000f0 f5 c1 f1 3d 46 67 11 bd 9e 80 21 3d ff 6c e4 bd
       0.118045725 -0.03549888 0.0394293 -0.11153602
000100 1a 67 79 3d e9 fd dd 3d c8 fe 7e bc 22 c9 2b 3c
       0.06088934 0.10839445 -0.015563674 0.0104849655
000110 58 39 e3 bd ea 56 88 3d 11 14 85 3d 0f ab 74 bc
       -0.11094922 0.066572025 0.06497968 -0.014933362
000120 f2 e3 9a bb 46 16 85 bd 62 3e a0 3d 95 43 5b bb
       -0.00472688 -0.06498389 0.078243986 -0.003345703
000130 43 cb c3 3d 86 4e ac bd 70 c6 53 3e 64 94 35 be
       0.095602535 -0.08413415 0.20681167 -0.17732388
000140 cb fc e4 3c 8e 82 93 bd df e9 93 bc d5 72 26 bd
       0.027952572 -0.07202636 -0.018055854 -0.040636856
000150 9e e7 9e bd 2e de 83 3b 3e 0d 81 be ab 1d ed 3b
       -0.07759021 0.0040242886 -0.25205415 0.0072362027
000160 55 17 d4 3d 0a f5 e6 3d 66 fc 8e bd d8 d9 47 bc
       0.10356013 0.11277206 -0.06981735 -0.012197934
000170 27 a5 5f 3d 78 7e 13 be 79 04 26 be 9f 50 52 bd
       0.05460086 -0.14403713 -0.16212644 -0.051346418
000180 dd 0b bd b9 fa 66 48 3d 4d 5e 59 bd 75 7b cf 3d
       -0.00036057728 0.04892633 -0.053068448 0.101309694
000190 32 83 7e be 50 7b d1 bc 8f 69 b1 bd 21 ec 73 3d
       -0.24854735 -0.025571495 -0.08662712 0.059551362
0001a0 8a 52 c8 3d 7d 8b 33 3e 8b 59 bc bc 57 53 5f bd
       0.09781368 0.1753368 -0.022991916 -0.05452284
0001b0 f1 44 cf 3c 8c c6 ce 3b d3 af b6 3d f4 23 9d bd
       0.025301429 0.0063102897 0.089202546 -0.07672873
0001c0 85 cb a1 3c d5 72 a8 bd aa 0d f0 bd e9 96 e9 3c
       0.019750366 -0.082250275 -0.11721356 0.028514342
0001d0 c0 9f c0 3c 03 56 bb bd 14 5f a3 bc 09 85 16 bd
       0.023513675 -0.09147265 -0.019942798 -0.036747966
0001e0 54 8a 98 bd 70 12 e3 3d 67 6d 80 3b 66 b5 58 be
       -0.07448259 0.11087501 0.003919292 -0.21162948
0001f0 e7 58 0f 3d a1 da f8 bd 2c e1 b3 3d dd 7d 01 bc
       0.034996893 -0.12151075 0.087831825 -0.007903543
000200 27 d8 df be 9f 25 82 be 8d 52 32 be 7b a5 7b be
       -0.437196 -0.25419328 -0.17414303 -0.24574845
000210 da 2b 9c be 76 ab ed be bf 86 45 be 9f 1b f7 be
       -0.30502206 -0.46419877 -0.19289683 -0.4826326
000220 a7 0a be be b5 83 e2 be 8a fb 5f be d2 03 c8 be
       -0.37117502 -0.4424111 -0.21873298 -0.39065415
000230 51 51 84 be 53 44 78 be 90 c3 b6 be ca b3 88 be
       -0.2584329 -0.24244814 -0.35696077 -0.26699668
000240 81 e2 ba be 21 57 de be b6 c5 75 be 7a 08 a5 be
       -0.36500934 -0.4342585 -0.24001202 -0.3223303
000250 51 26 85 be 43 65 0a bf 0d 53 10 bf a3 6a d1 be
       -0.26005796 -0.54060763 -0.56376725 -0.4090167
000260 b7 76 c9 be be 74 cf be b8 39 ad be 98 e8 b8 be
       -0.39348385 -0.40518755 -0.33833098 -0.36114955
000270 63 cd a7 be 61 bb f7 be f0 04 d7 be c1 41 cc be
       -0.32773885 -0.48385146 -0.41995955 -0.39893916
000280 65 d1 ee be 7e c4 c6 be 94 38 da be 47 b1 7f be
       -0.4664413 -0.38821787 -0.4262129 -0.2496997
000290 d8 75 36 be 14 d5 d9 be 06 a7 0c bf 7d cd f2 be
       -0.17818391 -0.42545378 -0.5494236 -0.474224
0002a0 2e 97 3b be 9a 1d 48 be 83 e1 a6 be 66 40 0a bf
       -0.18319389 -0.19542542 -0.32593927 -0.54004514
0002b0 d9 e7 51 be cd 9c ec be b5 93 b8 be 97 f9 ec be
       -0.20498599 -0.4621338 -0.36050192 -0.46284172
0002c0 86 9d 63 be f9 61 e4 be bf e3 bc be f7 52 94 be
       -0.22228059 -0.44605997 -0.36892506 -0.28969547
0002d0 aa 7b c2 be bc e1 45 be ab d8 24 bf 93 83 8b be
       -0.37984973 -0.19324392 -0.6439311 -0.2724882
0002e0 8d 3c df be 42 72 6b be 51 8d c8 be 76 1f d1 be
       -0.43600884 -0.22992805 -0.39170316 -0.40844315
0002f0 11 b6 11 bf d1 24 84 be a5 d0 ed be 73 e0 9c be
       -0.56918436 -0.2580934 -0.46448246 -0.3063999
000300 4e da 9b be cc 21 91 be 75 a5 bf be df d3 cc be
       -0.3043999 -0.28346097 -0.3743092 -0.40005395
000310 ad 3d e7 be e4 3b dc be 56 bd 97 be 11 23 83 be
       -0.45164242 -0.43014443 -0.2963664 -0.2561269
000320 68 4a 14 bf 14 4a c5 be 9f 56 8d be 08 38 89 be
       -0.57926035 -0.3853308 -0.2760515 -0.2680056
000330 e6 37 b1 be 5d 9a 01 bf d9 a9 40 be 22 d3 12 bf
       -0.3461296 -0.50626165 -0.18814792 -0.57353413
000340 b1 7e df be 65 57 dc be 35 c5 17 bf 9e 14 ca be
       -0.43651345 -0.43035427 -0.5928529 -0.39468855
000350 1a 95 f4 be 2d 71 79 be e1 60 74 be df f1 ab be
       -0.47770005 -0.2435958 -0.23865081 -0.3358297
000360 ec c4 75 be b5 c5 4b be 61 ef 4d be 84 9c 35 be
       -0.24000901 -0.19899638 -0.20110847 -0.17735487
000370 4e b6 38 be 62 c6 f7 be f7 85 12 bf a6 19 f4 bd
       -0.18038294 -0.48393542 -0.57235664 -0.119189546
000380 ca 16 6a be b2 30 5e be f3 3a f1 be 8d 23 91 be
       -0.22860256 -0.21698263 -0.47115287 -0.28347436
000390 58 25 ce be 6c ed 81 be 2f c8 89 be f6 74 d1 be
       -0.40262866 -0.2537645 -0.2691054 -0.40909547
0003a0 ae f7 a1 be a6 8d c6 be 90 e0 35 be c7 53 01 be
       -0.31634277 -0.38779944 -0.17761445 -0.12629615
0003b0 8c d7 63 be 7e 1e d8 be 45 08 e6 be f1 d9 b2 be
       -0.22250193 -0.42210764 -0.44928184 -0.349319
0003c0 ac 8b 8c be b2 83 22 bf 6a fe 02 bf 3d 4a db be
       -0.2745031 -0.634822 -0.51169455 -0.42830077
0003d0 07 e1 e5 be d3 63 ea bd 48 d2 d6 be 50 76 a2 be
       -0.44898245 -0.11444821 -0.41957307 -0.3173089
0003e0 67 04 96 be c1 1b 92 be 9e dc a7 be d5 fc dd be
       -0.29300234 -0.285368 -0.32785505 -0.43356958
0003f0 77 41 fe be a3 06 f2 be e2 b2 03 bf 95 72 e3 be
       -0.4965932 -0.47270688 -0.5144483 -0.44423357
