model/gru_physics_epoch_50.pth (torch, 687480 bytes, 18 tensors)

gru.weight_ih_l0 f4 [384, 10]
00000000: 8a64 06bd 49d7 cb3c 6247 a73a 3b6b 853d
00000010: 0954 263d ec5c f13b 45b2 753d 264b a33c
00000020: c0d9 23bd 2b14 013d 6afa 8e3c 09be bbbc
00000030: f8d4 3cbd 90d1 42bc 6fd3 ddbb 9f22 28bd
00000040: d70a 44bd 4889 0a3c 6515 b13d cc48 dcba
00000050: 49cc 2abd b292 a63d bc55 c3bc e883 8aba
00000060: 2add 68bd e0f1 373d 21b6 813d 63d2 aa3c
00000070: 886e 9dbc 3f2c 463d 02c8 9abd 3b94 8bbd
00000080: dabe 5cbd e368 5b3d e26b 28bc 0349 a9bd
00000090: 7eca 22bc 4c46 80bd b741 663d 98e6 983d
000000a0: 296c 583d 9083 5fbd b340 893d 39ba 64bc
000000b0: 70b2 2cbc 17a1 8bbd fb52 a1bd 28f5 5d3c
000000c0: 559b 553d 5239 b73c 8473 643c 3807 5cbd
000000d0: 50e0 24bc 8452 2e3c dff0 18bd 9443 d13d
000000e0: a82c 9e3c 0ec5 a53d a8f9 babc 9be3 49bc
000000f0: d838 e33c 585a 11bd 46e3 da3c 0d35 d33c
00000100: 09b4 44bd b384 9ebd 8771 65bd dbdf 2f3b
00000110: 1155 063d 9d54 b03d 2859 c0bd b7eb 4bbd
00000120: 1d9f 15bd 74e9 ca3b ec03 d5bc 76cd 1fbd
00000130: 0e44 453c dd58 c43c dfe0 6d3c d229 273b
00000140: 1afe 673d a001 0a3d c739 29bd d451 7bbb
00000150: ef33 5bbc 7bb0 843d 8a24 8d3d 7506 c1bc
00000160: bbd3 36bd 1286 f23c 2b49 20bc 0782 93bd
00000170: f739 3a3d 0153 42bd 76be abbb d271 2a3d
00000180: f204 abbb 874d 473c 332b 823d 00b4 99bc
00000190: 718c dcbd 00f4 acbc 69f1 60bd dc34 9c3b
000001a0: 79de 63bd 5889 84ba da53 853d ea10 32bd
000001b0: 8792 80bc 4155 babb bcf0 f03c 6e76 94bd
000001c0: 29d1 543d 02c0 853c c65a 63bd 46f8 893d
000001d0: e5a3 6a3d eeec 03bd 228f afbd 43c8 633c
000001e0: 602c 293d e3fe d73d 20b8 4abc 0e2e 2dbd
000001f0: 8dcf b53b 159e 893c a716 a43d 0524 dcbb
00000200: fed2 9dbd db77 943c ac1e 163d 1fdf 273d
00000210: 9762 86bd 8bda e8bc a444 a1bc 240f cdbd
00000220: cef0 663c dbf8 88bc c452 ef3c 68f2 cf3d
00000230: b57f 293d 57a1 edbc 629a 1c3d 03b0 f4bb
00000240: 662c 0e3d 7bc7 a9bc e111 943c f72b f53b
00000250: 4da7 093d acea 8e3d 284f 253d de9c 613d
00000260: 8625 8d3c c15d 06bd 8342 1c3d 5e73 81bd
00000270: c8b4 8dbc 26fa b4bc afdd d63c 11c6 993b
00000280: 02f1 3a3d ea2b 30bc d781 833d b7ed 0d3d
00000290: 2437 4d3d 983a 4c3c 1bf3 35bd ffca 72bd
000002a0: 8c26 b3bb a5a9 61bd 6f36 173d 137a 023d
000002b0: 5b54 04bd 6676 54bd 2f04 af3c 5b77 14bd
000002c0: 9d78 753d a05e be3c 5456 e03c 09e8 30bd
000002d0: 7d5a e43b 4e25 933d 3a9e afbd c413 2a3d
000002e0: 135b 613b b395 a83d 9025 de3d 081f b03d
000002f0: ee3e 3abe 191d 94bd 51a0 033e da6e 993c
00000300: 3026 573d 81f5 4c3d fca4 523d 4006 3fbd
00000310: 6b93 293d a1c7 9cbb 0314 063d 6c63 9fbb
00000320: ced3 903d 5c69 0fbc 29ac 75bd 72ec fdbc
00000330: e6f7 a73c faa8 7abd 50ea 5cbd c5d1 91bd
00000340: 3b06 0abc ece0 653d 213f 6c3c 3af6 b93d
00000350: 0fe6 e43c 7460 6abc ed50 6e3d d2b7 bdbd
00000360: 80dd 42bd 8c8b c3bd ea5b 533b 6294 0b3d
00000370: 7455 d03c 31d5 a2bd e8b8 a4bc 25f6 a8b9
00000380: fbe3 53bd 75ad 65bc ee2f 3b3c 0775 a1bd
00000390: 44b9 983d 4064 f2bb f51a 5ebd 11ec d63d
000003a0: aee9 cabd 3033 313d c9ef 893d 5430 86bd
000003b0: 2e41 8f3c ae5a 56bb 8578 d43c d190 043d
000003c0: 03f8 fbb9 f561 89bc 4755 543e 5072 58bc
000003d0: 79a3 15bd b7d2 efbd 4d11 c8bd 084a f3bd
000003e0: d6ad e03d 1ea7 733d 1063 3cbc 93d0 443d
000003f0: 7ba0 9f3c 30ee 083d ca57 7bbd c1d9 a23d
-0.032810725 0.02488293 0.0012762363 0.06514593 0.040607486 0.0073658135 0.059984464 0.019933295
-0.040002584 0.031513374 0.017453391 -0.022917764 -0.04610154 -0.011890784 -0.0067695896 -0.041048642
-0.0478619 0.008455582 0.08646659 -0.0016806363 -0.041698728 0.08133449 -0.023844592 -0.0010567876
-0.056851543 0.044908404 0.063335665 0.020852273 -0.019217744 0.04838204 -0.0755768 -0.06815382
-0.053892948 0.053566825 -0.0102796275 -0.08265879 -0.009935973 -0.06263408 0.056215014 0.07465857
0.052837525 -0.054568827 0.067017935 -0.013960415 -0.01054059 -0.06817835 -0.078771554 0.013547219
0.05215009 0.0223662 0.013943557 -0.05371782 -0.010063246 0.01063979 -0.037339088 0.10217968
0.019308403 0.08094226 -0.022824124 -0.012322332 0.027737066 -0.03548655 0.0267197 0.025782133
-0.048023257 -0.07740154 -0.05601647 0.002683631 0.03279597 0.08609889 -0.09392005 -0.049785342
-0.036528695 0.0061923806 -0.026002847 -0.039014302 0.012040151 0.023968155 0.0145189455 0.0025507105
0.056638815 0.033692956 -0.041314866 -0.0038348334 -0.013379081 0.064789735 0.06891735 -0.02356265
-0.044635516 0.029604945 -0.00978307 -0.07202535 0.045465436 -0.04744244 -0.0052412106 0.041612454
-0.0052190954 0.01216448 0.06355896 -0.018762589 -0.107689746 -0.021112442 -0.054917727 0.0047670435
-0.05563209 -0.0010111732 0.06510134 -0.04347316 -0.01569487 -0.0056864326 0.029411666 -0.07249151
0.051957283 0.016326908 -0.05550649 0.067368075 0.05728521 -0.032208376 -0.08572222 0.013902727
0.041302085 0.10546663 -0.012373 -0.04228025 0.0055484236 0.016799012 0.08012133 -0.006718161
-0.07706259 0.018123558 0.036650345 0.04098427 -0.06561773 -0.028424522 -0.01968605 -0.100126535
0.014095498 -0.016720226 0.02921427 0.10153657 0.041381557 -0.029007597 0.03823317 -0.0074672713
0.03471031 -0.020725003 0.018074932 0.0074820477 0.033606816 0.06978354 0.040358692 0.05508124
0.017229807 -0.032804254 0.038149368 -0.06320833 -0.017298117 -0.022091936 0.026228754 0.004692801
0.04564 -0.010752657 0.06421249 0.03465053 0.050101414 0.012465142 -0.044421297 -0.059275623
-0.0054672416 -0.055093426 0.036917146 0.0318547 -0.03230701 -0.051870726 0.0213643 -0.03624664
0.05992948 0.02323848 0.027384914 -0.043190036 0.006968795 0.0718485 -0.08575101 0.041522756
0.003438656 0.08231678 0.10847008 0.08599669 -0.18188068 -0.072321124 0.12854125 0.018729616
0.052526653 0.05003882 0.051426873 -0.04663682 0.041400354 -0.00478454 0.03273393 -0.004864147
0.070716485 -0.008753147 -0.059978638 -0.030996535 0.02050395 -0.061196305 -0.053934395 -0.071200885
-0.008424337 0.056122705 0.014419348 0.09080167 0.027941732 -0.014305223 0.058182646 -0.092635766
-0.04757452 -0.09548101 0.003225083 0.034077056 0.025431372 -0.07950819 -0.020107701 -0.0003222685
-0.05173109 -0.014018406 0.011425002 -0.07883649 0.074572116 -0.0073972046 -0.054224927 0.10494245
-0.09907852 0.043261707 0.067351885 -0.065521866 0.017487135 -0.0032707858 0.025936374 0.03236467
-0.00048059234 -0.016770342 0.20735656 -0.013210848 -0.036532853 -0.117101125 -0.09768925 -0.11879355
0.109706566 0.059485547 -0.011498228 0.048050474 0.019485703 0.03343028 -0.06136302 0.079516895

gru.weight_hh_l0 f4 [384, 128]
00000000: 4974 243d 50c8 db3c cf74 a43c f1eb ebbb
00000010: b4b0 b4bb 2e0b ffbb 62ba 0dbd 229c 45bb
00000020: ef52 b8bc a338 ebbc f6ac a03b 720f 9b3b
00000030: 1e64 b53c d3cc 783d 3b93 833d 630b 613c
00000040: 0440 f9bc ed7d 53bd e8ab 1abd d0e0 8dbc
00000050: a1d4 75bd 10e1 7abd 2ad8 4cbc 1918 fd3c
00000060: d6ea 45bd f3cc 50bc 1460 223d 8532 23bd
00000070: dde2 1ebd 9853 3f3d a200 33bb d7a8 98bc
00000080: 97b2 643d 8432 08bd d11e 3b3d 30db 333d
00000090: 5767 68bc d02b 483d bc26 533d 85d6 c1bc
000000a0: 157d 463d 184b 213d f715 a53c 846c 5dbc
000000b0: cc89 7abd 336d 3fbd a9fb 0ebd 093a 83bc
000000c0: d18c b8bb c969 b03c 8fc3 233c 288e 9abb
000000d0: 905e 473d 6a6c 1e3d ac6e 3e3d 9d0f 73bb
000000e0: bdb2 4bbd 95a3 3e3d 8e92 01bd 5386 e9bc
000000f0: 799c 0c3d 947f 46bd b17e e23a 9c14 dfbc
00000100: eb3d 28bd 51a8 f2bc efb4 8b37 4e45 2abc
00000110: bfad 9e3c bdb9 2c3d 21f3 e73b f3d5 9bbc
00000120: 6149 3b3a fa0f e8bc 7584 8c3c 8461 153d
00000130: 2f4a 723d f6a4 493d 9b8b 623d 30d8 ab3c
00000140: c498 bd3c 9063 13bd a610 27ba fe79 fcba
00000150: d6f2 86bd b8fe 5abc 1078 aabb 39ad 1fbd
00000160: a431 373d 64b5 35bc de22 eabc b76f 303d
00000170: 0c66 8fbc f635 23bd c5d6 2bbd d782 b4bb
00000180: 36aa 313d 4a2d 5d3c 0b5a f9bc d829 b03c
00000190: e44c 94b9 a207 713d 0502 923c 7e1a 493c
000001a0: 6cbf 2ebd a8af 7bbd 0cf1 093d 2c37 d0bc
000001b0: b260 22bc d065 44bd 6b06 123d 63ad 403d
000001c0: 035c 353c 447b d2ba 3825 fc3c 488e b8bc
000001d0: 7faf 96bc 98f6 853d 1e29 7c3c ebc8 e43c
000001e0: 67db d53c 3cb1 63bd 3cfb 913c 8953 47bb
000001f0: 1047 2a3c 4bbb c6bc 0090 233d d929 013d
00000200: 3c54 863c 0911 663d 37ed d9bc e154 a7bc
00000210: 6ae8 44bd 8c7c bfbd 48a4 c2bd 6f89 bf3a
00000220: a5df 00bd 9065 61bc b222 c83c ec30 14bd
00000230: 668d 153b beac 473d eb29 103d 7fd4 9c3c
00000240: ed01 eb3c 21a9 2c3d da4c d5bc 6db1 d7bc
00000250: 2e38 83bc 8f2b 4c3d 5e3d 72bc d520 ecbb
00000260: 94ab 42bc 159c 23bd ae84 7d3d e284 43bd
00000270: aa52 203d 8702 343c 9ed9 94bc 0c0b 06bd
00000280: afb7 83bd 140b e6bb c4b0 493d 0bb1 a43c
00000290: 89c7 91bc 7bef 86bd 1647 1dbd 2eec 86ba
000002a0: c8d4 16bc 683a aa3c 67a0 da3c bbca 923d
000002b0: f96b 71bb 5b5c 553c 4c16 84bd e6d7 a3bc
000002c0: 2759 673c 8a86 173d 8b4b 54bc 01ed cb3b
000002d0: 360b 1fbd bef3 b53c ec4c bebd a739 083d
000002e0: 51bb 4d3c cc88 b8bb eb9d 47bd 097c abbc
000002f0: 315d 303d bfd3 2a39 0c92 91bd 54b5 96bd
00000300: 13ff de3c 380b ffbc 4de0 3abd 18c9 74bd
00000310: f082 9abd dee4 b7bd 2d2c a53d 11fc 853d
00000320: c699 96bb 963c 61bc f2c7 ccbd dccc 14bd
00000330: ad94 483c 2172 3dbd df7a 63bc 0593 793d
00000340: 7d44 14bc 65f8 513c e15d 783d bb50 163d
00000350: dd1d 853c 0824 bebb 4d47 963c 4de2 f0bc
00000360: efd0 83bc f8f1 173d 3beb a3bd ef85 9abb
00000370: 719c b43b 41fb 71bd d986 003c abe9 71bd
00000380: 25a3 ee3c 9ff1 923b 5984 afbd 35c6 243b
00000390: c6c1 15bd a4c2 753d 54f9 ae3c e452 b9bc
000003a0: 83e5 133d e102 4f3d a69b 17bd 67bb 6fbb
000003b0: 3652 ca3c e104 23bc c6bb 3dbb 8020 2e3d
000003c0: 47de d539 89e3 673d 722a d83c 7d2c d23b
000003d0: 0880 49bd b08c f53c 2215 dbbd a5e9 dd3c
000003e0: 4849 cc3b 9ac1 643c dd02 46bd 68d1 653d
000003f0: 21d6 443b 89dd b1bb 2b8b 593c caf8 d5bd
0.04014996 0.026828915 0.02007523 -0.0071997573 -0.0055142287 -0.007783315 -0.034601577 -0.0030152877
-0.022500483 -0.02871353 0.004903431 0.004732066 0.022142466 0.06074221 0.06424566 0.013735625
-0.030426033 -0.051633764 -0.0377616 -0.017319113 -0.06001723 -0.061249793 -0.012502709 0.03089528
-0.04831966 -0.012744176 0.03964241 -0.0398431 -0.038790572 0.04671058 -0.002731361 -0.018635197
0.05583438 -0.0332513 0.045683686 0.043910205 -0.014184794 0.048869908 0.05155061 -0.023661861
0.04845913 0.039378256 0.020152075 -0.013514642 -0.06116657 -0.046735 -0.03490797 -0.016018884
-0.005632021 0.021534817 0.009995355 -0.0047166534 0.048674166 0.03867761 0.046492264 -0.0037088164
-0.049731005 0.046542723 -0.031633906 -0.028506434 0.03432891 -0.04846151 0.0017280189 -0.027231507
-0.041074675 -0.029621275 1.6654345e-05 -0.0103925 0.019369958 0.04216932 0.007078544 -0.019022917
0.0007144418 -0.02832793 0.017153004 0.03646995 0.05915278 0.049229585 0.05530892 0.02097711
0.023144133 -0.035983622 -0.0006373025 -0.0019262431 -0.06589286 -0.013366394 -0.005202301 -0.038983557
0.044725075 -0.01109061 -0.02858108 0.04307529 -0.017504714 -0.039846383 -0.041952867 -0.0055087614
0.043375216 0.013499567 -0.030438444 0.021504328 -0.00028286048 0.05884517 0.017823229 0.012274383
-0.042663023 -0.061446816 0.033677146 -0.025416933 -0.009910749 -0.04794866 0.035650652 0.047040354
0.011069301 -0.0016058465 0.030779466 -0.022528782 -0.01839423 0.06541175 0.0153906625 0.027927836
0.026105596 -0.055588946 0.017819993 -0.003041478 0.010392919 -0.02425923 0.03993225 0.03153405
0.016397588 0.05616859 -0.02660237 -0.020426216 -0.04807321 -0.09349927 -0.095039904 0.0014613102
-0.031463284 -0.013757125 0.024430607 -0.036179468 0.0022819876 0.048748724 0.035196226 0.019144295
0.028687442 0.04215348 -0.026037622 -0.02632972 -0.016018 0.04984623 -0.014785139 -0.0072060623
-0.011881728 -0.039943773 0.06189411 -0.04773415 0.039141335 0.010986931 -0.018170174 -0.03272538
-0.06431519 -0.0070203636 0.049240842 0.020103952 -0.017795341 -0.06588646 -0.03839787 -0.0010293776
-0.009206004 0.020779803 0.026687814 0.07167574 -0.0036838038 0.013022508 -0.06449565 -0.02000041
0.014120377 0.03699354 -0.012957464 0.0062233214 -0.03882905 0.022210952 -0.092920154 0.033258107
0.012556867 -0.005631542 -0.048734587 -0.020933168 0.043057624 0.00016291345 -0.07107934 -0.07358804
0.027221238 -0.03113328 -0.045624066 -0.05976209 -0.075445056 -0.089792 0.080650665 0.065422185
-0.004595968 -0.013747355 -0.09999074 -0.03632818 0.012242478 -0.04625142 -0.013884275 0.060931224
-0.009049532 0.0128155695 0.060636405 0.036698084 0.016249591 -0.005802635 0.018344546 -0.029404784
-0.016090838 0.037095994 -0.08003851 -0.004715673 0.0055118133 -0.059077505 0.00784465 -0.059060734
0.029130528 0.00448437 -0.08570165 0.0025142555 -0.03656175 0.060000077 0.021359123 -0.022622533
0.03610755 0.050539855 -0.037013672 -0.0036580206 0.024697404 -0.009949894 -0.0028951033 0.042511463
0.00040792135 0.05661348 0.026387427 0.006413995 -0.049194366 0.029974312 -0.1069739 0.02708895
0.0062343217 0.013962174 -0.048342574 0.05610791 0.0030034857 -0.0054280204 0.013277809 -0.104478434

gru.bias_ih_l0 f4 [384]
00000000: bd12 28bb 6149 913c 2cde 41bb e387 b23c
00000010: ea0a 7e3c 14cf 0cbd a00b 57bb 08a2 e53a
00000020: b604 04bd 4571 a9bb 79bd 6dbc 02f7 adbc
00000030: c420 b8bc 9642 1e3d c419 0d3c fd19 41b9
00000040: 2b32 d23b 3acc 7fbb 8b4f afbd 90e5 f4b8
00000050: 6fba f23c c920 093b 56ba ac3b 4832 c5bb
00000060: 05f5 513d 4cce 62bc 4d47 4e3b 2c4a 633d
00000070: 29fb 023d 4720 29bc 5d0a 253c e8a2 a3bc
00000080: 0fa9 cc3c f5cc a13c abb1 2fbc d82b 543d
00000090: 78f0 463c 8d4e dd3b 3f8e 8cbc 5d5d 43bd
000000a0: 9726 42b7 3575 843c ff34 153d ce77 8e3c
000000b0: 34fb 303d dc19 0e3d 41b0 24bd fdb0 99bc
000000c0: 736a aa3c dc71 edb9 61cc 643c 90b7 fb3a
000000d0: 2b0f debb 36e6 0a3d 1a2a 92bc 0296 9fbd
000000e0: 58e7 85bb 4018 81bc 0855 a23c 8099 5f3c
000000f0: 6be1 e63c 279f 2e3c ea1a ac3c 92c5 063d
00000100: 6ac1 1d3c 24d4 a5ba 2523 c53b 99e4 e03c
00000110: 228b f93c 4bdd 19bd acdf eebc 45ab 1bbc
00000120: e53c 243b 9fce 163c 9d23 e63b f3a1 2ebd
00000130: bbf0 f2bc 88ff 12bc 4821 343a abe7 ccbc
00000140: c409 c7bc 0e42 473b ed36 953c d12d cebc
00000150: aaab 34bc b738 a83b 5fa5 d9bb 268e abba
00000160: add9 8d3c 9806 393d 9de9 c03c 8614 c23c
00000170: 719c fdba 6ace 2abc 8ee1 39bc e30d 83ba
00000180: aa05 85bc ec48 443d ef33 3b3d 621a 5bbc
00000190: 5b06 34b9 c600 17bc 7821 30ba 3d88 2dbc
000001a0: 93ff 063d 6749 a4bb e183 1bbc 1f0e f13b
000001b0: da4d 023d 66a7 89bc 218b dfbc c0d8 d63b
000001c0: 4593 1c3c 285a 5e3c df4a 983d 1bbf 9539
000001d0: e636 0ebd fc67 103d 2612 5d3d ac07 0fbb
000001e0: ec42 1a3d e9fa f03b e23b 1438 de1f dabc
000001f0: 90fe ec3c 2d8b 1c3d 937d d53b de97 5e3d
00000200: fc71 523c e618 8abd 1f59 6a3e 34bc 2b3d
00000210: 6ff1 873e 4f43 c4bd e295 b5bd bd6b 673e
00000220: 34d2 40bc 8b1f e83d 924f c9bd afac 9cbe
00000230: 7708 5bbe 8d18 503e 4178 84bd fab4 953e
00000240: 0bb5 0d3e aa94 f83d 737e a3bd 1d7d b3bd
00000250: 6fe4 fa3d 6524 95bd 1b24 9c3d 6689 843d
00000260: 042d 0bbe f7f0 2a3e a740 713d 5981 eabd
00000270: 03f9 01be 856c 7fbe 4d59 35be 0c13 3d3e
00000280: c045 253c 9253 2ebd 442f 883d 00ab 9fbd
00000290: ed92 463e 434b 5d3e 85bc 9cbd 10ed 0fbe
000002a0: 9303 743e f6c6 cbbd 069a af3d c01c 7bbe
000002b0: 1876 99be 4d58 aa3d 832b 0dbe 0bfc d8bd
000002c0: b3c2 cbbd c92a 8e3e 4805 dc3c 2b75 5f3e
000002d0: 0ed1 84be ecb5 88be 095e 5bbe 3a6d 07be
000002e0: c9ec ee3d 44f3 993d f0fd cabd b4c7 02be
000002f0: 2fc5 f3bd 008e 443e 06e5 53be 79b7 33be
00000300: 3639 d83d 1eae d93c fd17 1e3d 5225 3cbd
00000310: f8f6 43be 2e3e 4dbe bb02 5fbe 9b35 5e3e
00000320: 2de9 803e 9c17 593e 28cf 3dbe 0323 2dbe
00000330: 4be0 67be 5e70 433e 9e0a 823e 52cf 053e
00000340: 18b7 46be 3bcd 8c3e ed8c 00be c013 5ebe
00000350: 4778 eb3c e4bd d9bd e924 b43d 0905 403e
00000360: 87c1 8dbe b839 68be b1cd c13d edf5 bbbd
00000370: 6fbf e43d fe4b 24be da73 23be 4478 693e
00000380: 3e6d 32be 2b13 2fbe e4fc 92bc 735c e53d
00000390: 79fe 563e fd85 de3d ab0d a63d d7f2 57be
000003a0: 1b3b 47be 9887 103e d4ab 573e fc02 053e
000003b0: f39c 2abe 9f21 82be 39c3 d5bd 3185 36be
000003c0: bc82 333d 3b56 7dbe b377 16be 8a04 fe3d
000003d0: bea0 68be 662c 2a3e 670c 05be 8080 3f3e
000003e0: 1058 f1bd 1b53 91bd 12af 1a3b 288b 803e
000003f0: fe30 513e d372 2a3e 9ae8 c3bb 7510 963d
-0.0025645935 0.017735185 -0.0029581888 0.021793311 0.015505532 -0.034377173 -0.0032813326 0.0017519603
-0.032231055 -0.0051709735 -0.014510506 -0.021235947 -0.022476561 0.03863772 0.0086121 -0.00018415596
0.006414672 -0.003903164 -0.085600935 -0.00011677586 0.029629914 0.0020924082 0.0052712364 -0.006017957
0.05125906 -0.01384313 0.0031475604 0.055490658 0.031977806 -0.010322637 0.010073272 -0.01997514
0.024982957 0.019751051 -0.010723512 0.051799625 0.012142293 0.0067537487 -0.017157672 -0.04769646
-1.1572286e-05 0.01616917 0.036427494 0.017391112 0.043208316 0.03469263 -0.04020715 -0.018761152
0.020802712 -0.00045288994 0.013964743 0.0019204486 -0.0067767105 0.033910953 -0.017842341 -0.077922836
-0.004086416 -0.015758634 0.019815937 0.013647437 0.02818366 0.010658062 0.021008927 0.03290326
0.009628633 -0.0012651724 0.0060161524 0.027452754 0.030461852 -0.037564557 -0.02915939 -0.009501283
0.002506071 0.009204536 0.0070232884 -0.042634916 -0.029655805 -0.008972056 0.00068714144 -0.025012812
-0.024296649 0.0030404362 0.018214667 -0.025168331 -0.011027256 0.005133714 -0.006642028 -0.0013088628
0.01731571 0.045172304 0.023548895 0.023691427 -0.0019348991 -0.0104251895 -0.01134528 -0.0009998645
-0.016238052 0.047921106 0.045703825 -0.013372989 -0.00017168505 -0.009216493 -0.00067188544 -0.010591564
0.03295858 -0.005013633 -0.009491892 0.0073564197 0.031812526 -0.016803455 -0.027288022 0.0065566003
0.009556596 0.0135713 0.074361555 0.0002856188 -0.034720324 0.035255417 0.053972386 -0.002182464
0.037661478 0.0073541296 3.534172e-05 -0.026626524 0.028929979 0.038218666 0.0065152138 0.05434405
0.012844559 -0.0674303 0.2288556 0.04192753 0.26551387 -0.095831506 -0.088664785 0.22599693
-0.011768866 0.11334141 -0.0982963 -0.30600497 -0.21389948 0.20321865 -0.06468249 0.29239637
0.13838594 0.121377304 -0.07983103 -0.08764098 0.122506015 -0.07282332 0.07624074 0.06471519
-0.13591391 0.16693483 0.058899548 -0.11450452 -0.12692647 -0.2494374 -0.17709847 0.18464297
0.0100874305 -0.042560168 0.0664964 -0.077962875 0.19391985 0.21610741 -0.07653145 -0.14055276
0.23829488 -0.09950058 0.085742995 -0.24522686 -0.2997291 0.08317623 -0.1378613 -0.105949484
-0.09949245 0.27767017 0.026857987 0.2182204 -0.25940746 -0.26701295 -0.2142259 -0.1322526
0.11666257 0.07517102 -0.09911716 -0.12771493 -0.11902844 0.19194794 -0.20692834 -0.17550458
0.10557787 0.026572283 0.038597096 -0.04593403 -0.1913718 -0.20043251 -0.21778385 0.21700136
0.251779 0.21200413 -0.18536055 -0.16907887 -0.22644155 0.19085833 0.25398725 0.13067368
-0.19405782 0.27500328 -0.12553759 -0.21687222 0.028743876 -0.10631922 0.087961026 0.18751921
-0.27686712 -0.22678268 0.09463061 -0.09177766 0.111693256 -0.16044614 -0.15962163 0.22799784
-0.17424485 -0.17097156 -0.017942853 0.11199274 0.20995511 0.108654 0.08108076 -0.2108873
-0.1945614 0.14114225 0.21061641 0.1298942 -0.16661434 -0.25416276 -0.104376264 -0.17824246
0.04382585 -0.24739926 -0.14694099 0.124032095 -0.22717568 0.16618499 -0.12993012 0.18701363
-0.11784375 -0.07095929 0.0023602885 0.25106168 0.20428845 0.16645364 -0.005978656 0.07327358

gru.bias_hh_l0 f4 [384]
00000000: bd12 28bb 6149 913c 2cde 41bb e387 b23c
00000010: ea0a 7e3c 14cf 0cbd a00b 57bb 08a2 e53a
00000020: b604 04bd 4571 a9bb 79bd 6dbc 02f7 adbc
00000030: c420 b8bc 9642 1e3d c419 0d3c fd19 41b9
00000040: 2b32 d23b 3acc 7fbb 8b4f afbd 90e5 f4b8
00000050: 6fba f23c c920 093b 56ba ac3b 4832 c5bb
00000060: 05f5 513d 4cce 62bc 4d47 4e3b 2c4a 633d
00000070: 29fb 023d 4720 29bc 5d0a 253c e8a2 a3bc
00000080: 0fa9 cc3c f5cc a13c abb1 2fbc d82b 543d
00000090: 78f0 463c 8d4e dd3b 3f8e 8cbc 5d5d 43bd
000000a0: 9726 42b7 3575 843c ff34 153d ce77 8e3c
000000b0: 34fb 303d dc19 0e3d 41b0 24bd fdb0 99bc
000000c0: 736a aa3c dc71 edb9 61cc 643c 90b7 fb3a
000000d0: 2b0f debb 36e6 0a3d 1a2a 92bc 0296 9fbd
000000e0: 58e7 85bb 4018 81bc 0855 a23c 8099 5f3c
000000f0: 6be1 e63c 279f 2e3c ea1a ac3c 92c5 063d
00000100: 6ac1 1d3c 24d4 a5ba 2523 c53b 99e4 e03c
00000110: 228b f93c 4bdd 19bd acdf eebc 45ab 1bbc
00000120: e53c 243b 9fce 163c 9d23 e63b f3a1 2ebd
00000130: bbf0 f2bc 88ff 12bc 4821 343a abe7 ccbc
00000140: c409 c7bc 0e42 473b ed36 953c d12d cebc
00000150: aaab 34bc b738 a83b 5fa5 d9bb 268e abba
00000160: add9 8d3c 9806 393d 9de9 c03c 8614 c23c
00000170: 719c fdba 6ace 2abc 8ee1 39bc e30d 83ba
00000180: aa05 85bc ec48 443d ef33 3b3d 621a 5bbc
00000190: 5b06 34b9 c600 17bc 7821 30ba 3d88 2dbc
000001a0: 93ff 063d 6749 a4bb e183 1bbc 1f0e f13b
000001b0: da4d 023d 66a7 89bc 218b dfbc c0d8 d63b
000001c0: 4593 1c3c 285a 5e3c df4a 983d 1bbf 9539
000001d0: e636 0ebd fc67 103d 2612 5d3d ac07 0fbb
000001e0: ec42 1a3d e9fa f03b e23b 1438 de1f dabc
000001f0: 90fe ec3c 2d8b 1c3d 937d d53b de97 5e3d
00000200: fc71 523c e618 8abd 1f59 6a3e 34bc 2b3d
00000210: 6ff1 873e 4f43 c4bd e295 b5bd bd6b 673e
00000220: 34d2 40bc 8b1f e83d 924f c9bd afac 9cbe
00000230: 7708 5bbe 8d18 503e 4178 84bd fab4 953e
00000240: 0bb5 0d3e aa94 f83d 737e a3bd 1d7d b3bd
00000250: 6fe4 fa3d 6524 95bd 1b24 9c3d 6689 843d
00000260: 042d 0bbe f7f0 2a3e a740 713d 5981 eabd
00000270: 03f9 01be 856c 7fbe 4d59 35be 0c13 3d3e
00000280: c045 253c 9253 2ebd 442f 883d 00ab 9fbd
00000290: ed92 463e 434b 5d3e 85bc 9cbd 10ed 0fbe
000002a0: 9303 743e f6c6 cbbd 069a af3d c01c 7bbe
000002b0: 1876 99be 4d58 aa3d 832b 0dbe 0bfc d8bd
000002c0: b3c2 cbbd c92a 8e3e 4805 dc3c 2b75 5f3e
000002d0: 0ed1 84be ecb5 88be 095e 5bbe 3a6d 07be
000002e0: c9ec ee3d 44f3 993d f0fd cabd b4c7 02be
000002f0: 2fc5 f3bd 008e 443e 06e5 53be 79b7 33be
00000300: 3639 d83d 1eae d93c fd17 1e3d 5225 3cbd
00000310: f8f6 43be 2e3e 4dbe bb02 5fbe 9b35 5e3e
00000320: 2de9 803e 9c17 593e 28cf 3dbe 0323 2dbe
00000330: 4be0 67be 5e70 433e 9e0a 823e 52cf 053e
00000340: 18b7 46be 3bcd 8c3e ed8c 00be c013 5ebe
00000350: 4778 eb3c e4bd d9bd e924 b43d 0905 403e
00000360: 87c1 8dbe b839 68be b1cd c13d edf5 bbbd
00000370: 6fbf e43d fe4b 24be da73 23be 4478 693e
00000380: 3e6d 32be 2b13 2fbe e4fc 92bc 735c e53d
00000390: 79fe 563e fd85 de3d ab0d a63d d7f2 57be
000003a0: 1b3b 47be 9887 103e d4ab 573e fc02 053e
000003b0: f39c 2abe 9f21 82be 39c3 d5bd 3185 36be
000003c0: bc82 333d 3b56 7dbe b377 16be 8a04 fe3d
000003d0: bea0 68be 662c 2a3e 670c 05be 8080 3f3e
000003e0: 1058 f1bd 1b53 91bd 12af 1a3b 288b 803e
000003f0: fe30 513e d372 2a3e 9ae8 c3bb 7510 963d
-0.0025645935 0.017735185 -0.0029581888 0.021793311 0.015505532 -0.034377173 -0.0032813326 0.0017519603
-0.032231055 -0.0051709735 -0.014510506 -0.021235947 -0.022476561 0.03863772 0.0086121 -0.00018415596
0.006414672 -0.003903164 -0.085600935 -0.00011677586 0.029629914 0.0020924082 0.0052712364 -0.006017957
0.05125906 -0.01384313 0.0031475604 0.055490658 0.031977806 -0.010322637 0.010073272 -0.01997514
0.024982957 0.019751051 -0.010723512 0.051799625 0.012142293 0.0067537487 -0.017157672 -0.04769646
-1.1572286e-05 0.01616917 0.036427494 0.017391112 0.043208316 0.03469263 -0.04020715 -0.018761152
0.020802712 -0.00045288994 0.013964743 0.0019204486 -0.0067767105 0.033910953 -0.017842341 -0.077922836
-0.004086416 -0.015758634 0.019815937 0.013647437 0.02818366 0.010658062 0.021008927 0.03290326
0.009628633 -0.0012651724 0.0060161524 0.027452754 0.030461852 -0.037564557 -0.02915939 -0.009501283
0.002506071 0.009204536 0.0070232884 -0.042634916 -0.029655805 -0.008972056 0.00068714144 -0.025012812
-0.024296649 0.0030404362 0.018214667 -0.025168331 -0.011027256 0.005133714 -0.006642028 -0.0013088628
0.01731571 0.045172304 0.023548895 0.023691427 -0.0019348991 -0.0104251895 -0.01134528 -0.0009998645
-0.016238052 0.047921106 0.045703825 -0.013372989 -0.00017168505 -0.009216493 -0.00067188544 -0.010591564
0.03295858 -0.005013633 -0.009491892 0.0073564197 0.031812526 -0.016803455 -0.027288022 0.0065566003
0.009556596 0.0135713 0.074361555 0.0002856188 -0.034720324 0.035255417 0.053972386 -0.002182464
0.037661478 0.0073541296 3.534172e-05 -0.026626524 0.028929979 0.038218666 0.0065152138 0.05434405
0.012844559 -0.0674303 0.2288556 0.04192753 0.26551387 -0.095831506 -0.088664785 0.22599693
-0.011768866 0.11334141 -0.0982963 -0.30600497 -0.21389948 0.20321865 -0.06468249 0.29239637
0.13838594 0.121377304 -0.07983103 -0.08764098 0.122506015 -0.07282332 0.07624074 0.06471519
-0.13591391 0.16693483 0.058899548 -0.11450452 -0.12692647 -0.2494374 -0.17709847 0.18464297
0.0100874305 -0.042560168 0.0664964 -0.077962875 0.19391985 0.21610741 -0.07653145 -0.14055276
0.23829488 -0.09950058 0.085742995 -0.24522686 -0.2997291 0.08317623 -0.1378613 -0.105949484
-0.09949245 0.27767017 0.026857987 0.2182204 -0.25940746 -0.26701295 -0.2142259 -0.1322526
0.11666257 0.07517102 -0.09911716 -0.12771493 -0.11902844 0.19194794 -0.20692834 -0.17550458
0.10557787 0.026572283 0.038597096 -0.04593403 -0.1913718 -0.20043251 -0.21778385 0.21700136
0.251779 0.21200413 -0.18536055 -0.16907887 -0.22644155 0.19085833 0.25398725 0.13067368
-0.19405782 0.27500328 -0.12553759 -0.21687222 0.028743876 -0.10631922 0.087961026 0.18751921
-0.27686712 -0.22678268 0.09463061 -0.09177766 0.111693256 -0.16044614 -0.15962163 0.22799784
-0.17424485 -0.17097156 -0.017942853 0.11199274 0.20995511 0.108654 0.08108076 -0.2108873
-0.1945614 0.14114225 0.21061641 0.1298942 -0.16661434 -0.25416276 -0.104376264 -0.17824246
0.04382585 -0.24739926 -0.14694099 0.124032095 -0.22717568 0.16618499 -0.12993012 0.18701363
-0.11784375 -0.07095929 0.0023602885 0.25106168 0.20428845 0.16645364 -0.005978656 0.07327358

gru.weight_ih_l1 f4 [384, 128]
00000000: 5975 273d d3d4 f63d 9c0f d0be 0ba2 873e
00000010: 8694 75bf 4aaa 5cbb b814 d43c 4eac 8a3e
00000020: d7c9 88bd 4d26 0cbd 1895 a83c dbc9 b3be
00000030: 308c 0cbc d0db f13e 7271 60bd ff39 d7be
00000040: 691e 8bbe 4d28 fe3e d991 173e 9ce6 87bd
00000050: 2fa3 ecbd 141a 953d cf73 3cbd bfbe c3be
00000060: 644a ab3e ad02 ba3e b51e 21bb 6200 8f3d
00000070: ac63 a63d c1cb 6fbd 7d37 5d3e ff18 0b3c
00000080: 51e3 fbbc 2d4f 8f3e 869e 74be ba6b 4fbd
00000090: bdb9 10be 9be6 be3e ba5c 0d3d 8af2 2a3e
000000a0: e067 83be b4c6 17bc a111 163e 8dbb 893e
000000b0: c994 f8be 13e7 64be 624b 8ebe d103 f03a
000000c0: 937f 003e f6ba 7cbf 5e32 073e 7ce4 47bd
000000d0: dcf5 af3e f1f2 4fbe da46 523c f5ff b13e
000000e0: 68af e2be 053c 6d3d fbe2 393d baef 85bd
000000f0: c891 c93e 6935 d43e c14d 85be 1367 66be
00000100: 1cf4 753d a8bb 233e c1c1 d2bd 0e0b 923c
00000110: 9a3f bdbe 2802 64bc 2995 553e aa66 44be
00000120: 1b86 b13e fec5 b33e 08c3 8cbe 78f9 703e
00000130: 1a4a fb3c f132 fb3d 0248 92be bba7 fb3d
00000140: d8c9 48be 2239 76be c1db 943b 9785 9f3e
00000150: 4b4f 1ebe 09ae 7d3e 6932 a9be 5dcd babe
00000160: ee85 ae3d de86 143f 3975 95bc 4ca0 7bbe
00000170: 1209 b73d ba79 8bbe 1de0 463e 3be3 84be
00000180: 8fb2 dd3d e780 42be 6d86 3dbd 534d 8abe
00000190: 510c 68be eaee e63e cbfb 90be b719 18be
000001a0: 2017 2a3e ac09 a1be 5240 5dbe 98e1 173f
000001b0: d07c a23d 70bf aa3e c880 f23c 568f af3d
000001c0: d208 783e 52b0 1b3e ab3f bb3b a534 a53d
000001d0: 2bf6 f0be 43bf b2ba 9100 4ebe ae4a 7abe
000001e0: 60dc 7d3b 34d6 013f 71fb 81bd 34a6 b0be
000001f0: a36e 39be b664 3d3e 2b2f 453d 3e20 24be
00000200: 0ee4 da3d 8d43 a43d a8fa 40be 9194 dbbc
00000210: bd00 46be 45b6 913d 26ce 013b b44a c4b8
00000220: 277e 4e3e 4068 2b3e dcb8 183c 5dc6 35bd
00000230: 800c a7bc f040 a03e 5c37 9d3e 7dc3 36bf
00000240: 66e5 21be e88b 743d d48b 033f fc28 dabd
00000250: e89b 87be 3428 a2be e40f 88be 945f 063f
00000260: f3c5 cdbc 2a25 ad3e f476 debd 64bc be3e
00000270: 1f36 6abe fddb 143e 7d75 873d da85 513e
00000280: b651 42be 557e efbc 5399 f9bd 9583 3e3e
00000290: 4b07 1ebf 1e42 1f3e 745d 773e 39c3 4bbe
000002a0: e95a 31bf c761 943d 0ef1 fd3d 6de0 d9be
000002b0: 05fd 5c3d 4b55 aabd 1e7d 733e aaa3 093f
000002c0: f626 823e 20f8 ffbe 52b1 a73e 7f9a 723f
000002d0: 8ce8 64bb c440 8dbd 852c 1e3f cb11 c6bd
000002e0: 0bb9 fc3a 4537 c23d 1ce8 753e 3b8c 81bd
000002f0: 6dd3 95be 798f 143f d0f4 293e fb76 903d
00000300: 494e 6b3e 68b1 cbbe 4fc8 a03e 4125 903d
00000310: e1a7 70bc 161f 4d3e 023f 793e e7ee 2cbf
00000320: 2278 003f 52d6 303f 152c 5d3f 987d 0cbe
00000330: c0a5 9e3d beed ae3e 6f64 eabe 125e 063e
00000340: 8dca 8f3d c3d1 3cbf f2c8 953d 2ccb 48bf
00000350: 7ff0 cabe 643e c8be 3466 91bd 19a8 e3be
00000360: a1c1 08be daac b9bd 97d8 783c 0766 023f
00000370: cfc1 4f3f 9492 1d3f 9cde c5bd a278 013e
00000380: 2ce8 d7be 754a 033f 9e34 0bbe 0b09 f4ba
00000390: 93f1 efbd bffb 11be 9899 6f3e 98cf df3e
000003a0: f2cf 2ebe b7dd 8dbd 58a9 12bf 751f 0d3d
000003b0: d984 8dbe a3d2 c2bd 8b76 bb3e 3e2a b73e
000003c0: bff8 afbe e06d c2bd 58cc 673e 1890 06bf
000003d0: 0fc9 5f3e cbb6 603e 0d3e 213e c72e d63c
000003e0: 6410 b93e 0229 3cbd 7885 6b3e c608 5bbe
000003f0: ba2a 53bf f731 ec3d fae3 783e ef73 ec3e
0.040883396 0.12052312 -0.4063691 0.26490816 -0.95929754 -0.0033670836 0.025888786 0.27084583
-0.06679123 -0.034216214 0.020578906 -0.3511494 -0.008578345 0.47238016 -0.05479569 -0.42036435
-0.2717164 0.49640122 0.1480173 -0.06635782 -0.11554562 0.07280365 -0.04600888 -0.38231465
0.33455193 0.36330166 -0.0024584953 0.06982495 0.0812448 -0.058543924 0.21603198 0.008489846
-0.030748041 0.27990094 -0.23888597 -0.050639845 -0.14133354 0.37285313 0.03451226 0.16694084
-0.25665188 -0.009263683 0.14655162 0.26900902 -0.48551014 -0.22353773 -0.27791888 0.0018311684
0.12548666 -0.9872278 0.13202807 -0.048801884 0.34367263 -0.20307519 0.012834275 0.34765592
-0.4427445 0.057918567 0.04538248 -0.06539865 0.39369035 0.41447 -0.26035884 -0.22500257
0.060047254 0.15989554 -0.10290862 0.017827537 -0.36962587 -0.01391653 0.20857681 -0.19179788
0.34672627 0.35111994 -0.27492547 0.23532665 0.030674983 0.12265576 -0.28570563 0.122878514
-0.19608247 -0.24045232 0.0045427983 0.31156608 -0.15459935 0.2477342 -0.33046272 -0.36484805
0.08521639 0.5801829 -0.018244373 -0.24572867 0.08937277 -0.27241307 0.1942143 -0.25954613
0.10825073 -0.18994485 -0.046270777 -0.2701212 -0.22660948 0.45104152 -0.28317103 -0.1485356
0.16610384 -0.31452692 -0.21606568 0.59328604 0.07933962 0.3334918 0.029602423 0.08572261
0.24222115 0.1520398 0.005714377 0.08066682 -0.4706281 -0.0013637323 -0.20117404 -0.2444255
0.003873609 0.50717473 -0.06346787 -0.34501803 -0.18108611 0.1849545 0.048140686 -0.16027924
0.10688029 0.08020697 -0.18845618 -0.02680424 -0.19336219 0.07114843 0.0019806712 -9.359923e-05
0.20165311 0.16738987 0.009321418 -0.044378627 -0.020391703 0.31299543 0.30706298 -0.7139204
-0.15810165 0.059703737 0.51385236 -0.106523484 -0.26486135 -0.31671298 -0.26574624 0.5248959
-0.025118804 0.33817416 -0.10862532 0.37253106 -0.22872208 0.14537044 0.06614206 0.20461217
-0.18976483 -0.029235044 -0.121874474 0.18604882 -0.6172988 0.15552565 0.24156743 -0.1989869
-0.6927934 0.07245212 0.12399493 -0.42554036 0.053952236 -0.083170496 0.23778197 0.53765357
0.2542035 -0.49993992 0.32752472 0.9476699 -0.0034928648 -0.06897119 0.6178668 -0.096713625
0.0019281221 0.09483198 0.24014324 -0.06325575 -0.29262868 0.5803142 0.16597295 0.07053944
0.22979082 -0.39783788 0.31402823 0.070383556 -0.014688463 0.2003139 0.24340442 -0.67552036
0.5018331 0.69077027 0.8639539 -0.13719785 0.07746458 0.34165758 -0.4577975 0.13121822
0.07021055 -0.7375757 0.07313718 -0.78435016 -0.3963661 -0.391101 -0.07099572 -0.44464186
-0.13355114 -0.09066172 0.015188358 0.5093693 0.81155103 0.61551785 -0.096616 0.12643674
-0.4216932 0.5128549 -0.1359429 -0.0018618418 -0.117159985 -0.1425619 0.23398435 0.4371307
-0.17071512 -0.069270544 -0.5728965 0.034453828 -0.27640417 -0.09512832 0.3661388 0.35774416
-0.34369466 -0.09493613 0.22636545 -0.5256362 0.21854042 0.2194473 0.15746327 0.026145352
0.36145318 -0.045937546 0.23000133 -0.21390066 -0.8248707 0.115329675 0.24305716 0.461822

gru.weight_hh_l1 f4 [384, 128]
00000000: 41e0 06bd f2e3 3a3d 145c 193d 8013 003d
00000010: 97b2 4a3d f390 813e 3a4d fd3d efed 46bd
00000020: b609 a8be ebc9 a7bd 1f56 7b3e f5ed a43c
00000030: 9d3d fabc 398d 643d 20b9 8dbc 48a3 21be
00000040: 9a5b d4bd ab87 0f3e cd0b 553d d05f d1bd
00000050: 2f40 e0bd 090c f3bb b01e f9bd e6aa db3c
00000060: aaaa bb3d c1cc 85bd c14f 933c b268 93ba
00000070: cf27 333e bc41 08bd edf2 77bd 98a9 2c3e
00000080: b630 5ebe a97d f6bd 29ca e4bd 1b86 debb
00000090: 60b8 b83d 1db3 8fbe b18d 13bd 2955 f0bd
000000a0: 5921 adbd 9d3b a63c 04dc 3e3d b831 873d
000000b0: 8cc4 343d a081 523b b47c c93c 3c2d 803d
000000c0: 5144 a0be 2abc aa3b 0c38 f8bc 0e25 fc3d
000000d0: 16d8 50be eb71 4dbe b982 20bd 2779 843d
000000e0: 2fed 81bd 7398 2fbe d135 4cbd b293 da3d
000000f0: 8cfb f0bc deea 24be b27d 103d b6c4 cf3d
00000100: 604a 813d 2e7b 143d b084 07be 464d 8ebd
00000110: 077c 0e3e 2e95 a63d 4a22 eebd 1e9f 66be
00000120: 47e1 303c 0553 4bbe 2de9 1f3e cb78 083d
00000130: 4987 093d 1c68 853b 913b ab3d eeab dabb
00000140: b681 b2bd 5af5 d8bd aa70 1c3e 88df f2bd
00000150: 59a3 6a3c 9f6b d3bd ffc1 adbd 2ca1 7dbd
00000160: 78c2 693d ee79 623c d4ef 8abc 6ca3 90bd
00000170: 76a5 fcbd f297 173c 51c7 7b3c f0cb ae3d
00000180: 42f2 0fbd c469 233d 88e6 773d 533e 6f3d
00000190: 56cf be3d 4d77 b43b 01ad f73d 708a 33bd
000001a0: a57f 84be 5a3e 473c 741c 0d3e a86a 94bd
000001b0: 44a4 fa3b 16ef ec3d eb71 32bc eacf 793d
000001c0: f285 103d b995 8abd 179e d63c 5563 393d
000001d0: fd72 bfbd aa70 893d 33d1 38bc 5b5d f8bd
000001e0: 89e3 64be e5a2 cbbb 6ec5 9e3d f5ff debc
000001f0: f027 cebc fe8b dcbc 9e7a 26be 7a1f c93c
00000200: c471 babd 582d f4be 48ca 8e3e f1df c73d
00000210: f44e 19bd 3a14 bc3c 1fed 9dbd 03aa 473d
00000220: 56e3 863d 9382 c5bd 2978 8dbe d6c0 f43d
00000230: 0ae5 383e 9d35 05bf 79b3 be3d 4187 0a3d
00000240: e352 273e 10d2 a8bd 3698 94be 248d 87be
00000250: 5526 853e 0f18 d23d d390 dabd 48ba 42be
00000260: 02ec bdbd d6e3 293e 648d 4d3d 8f05 183e
00000270: 9bea 033e 3477 b5bd 6d4c 033d c644 da3d
00000280: bafa 923e c943 b43e d5cc e9bd 1dd5 5a3e
00000290: 5713 0bbe 89ff e03d 606c 0a3d 4312 16be
000002a0: 4dac 003e fb0c 60be 510e 6ebd c041 b0be
000002b0: 9b0a f43d 5e7f 2a3d 207b bf3d 0c50 30bd
000002c0: 6f1a 09be c2d7 823b fb07 163e 56a9 043e
000002d0: 5178 02be 9bcf 19be 3d4f c73d be21 643d
000002e0: 5dbf f43d 7625 913c 41f8 2f3e a2e2 f2bd
000002f0: f4d8 93bd 9b0c c33a aae1 4abd df98 34bd
00000300: 601e f2bd 8182 63bc 5541 d43c f03d 54be
00000310: ff4b 8c3d 3f41 8abd 6a4b ac3d 4108 3dbe
00000320: b32b a83c e9d9 243e 669c cbba d015 6f3d
00000330: d6ff fd3c b4b7 c03b 6497 f3bc 3baf 7b3d
00000340: 472b 98bd bb58 3dbe 81a8 17be 53e8 e4bd
00000350: 14df b6bd b5aa 483e 64bc a3bd 0f25 6fbd
00000360: f23d 303e 1eed d0bb 1028 493e eb2b a7bd
00000370: 23e9 1fbe cd1c 633d 64d8 e1bd d1ce 093e
00000380: e219 a83d 60e7 be3d f3e2 05be 9130 adbd
00000390: 81df 32be 19bc ca3e db0c 293e d322 34be
000003a0: 5fb2 1d3e cd63 2f3e a9ce 343e 52f4 debd
000003b0: 36ed da3d 7a44 483d b5be 5abd 5d00 39bd
000003c0: 80a7 3dbd 3141 bebd cba6 d33d 1ba2 403e
000003d0: f042 dcbd 6faa 203e f651 013d 4a04 0a3e
000003e0: 08b0 b9bd 4506 253e b8c0 81bd c8e1 3d3e
000003f0: 1194 893d 5159 013d 4578 ea3c 688e 2abe
-0.03292871 0.04562754 0.03744133 0.031268597 0.049486723 0.253059 0.123682454 -0.048566755
-0.3281991 -0.0819281 0.24544571 0.020132998 -0.030546958 0.055798743 -0.017300189 -0.15784943
-0.10369034 0.14016597 0.052013207 -0.10223353 -0.10949742 -0.007417206 -0.12164056 0.02681489
0.09163411 -0.06533194 0.017982366 -0.0011246412 0.17495655 -0.033265814 -0.060534406 0.1686157
-0.21698269 -0.120356865 -0.111713715 -0.006790889 0.09019542 -0.2806634 -0.0360238 -0.11734993
-0.08453626 0.020292098 0.046596542 0.0660128 0.044132754 0.003212072 0.024595596 0.06258628
-0.3130212 0.005210419 -0.030300163 0.12311755 -0.2039493 -0.20062988 -0.039187167 0.064684205
-0.06344067 -0.17147999 -0.04985601 0.10672702 -0.029416822 -0.1610522 0.035276122 0.101449415
0.06313014 0.036250286 -0.1323421 -0.069483325 0.139145 0.081339225 -0.11627634 -0.22521636
0.010795898 -0.19855888 0.15616293 0.033318322 0.033576284 0.0040712487 0.08360971 -0.0066733276
-0.08716147 -0.10593672 0.15277353 -0.118590415 0.014321172 -0.103232615 -0.084842674 -0.061921284
0.057070225 0.013823016 -0.016960062 -0.0706242 -0.12336247 0.009252535 0.015367345 0.08534992
-0.035143144 0.039895788 0.060522586 0.058409046 0.0931689 0.005507386 0.12093545 -0.043833196
-0.25878635 0.012160862 0.13780385 -0.072469056 0.0076489765 0.115690395 -0.010891418 0.060989298
0.03528399 -0.067668386 0.02619843 0.045260746 -0.09348104 0.06710942 -0.011280346 -0.12127181
-0.22352423 -0.006214487 0.077525005 -0.02722166 -0.025165528 -0.026922222 -0.16257712 0.024551142
-0.0910373 -0.47690845 0.27888703 0.0975951 -0.03742881 0.022958864 -0.07711243 0.04874612
0.0658633 -0.09644046 -0.27630737 0.11950843 0.18056121 -0.5203493 0.093115754 0.033820394
0.16340213 -0.08243191 -0.29022378 -0.2647487 0.26005808 0.10258495 -0.10672154 -0.19016373
-0.092735305 0.16590819 0.05018367 0.1484587 0.12882464 -0.08860627 0.032055307 0.10657649
0.28706914 0.35207966 -0.11416022 0.21370359 -0.13581596 0.109862395 0.03379476 -0.14655404
0.12565728 -0.21879952 -0.058119122 -0.34425163 0.11916085 0.041625373 0.09349656 -0.04304509
-0.1338899 0.0039930055 0.14651482 0.12955222 -0.1274121 -0.15020601 0.097319104 0.05569624
0.11950562 0.017718058 0.17184545 -0.11859633 -0.07219115 0.0014881076 -0.049531616 -0.0440911
-0.118222 -0.013886095 0.025910059 -0.20726752 0.068504326 -0.06750726 0.084128216 -0.1846018
0.02052865 0.16098751 -0.0015534281 0.05837041 0.031005781 0.005881274 -0.029735275 0.06144641
-0.074301295 -0.18490879 -0.14810373 -0.11177125 -0.089292675 0.1959637 -0.07994917 -0.05838495
0.1721113 -0.006375923 0.19644189 -0.081626736 -0.15616278 0.05544739 -0.11027601 0.134578
0.08208062 0.09321475 -0.13074856 -0.08456529 -0.17468072 0.39596632 0.1650881 -0.1759141
0.15400074 0.17127915 0.1765696 -0.10886444 0.10689776 0.04889343 -0.05340453 -0.045166362
-0.04630232 -0.09289778 0.103345476 0.18811838 -0.10754955 0.15690015 0.031572305 0.13478199
-0.090667784 0.16115673 -0.06335586 0.1854316 0.067176946 0.03157932 0.028621802 -0.16655886

gru.bias_ih_l1 f4 [384]
00000000: 4463 773d 0a53 d8bc 8318 8b3d 6291 29be
00000010: 7c4b dd3c 742f 99bd f301 cbbc 06bc 6d3d
00000020: 2c7c 1ebe 3661 00bc e88d 6fbd cf08 cfbd
00000030: 063c aabd 137e 183d 436c a8bd 1cd1 21bd
00000040: e56f 80bc 6dab e7bd 5a0d 863e 1ea2 a0bd
00000050: 2020 41bd 9cb6 0cbe 407d 553d 270c f0bd
00000060: 3db6 943d 22eb bdbd 0c1e 16be 9782 9dbd
00000070: cc8e b63d 1a2c d1bd cf22 913d 7a88 a2bc
00000080: b8dd d8bd 85e4 493c 5064 eebc 8789 d9bc
00000090: 79ff 993c 37c2 16bd 0c24 22be dd8d 10be
000000a0: 9e61 cb3d 0fd9 17bd 638a 913c 1bc2 903e
000000b0: 41f9 41be 21a5 23bc b22d 393d 79ea 123d
000000c0: 1d2f 34be c02e 153e 7d58 21be 1fbb 523d
000000d0: 99b2 c8bd ddda 143c 72b6 36be 8898 583e
000000e0: cd44 e6bd 6468 debd 5ee0 1c3e d0c5 a53e
000000f0: 2e86 e63d f9bf 3abd 0b83 743c e80c babd
00000100: 1e7d 4b3d 85c8 153e e220 19bc 974c 323d
00000110: 80ae bfbd c095 863d 9197 9b3d 6f05 a5bd
00000120: 546b 0ebd 9805 77bd 1ee8 e93d 394a 84bd
00000130: c7df e13d 0f2d 5bbd 5ab1 3a3e 35e7 49be
00000140: 97ab 2c3c cf14 4bbd 92e6 a1bb 9f42 64be
00000150: 3acb abbd dc66 af39 0799 74be 275c a6bc
00000160: 2af2 183e f5d1 013e 2994 52bd e596 2dbd
00000170: 53a0 fc3a 071f 38be 7f64 efbd 99dc 97bd
00000180: 8118 90bd 304b df3c 2469 72bd d7d0 ac3d
00000190: def9 acbe 4bb0 c43c 0c8f ffbd 1042 aa3d
000001a0: a202 e03d 127f 0e3e 120f cfbd de3d 0bbd
000001b0: f630 82bd 401c 90bd 233f e53d 59d8 47bd
000001c0: b8a7 613d c59c f6bd d9ea 06be bc4a 7f3c
000001d0: d673 863c 8d5c 6cbd c1cd a9bc 308d ca3b
000001e0: f20b e9bd 9138 4e3e d7c8 613c 1ba6 5bbe
000001f0: 8e8b bc3c c475 4dbe 540a 543d 874e d73a
00000200: dd37 fcbe 5807 b3be 6ed4 86be b4d2 63be
00000210: fc7f d3be 7011 d9be 7ac7 98be 6563 09bf
00000220: 947a fcbe 1925 00bf 5e19 86be 4ce6 d8be
00000230: 5839 44be b191 7ebe 8aa3 b1be 42a6 babe
00000240: b36f c7be 0b2c eebe 294a a1be 760b d5be
00000250: 0a6d a3be 21db 2ebf 6ec8 20bf 53a9 e3be
00000260: 8c97 ecbe f584 eabe 2c84 dfbe f019 e7be
00000270: 9d12 d0be ab24 0cbf d753 00bf 8524 10bf
00000280: 9832 0fbf 86a4 c6be 9f72 0bbf 51eb b9be
00000290: eefe 69be 7847 f6be 6fdd 2cbf dd37 0cbf
000002a0: 194e 42be 0fd6 92be 774e ccbe 3170 d3be
000002b0: c27d 5fbe a5aa 0dbf b17a f5be e3f2 07bf
000002c0: 8096 90be 1118 0cbf 0c75 f6be d4f8 abbe
000002d0: b5a2 ebbe 7b93 0fbe ef68 34bf 25a6 a1be
000002e0: a8ff ffbe 5bf4 5ebe a99c d7be e841 d5be
000002f0: ed81 2bbf 1137 9cbe e433 ebbe 09e8 c4be
00000300: d6e4 a8be 4bd0 adbe a816 eabe a540 05bf
00000310: 3a2f 13bf 9180 f1be c6df c1be 88d7 5fbe
00000320: 3f15 2fbf b9ea f7be 7ccb acbe 8da2 9ebe
00000330: abcb bebe 0473 17bf 21f5 6ebe 2d9d 23bf
00000340: 83f4 05bf 94ea e1be fb40 34bf 5b8f d3be
00000350: b9cb eabe 80fc 53be 3af9 5abe cf00 e4be
00000360: 86e9 87be cc43 a1be 6c8a 8bbe 74e4 3ebe
00000370: 9a9d 62be d21c 1abf d922 f4be 5cfc 33be
00000380: e1c5 76be 9f8b 86be f9e8 03bf dd16 93be
00000390: 3a66 14bf a94f c6be dbe3 9cbe cc12 e1be
000003a0: 7d14 83be 2d6d 90be 1135 98be 3cd1 edbd
000003b0: 5fdd 36be ba7f f3be 41bf 03bf a105 e0be
000003c0: 2168 8ebe b289 33bf ca59 1dbf 745f f4be
000003d0: b06e f2be 7e45 ecbd e01a fabe e6c5 bbbe
000003e0: 1d9c d6be bf6a 94be 0b92 ccbe 4903 f3be
000003f0: 5c93 12bf 79cd 07bf 6d18 1ebf 0b80 f8be
0.0603974 -0.026406784 0.067917846 -0.16559365 0.027013533 -0.07479754 -0.024781203 0.05804064
-0.15477055 -0.007835677 -0.05848494 -0.10109102 -0.0831223 0.03722961 -0.08223774 -0.039506063
-0.015678355 -0.11311994 0.2618206 -0.078434214 -0.047149777 -0.13741535 0.0521214 -0.11721068
0.07261322 -0.09273364 -0.146599 -0.07690924 0.08913955 -0.1021349 0.07086717 -0.019840468
-0.105891645 0.01232255 -0.029100567 -0.026554836 0.018798577 -0.03680631 -0.15834063 -0.14116617
0.099307284 -0.037072238 0.017766183 0.2827309 -0.18942739 -0.0099881 0.045209594 0.03586814
-0.17596097 0.14568615 -0.15756412 0.051447984 -0.0979969 0.009085384 -0.17843035 0.21151936
-0.112435915 -0.10859755 0.15319964 0.3237748 0.112560615 -0.045593236 0.014923821 -0.09084493
0.049679868 0.14627273 -0.009346219 0.043530073 -0.09359455 0.06571531 0.075972684 -0.08057677
-0.034770325 -0.06030807 0.11421226 -0.06459469 0.1102901 -0.053509768 0.18231717 -0.19717105
0.010538957 -0.04958039 -0.004940816 -0.22291039 -0.08388372 0.00033455237 -0.238865 -0.020307614
0.14936128 0.12677749 -0.051410828 -0.042380232 0.0019273855 -0.17980586 -0.1168909 -0.074151225
-0.07035924 0.027257532 -0.0591823 0.084382705 -0.33784384 0.024009844 -0.12478456 0.08313382
0.10938002 0.13915661 -0.10110296 -0.033994548 -0.06356995 -0.07036638 0.11193683 -0.04879031
0.05509159 -0.1204162 -0.13175525 0.015581783 0.016412657 -0.05770545 -0.020727994 0.0061813816
-0.113792315 0.20138766 0.013780794 -0.21450083 0.023015764 -0.20064455 0.051767662 0.0016426601
-0.4926137 -0.3496654 -0.26333946 -0.22248346 -0.41308582 -0.42396116 -0.2983969 -0.5366729
-0.4931227 -0.50056607 -0.2619123 -0.42363203 -0.191625 -0.24860264 -0.34695083 -0.3645497
-0.38952407 -0.46517977 -0.31501892 -0.41610307 -0.31919128 -0.68303114 -0.6280583 -0.44465122
-0.4620937 -0.45804563 -0.43655527 -0.45136976 -0.406392 -0.5474345 -0.5012793 -0.56305724
-0.55936575 -0.38797396 -0.5447177 -0.36312345 -0.22851154 -0.481014 -0.6752538 -0.5477274
-0.18975104 -0.2867894 -0.39903614 -0.41296533 -0.21825317 -0.5533851 -0.4794517 -0.5310499
-0.28239822 -0.5472422 -0.48136175 -0.33588278 -0.46022573 -0.14021103 -0.70472616 -0.3157207
-0.49999738 -0.21772902 -0.4211171 -0.41651845 -0.66995126 -0.30510762 -0.45938027 -0.3845828
-0.32987088 -0.33947977 -0.4572041 -0.52051765 -0.57493937 -0.471684 -0.37866038 -0.21859562
-0.68391794 -0.48421267 -0.33748996 -0.3098339 -0.3726476 -0.59159875 -0.23335697 -0.63911706
-0.5232622 -0.4412428 -0.7041165 -0.4132031 -0.45858553 -0.2070179 -0.21384135 -0.44531867
-0.26545352 -0.31497037 -0.27254045 -0.18641835 -0.22130433 -0.60200226 -0.47682837 -0.17576736
-0.24098922 -0.26278397 -0.51527363 -0.2872838 -0.57968485 -0.3873265 -0.3064259 -0.43959653
-0.2560157 -0.28208295 -0.29727986 -0.11612174 -0.17857884 -0.47558385 -0.51463705 -0.43754295
-0.2781382 -0.7013198 -0.6146513 -0.47729075 -0.47350073 -0.11536692 -0.4884863 -0.36674422
-0.4191598 -0.2898769 -0.39955172 -0.47463444 -0.572561 -0.530479 -0.6175602 -0.4853519
